RWKV-v8/251016_rosa_1bit_run.pth (torch, 12549 bytes, 10 tensors)

e.weight f4 [11, 32]
0	0x3ff0a71d	1.8800999
1	0xbf408ace	-0.752118
2	0x3e832464	0.256137
3	0xbeaf23df	-0.34207055
4	0x3eb96cd1	0.36215833
5	0xbec9f6c2	-0.39446074
6	0x3f70bbcc	0.94036555
7	0x401a1094	2.4072618
8	0xbeb86e4e	-0.36021656
9	0x3ec69c08	0.38790917
10	0x3e8409ab	0.25788626
11	0x3921a6f1	0.00015416347
12	0xbf6e6b91	-0.93132883
13	0xc03a9cb9	-2.9158156
14	0xb65f450a	-3.3269775e-06
15	0xbf89fe5e	-1.0780752
16	0x3f368930	0.7130308
17	0x3edda377	0.43288776
18	0x3f122c08	0.57098436
19	0xbf82e7dd	-1.0227009
20	0xbfa4ae0d	-1.2865616
21	0xbfb3f2be	-1.4058454
22	0xbf76d41f	-0.9641742
23	0x3f1947f5	0.5987542
24	0xbfa0de45	-1.2567831
25	0x36151315	2.2213837e-06
26	0x3e8e231b	0.27761158
27	0x3f52b78b	0.82311314
28	0x400e2acf	2.2213628
29	0xbf1f7692	-0.622903
30	0x3f937a03	1.152161
31	0xbf5c91ab	-0.8615977
32	0xbf9b585e	-1.2136343
33	0x3ee79083	0.4522744
34	0x3fb7dcb6	1.4364231
35	0xbf7d835e	-0.99028575
36	0x3f9cf6c4	1.2262807
37	0x3e801398	0.2501495
38	0x3ea79b97	0.32735893
39	0x3eee1288	0.46498513
40	0x3ebfe592	0.37479836
41	0xbf493760	-0.7860012
42	0xbea6f859	-0.3261135
43	0x3f7bf206	0.98416173
44	0x3f695655	0.9114736
45	0xc03924b0	-2.8928642
46	0x3ea2c29b	0.31789097
47	0xc027df91	-2.6230204
48	0x3f8b2df4	1.0873399
49	0x3fef0163	1.8672298
50	0x3eac22e2	0.33620363
51	0xbf49d26a	-0.7883669
52	0xbf2eadd8	-0.68234015
53	0x3f5dd4a8	0.8665261
54	0xc02e2723	-2.7211387
55	0xbf48f11c	-0.78492904
56	0xbfc246bb	-1.5177835
57	0xbf4230bb	-0.75855607
58	0xbf49af5f	-0.7878322
59	0xbe69c1af	-0.2282779
60	0xbe65a7d2	-0.224273
61	0xbf3bdd4d	-0.73384553
62	0x3d029f2c	0.03189008
63	0x3f9e49ac	1.2366233
64	0x3f2197b4	0.63122106
65	0x3fd121ff	1.63385
66	0x35826629	9.715487e-07
67	0x3fa5e107	1.2959298
68	0x3f9d54cf	1.2291507
69	0xbde473dd	-0.11154912
70	0xbd96f905	-0.073717155
71	0x3fe44d45	1.7836081
72	0x3f6ae4e2	0.917555
73	0x3fbcd3e1	1.475216
74	0x3f3a2c12	0.72723496
75	0x3fb23563	1.3922542
76	0xbf6d8fda	-0.92797625
77	0x3f0ecc82	0.55780804
78	0x3fedbb6c	1.8572822
79	0xbfb156fc	-1.385467
80	0xbe8da80a	-0.27667266
81	0x3e45d83c	0.19320768
82	0xbf86ecc5	-1.0541006
83	0x3f60cfbd	0.87816983
84	0xbf7e4565	-0.9932464
85	0x3f18d0a5	0.59693366
86	0x3ef66990	0.48127413
87	0x3e5ca296	0.21546397
88	0xbf47c468	-0.7803407
89	0xbf705df4	-0.9389336
90	0x3f408498	0.7520232
91	0xbf44238e	-0.7661675
92	0x3f564a52	0.83707154
93	0xbda90c92	-0.08254351
94	0x3f15ebc2	0.5856286
95	0x3e0b5826	0.13607845
96	0xbfda14b8	-1.7037573
97	0x3fa447b5	1.2834383
98	0x3fe17441	1.7613603
99	0x3f5d93d6	0.86553705
100	0x3f7e46dc	0.9932687
101	0xbda6e2e9	-0.081487484
102	0x3fa6ce56	1.3031719
103	0x3fbb34e3	1.4625515
104	0x3ba149c5	0.004922124
105	0xbfd92f61	-1.6967584
106	0x3e91a522	0.284463
107	0xbf8bd02b	-1.0922903
108	0xbf7f4e11	-0.99728495
109	0x3f257194	0.6462643
110	0xbf24b2e7	-0.64335483
111	0x3d113816	0.03545388
112	0xbe13ddbe	-0.14440057
113	0xbf5d7d54	-0.8651936
114	0xbe252486	-0.16127214
115	0x3ee1dbac	0.4411291
116	0xbfea0ceb	-1.8285192
117	0xbfb59f63	-1.4189266
118	0xbf3e8235	-0.7441743
119	0x3c9d2268	0.019181445
120	0xbf48186c	-0.78162265
121	0xbe81ef3a	-0.25377828
122	0xbf285817	-0.65759414
123	0x400b6ac3	2.1783912
124	0x4033a6e9	2.8070624
125	0x3f6969bb	0.91176957
126	0xbf87eb6e	-1.0618722
127	0x3f427599	0.7596069
128	0xbfa3de2c	-1.2802176
129	0x3f747855	0.9549611
130	0x3f2ac9ca	0.66714156
131	0x3f2c003e	0.6718787
132	0x3d107911	0.035271708
133	0x3eef98fb	0.46796402
134	0x3e8858d2	0.26630265
135	0xbef7d316	-0.48403233
136	0x3d62fabf	0.05541491
137	0x401921cc	2.3926878
138	0x40112d12	2.2683759
139	0x3f46c7ec	0.77648807
140	0x3f05aeda	0.5221993
141	0x3ccf3aaf	0.025296537
142	0x3a0bc141	0.0005331226
143	0x3eaab0bd	0.33337966
144	0x3f0ec5fd	0.55770856
145	0xbeebe404	-0.460724
146	0xbfc9fbc3	-1.5779957
147	0xbfaef4b7	-1.3668431
148	0xbf6359a2	-0.88808644
149	0x3ee4f22b	0.4471601
150	0xbf03eba6	-0.51531446
151	0x3f7b00cb	0.98048085
152	0x3f908294	1.1289849
153	0xbfa9d4ab	-1.3268026
154	0xbf6738a5	-0.9032081
155	0xc04ad4ed	-3.169246
156	0x3e16e52c	0.1473586
157	0x3f7fc91a	0.9991623
158	0x40394300	2.8947144
159	0xbf0078a0	-0.5018406
160	0x3f8c643f	1.0968093
161	0x3fb73f86	1.4316261
162	0x3c3301b5	0.0109257
163	0x3f85758f	1.0426501
164	0xbf786aa1	-0.970377
165	0xbfd9651b	-1.698398
166	0x3f994b55	1.1976115
167	0xbfc96352	-1.5733435
168	0xc01e7cc2	-2.4763646
169	0x3f5b7417	0.85724014
170	0xbfa3185c	-1.2741809
171	0xbf3aee74	-0.730201
172	0xbfd01468	-1.6256227
173	0xbf249063	-0.64282817
174	0x3f1bb3c4	0.60821176
175	0xc00a22ca	-2.1583734
176	0xbe4a4833	-0.19754104
177	0xb5451089	-7.341228e-07
178	0xbe0a405d	-0.13501115
179	0x3fcc84f2	1.5978072
180	0xbf99838f	-1.1993273
181	0x3ecfc357	0.4057872
182	0x3eaad3ca	0.33364707
183	0x3ec69f32	0.3879333
184	0xbe83e0ce	-0.2575745
185	0x3f2ab4b6	0.66681993
186	0xbf2c009f	-0.6718845
187	0x3faf734e	1.3707063
188	0x3e7e98e5	0.24863012
189	0xb991aa0e	-0.00027783256
190	0x3e6605da	0.2246317
191	0xbf94478f	-1.1584338
192	0x3f551c0c	0.8324592
193	0xbeced668	-0.40397954
194	0x3f2cc8f0	0.67494106
195	0x3e79db8b	0.24400155
196	0xbe9be98a	-0.30451614
197	0xbf5d7bf7	-0.8651728
198	0xbf3dd0c3	-0.7414667
199	0xbf37144f	-0.71515363
200	0x3f96b283	1.1773227
201	0x3fc02226	1.5010421
202	0xbf731f29	-0.9496942
203	0x3f54b6d8	0.830915
204	0x3f5f3d57	0.8720297
205	0xbaf73ae5	-0.0018862156
206	0x334b2430	4.7297533e-08
207	0xbf05997e	-0.52187335
208	0x3e841a5f	0.2580137
209	0xbff797c3	-1.9343189
210	0xbfe59ce0	-1.79385
211	0x3ff74931	1.9319211
212	0xbe08644a	-0.13319507
213	0x3f399c0d	0.7250374
214	0xbf5768eb	-0.8414447
215	0xbf89f2c6	-1.0777214
216	0xbe98bace	-0.2983002
217	0x3f85830d	1.0430619
218	0x3f27fcb2	0.6561996
219	0xbffb8a72	-1.9651625
220	0x3f9e5234	1.2368836
221	0x3fb2aa64	1.3958249
222	0x3d9ed732	0.07755889
223	0xbed56040	-0.41674995
224	0xbd7a6fc9	-0.061141763
225	0x3f9d2f10	1.2279987
226	0x3faa1c7b	1.3289942
227	0xbe24dbf1	-0.16099526
228	0x3fa2887a	1.2697899
229	0xbfd1e236	-1.6397159
230	0xbf9b200c	-1.2119155
231	0xbf552e57	-0.83273834
232	0x3fafb053	1.3725685
233	0xbfeeb90d	-1.8650223
234	0xbf0756a6	-0.5286659
235	0x3b6812de	0.0035411636
236	0xbf4f4004	-0.80957055
237	0xc0089c47	-2.1345384
238	0x3ff9f424	1.9527631
239	0x3e0bc11f	0.13647889
240	0x3f2ab4c5	0.6668208
241	0x3b585c03	0.0033013828
242	0xbc338184	-0.010956172
243	0x3f32f831	0.6990996
244	0xb5ff2892	-1.9010788e-06
245	0xbece67d5	-0.40313593
246	0xbe5ce104	-0.21570212
247	0xbff73f43	-1.9316181
248	0x3f2c2263	0.6723997
249	0x3f6287f6	0.8848871
250	0x3e2bd02b	0.16778629
251	0xba634376	-0.0008669415
252	0x3f533df0	0.82516384
253	0xbe43c373	-0.19117527
254	0x3dd1fb4d	0.1025301
255	0x3f45e54a	0.7730299

emb_rosa.emb.weight f4 [11, 32]
0	0xbf73a8ea	-0.9517962
1	0x3f408b75	0.75212795
2	0x3de330f1	0.11093319
3	0xbe1510e2	-0.14557222
4	0x3f8d79d7	1.1052808
5	0x3fa306a7	1.2736405
6	0x3e0fc006	0.14038095
7	0xbfc7a961	-1.5598565
8	0x3fd65066	1.6743286
9	0x3ee8111e	0.4532556
10	0xbf8b90bf	-1.0903548
11	0xbf7af39f	-0.98027986
12	0xbfa19d82	-1.2626193
13	0xbf634c9f	-0.8878879
14	0xbf3792ca	-0.7170836
15	0x3fb8564e	1.4401338
16	0x3f917333	1.1363281
17	0xbee20382	-0.441433
18	0xbf95d54c	-1.1705718
19	0xbf9a0dcb	-1.2035459
20	0xbf209cc0	-0.6273918
21	0x3f35977d	0.7093428
22	0x3fc42551	1.5323888
23	0x3d6f0d97	0.05836257
24	0xbfb8faf7	-1.4451588
25	0x3f423122	0.7585622
26	0xbf524f37	-0.8215212
27	0x3f85e8c9	1.0461665
28	0xbf9b4409	-1.2130138
29	0xc03181d0	-2.7735481
30	0xbf62c63b	-0.88583726
31	0xbf6f9880	-0.9359207
32	0xbf1ee30f	-0.62065214
33	0xbe898e55	-0.26866403
34	0x3df54d82	0.11977674
35	0x3f41825c	0.7558954
36	0xbfb3139f	-1.3990363
37	0x3d90b3e3	0.07065561
38	0xbf02d328	-0.5110345
39	0x3fd5ab08	1.669282
40	0x3f8fbc90	1.122942
41	0xbf60221f	-0.87552065
42	0x3f8aa4cc	1.0831542
43	0x3f995502	1.1979067
44	0xbe4b1e6c	-0.19835824
45	0x3f17d476	0.59308565
46	0xbf473e6f	-0.7782964
47	0x3f059a42	0.52188504
48	0x3f93a87e	1.1535795
49	0x3edba103	0.4289628
50	0x3f56be3d	0.8388403
51	0xbf1b9775	-0.6077798
52	0xbf4e1267	-0.8049683
53	0x3f9fdcfd	1.2489315
54	0x3fb5907f	1.4184722
55	0xbecae4fb	-0.39627823
56	0x3ccb38a7	0.024807287
57	0x3fc87854	1.5661721
58	0xbe944a6b	-0.28963026
59	0x3f03f8cd	0.51551515
60	0xbe1623e0	-0.14662123
61	0xbeff04fd	-0.49808493
62	0x3faaabaa	1.3333638
63	0xbe600f59	-0.21880855
64	0x3fb8bd75	1.4432818
65	0x3f7e8c9e	0.99433315
66	0x3f30631b	0.6890122
67	0x3fb43102	1.4077456
68	0xbe15411a	-0.14575616
69	0x3fd1e25e	1.6397207
70	0x3f5e7b5d	0.8690699
71	0x3fefc054	1.8730569
72	0xbfb2f7a6	-1.3981826
73	0xbe312feb	-0.17303436
74	0x400cf418	2.2023983
75	0x3ef7fb9d	0.48434153
76	0x3fd01397	1.6255978
77	0x3e1f5d20	0.15562868
78	0xbfbdfc98	-1.484271
79	0x3ee99a33	0.45625457
80	0xbe08b22d	-0.13349219
81	0xbe76658f	-0.24062179
82	0xbd860771	-0.06544388
83	0x3ff2b766	1.8962219
84	0x3f38791f	0.72059816
85	0xbf51e5a2	-0.81991017
86	0x3fdf17f5	1.7429186
87	0x3e53c31d	0.20679899
88	0x3e07b925	0.13254221
89	0xbee3ca7e	-0.44490427
90	0xbfc8c9d0	-1.5686588
91	0xbf8ed47d	-1.1158596
92	0xbf5386b7	-0.82627434
93	0x3dbbcc7a	0.0916986
94	0x3e33a6d3	0.17544107
95	0x3f8a8f2b	1.0824941
96	0x3f0fa09b	0.5610444
97	0xbeb5b467	-0.354892
98	0x3c587884	0.013212327
99	0xbe8aae9e	-0.27086347
100	0xbfd3e2f4	-1.6553636
101	0xc043a350	-3.0568428
102	0x3f47aaac	0.779948
103	0x3f0dfbd6	0.55462396
104	0xc005d2fa	-2.091002
105	0xbec69be5	-0.38790813
106	0x3fd5ab9b	1.6692995
107	0xbf3a902e	-0.7287625
108	0x3f7dc4c4	0.99128366
109	0x3f34692d	0.70472986
110	0xbed69062	-0.4190703
111	0x3ee5a57e	0.44852823
112	0xbfc78465	-1.5587279
113	0xbed7e8e9	-0.42169884
114	0xbff52e38	-1.915473
115	0x3e96121c	0.2931069
116	0x3b94522c	0.004526397
117	0x3fa6efe8	1.3041964
118	0x3e95333e	0.29140657
119	0xbf0de00c	-0.55419993
120	0x3f6a8398	0.91607046
121	0xbf5ccf77	-0.86254066
122	0xbfedb158	-1.8569746
123	0xbf67752e	-0.90413177
124	0xbf3f2527	-0.74666065
125	0xbf5d0366	-0.8633331
126	0x3eee5d4b	0.46555552
127	0x3ed05f70	0.40697813
128	0x3fbdb91c	1.4822116
129	0xbfe7562a	-1.807317
130	0xbf2ac92b	-0.6671321
131	0x3f82ae11	1.0209371
132	0xbf9cf156	-1.226115
133	0xbf5f188a	-0.8714682
134	0xbfead8c8	-1.8347406
135	0xbeee1301	-0.46498874
136	0xbe42611e	-0.1898236
137	0xbe8997f3	-0.2687374
138	0x3f7fe3b1	0.99956805
139	0x3f1e1334	0.6174805
140	0x3ca0c98a	0.019627351
141	0xbf834754	-1.0256143
142	0xbfb679d7	-1.4255933
143	0x3ffa1a6b	1.9539312
144	0xbf5b2dbe	-0.8561667
145	0xbf0ddd7c	-0.55416083
146	0x3da7a2d1	0.08185352
147	0xbeb22ed4	-0.34801352
148	0x3ff2f920	1.8982277
149	0x3ec90507	0.39261648
150	0xbdcea9d2	-0.100909844
151	0x3ee9f7d6	0.45696896
152	0x3f50222e	0.81302154
153	0x3d0d6f23	0.034529816
154	0xbe27d9bc	-0.16391653
155	0x3f44238d	0.76616746
156	0x3f02177c	0.50817084
157	0xbf40b2e3	-0.7527296
158	0x3ebb014d	0.3652443
159	0xbeb83383	-0.359768
160	0x3f1f0732	0.62120354
161	0xbe93bef6	-0.2885663
162	0xbf2fb1f1	-0.6863089
163	0x3f53efef	0.82787985
164	0xbdd818c5	-0.105515994
165	0x401951d2	2.395619
166	0x3f9bd5b8	1.2174597
167	0xbee2d606	-0.44303912
168	0x3f0f86fb	0.5606534
169	0xbf1aec9e	-0.605173
170	0x3e0ad721	0.13558628
171	0xbf8137d7	-1.0095166
172	0xbf739c4a	-0.95160353
173	0x3f4abbc0	0.79192734
174	0xbe38d317	-0.18049274
175	0x3f702471	0.93805605
176	0x3f0856be	0.5325736
177	0xbf8f8783	-1.121323
178	0xbfecfcf0	-1.851469
179	0xbe27bb15	-0.1637996
180	0x3f8385e0	1.027523
181	0x3f5d34f5	0.8640893
182	0x3ebe91ba	0.37220556
183	0x3ec90052	0.39258057
184	0x40315bb2	2.7712216
185	0x3e89446f	0.26810023
186	0x3f071857	0.52771515
187	0xbf56ee0a	-0.8395697
188	0x3d0f840d	0.035038043
189	0xbfb959e8	-1.4480562
190	0xbf775e4c	-0.9662826
191	0xbebec7e0	-0.37261868
192	0xbe4e4714	-0.20144302
193	0x3edc4c3f	0.4302692
194	0xbf6df5b1	-0.9295302
195	0xbf71c039	-0.94433933
196	0xbd5a7baf	-0.05334061
197	0x4043325e	3.0499492
198	0xbf9ebf73	-1.2402176
199	0x3dab24ee	0.08356653
200	0x3f863110	1.0483723
201	0xbf5b74a8	-0.8572488
202	0x3f8d316e	1.103071
203	0x3f37cb00	0.7179413
204	0xbec8fd35	-0.39255682
205	0xbfa9c082	-1.3261874
206	0xbeec49a2	-0.46149927
207	0xbe250df3	-0.16118602
208	0xbe07308c	-0.13202113
209	0xbec5a391	-0.38601354
210	0xc0049124	-2.0713587
211	0xbeb44a9c	-0.35213172
212	0x3eb4f50a	0.353432
213	0xbeb97174	-0.3621937
214	0xbfdd7157	-1.7300214
215	0xbc9d9841	-0.01923764
216	0xbe8713e4	-0.26382363
217	0xbf1abf5d	-0.6044825
218	0xbf7164b2	-0.94294274
219	0xbf868b46	-1.0511253
220	0xbef9c118	-0.4878013
221	0x3f0c8653	0.5489246
222	0xbf2c98b4	-0.67420506
223	0xbf571435	-0.8401521
224	0x402696ab	2.602946
225	0x3fd87008	1.6909189
226	0xbf65ce19	-0.89767605
227	0xbf7c1a00	-0.9847717
228	0xbff542ae	-1.9160974
229	0x3f2325a5	0.63729316
230	0xbfdf165a	-1.7428696
231	0x3dd77a19	0.10521335
232	0xbe9ad0e8	-0.30237508
233	0xbf5b6759	-0.8570457
234	0x3f3f1849	0.7464643
235	0x3da4e32a	0.080511406
236	0x3f7b2668	0.9810548
237	0xbe27e091	-0.16394259
238	0xbeeedd43	-0.46653184
239	0xbd114673	-0.035467576
240	0x3ea365c1	0.3191357
241	0xbb5ce4fd	-0.0033705824
242	0xbf207ca2	-0.62690175
243	0xbc596997	-0.0132698035
244	0xc00b8751	-2.180134
245	0xbf399683	-0.7249529
246	0xbfa50db9	-1.2894813
247	0x3e9ce4cc	0.30643308
248	0xbbd7e5fc	-0.0065886956
249	0xc02d3747	-2.7064989
250	0xc01b4e37	-2.4266489
251	0x3db40ad4	0.08791128
252	0xbf9f2780	-1.243393
253	0x3fe586a7	1.7931718
254	0x3f9a91fd	1.2075802
255	0x3f61c263	0.88187236

rosa1.emb0 f4 [1, 1, 32]
0	0xbdcb7140	-0.0993371
1	0x3e6e4b74	0.2327097
2	0x3eb5379e	0.35393995
3	0xbe03c158	-0.12866724
4	0xbd6d133e	-0.05787968
5	0x3e7e40d2	0.24829414
6	0xbe8a3faa	-0.27001697
7	0xbe929048	-0.28625703
8	0xbbbe0c63	-0.0057998165
9	0x3e88f0f6	0.2674634
10	0x3e2a8526	0.16652355
11	0x3e8541c5	0.2602674
12	0x3ddae543	0.106882595
13	0x3d667379	0.056262467
14	0x3e161b94	0.14658958
15	0x3e119867	0.14218293
16	0xbe14b4fe	-0.14522168
17	0x3e94137e	0.2892112
18	0x3dc366df	0.095411055
19	0xbe4d1e0b	-0.20030992
20	0xbd32f448	-0.043689996
21	0xbe932a21	-0.2874308
22	0x3ea4ca6e	0.32185692
23	0xbe038c70	-0.12846541
24	0x3dca2fa2	0.098723665
25	0x3e9fa527	0.3118069
26	0x3e799c31	0.24375989
27	0xbe90aab3	-0.28255233
28	0x3e4f0395	0.2021621
29	0x3dcd8a53	0.10036149
30	0x3da4a630	0.0803951
31	0xbe6df240	-0.23236942

rosa1.emb1 f4 [1, 1, 32]
0	0x3d1f3cbb	0.038876276
1	0xbe8a6778	-0.27032065
2	0xbea4aeeb	-0.32164702
3	0x3e2cab70	0.16862273
4	0x3e34e945	0.1766711
5	0xbe7f2c78	-0.24919307
6	0x3e588d06	0.21147546
7	0x3e9c5b91	0.3053861
8	0x3d8babdd	0.0681989
9	0xbf06a462	-0.5259458
10	0xbe188862	-0.14895776
11	0xbe43426e	-0.1906831
12	0xbe9c5de3	-0.3054038
13	0xbe4c0d52	-0.19926956
14	0x3d1214f9	0.035664532
15	0xbe2dbe5a	-0.16967145
16	0x3d0a736f	0.033801492
17	0xbe7de740	-0.24795246
18	0x3d8185f5	0.063243784
19	0x3e77ba76	0.24192223
20	0xbeb3508b	-0.35022387
21	0x3e60bd12	0.21947125
22	0xbe79341e	-0.24336287
23	0x3db550c7	0.08853298
24	0xbe62f305	-0.22163017
25	0xbe47ae04	-0.19499975
26	0xbe9fa75a	-0.31182367
27	0x3ee8f30b	0.45497927
28	0xbe907497	-0.2821395
29	0xbd768524	-0.060185567
30	0x3d6562da	0.056002475
31	0x3e287c7b	0.16453736

lin.weight f4 [32, 32]
0	0x3e685235	0.2268761
1	0x3e8899bb	0.26679787
2	0x3dbaa682	0.0911379
3	0x3da7784c	0.08177242
4	0x3ee57d0f	0.44821975
5	0x3cc2f832	0.02379999
6	0x3de4994c	0.111620516
7	0x3dfbf00e	0.12301646
8	0x3d88b1ab	0.066745125
9	0xbcb80ef7	-0.022468073
10	0x3d205c73	0.039150666
11	0x3e40a72a	0.18813768
12	0x3da774ee	0.081765994
13	0xbe36029c	-0.17774433
14	0x3e301e3e	0.17199036
15	0xbd1aea2d	-0.037820984
16	0x3e4b92e9	0.1988026
17	0xbd2c1e64	-0.04202117
18	0x3d19ee81	0.03758097
19	0x3e89312e	0.26795334
20	0xbd9418a7	-0.072312646
21	0x3de209f8	0.11037058
22	0xbcc5454b	-0.024080893
23	0x3c3e766b	0.011624913
24	0x3c6c149e	0.014409212
25	0x3d89aaeb	0.06722053
26	0x3c8a859d	0.016909415
27	0x3e583589	0.21114172
28	0xbe2655b5	-0.16243632
29	0x3d752f2b	0.059859436
30	0x3dd7e1d6	0.10541122
31	0x3e1075d2	0.14107445
32	0xbcc8ba99	-0.02450304
33	0x3dc558a0	0.096360445
34	0xbdcfbd0d	-0.101434804
35	0x3e3c79d9	0.18405856
36	0x3ddd3fb5	0.10803167
37	0xbe086d56	-0.13322958
38	0x3e8ce23b	0.2751635
39	0xbea9908a	-0.33118087
40	0xbe680c77	-0.22661005
41	0x3e474e48	0.19463456
42	0xbec20bc5	-0.37899604
43	0xbd810f65	-0.063017644
44	0xbec1f3da	-0.37881356
45	0x3e77e447	0.24208175
46	0xbd841474	-0.064492136
47	0xbe2e7cd0	-0.170398
48	0x3d1b2e9e	0.037886254
49	0xbe4cf740	-0.20016193
50	0x3dad8d5a	0.08474226
51	0xbe84902d	-0.25891247
52	0xbd7f6d62	-0.062360175
53	0xbe07348f	-0.13203643
54	0xbea818dd	-0.3283147
55	0xbdeaf5ad	-0.1147264
56	0xbe43fd65	-0.19139631
57	0x3e4cd0eb	0.20001571
58	0x3dc45ccd	0.09588013
59	0xbe2f2a49	-0.17105974
60	0x3e8590f6	0.2608716
61	0x3d9edb76	0.077567026
62	0x3d59e9fd	0.053201664
63	0x3e0ab784	0.13546568
64	0x3c67391c	0.014112737
65	0x3d949950	0.072558045
66	0x3eb74ebc	0.35802257
67	0x3dcba10a	0.09942825
68	0x3e1852ef	0.14875387
69	0xbe75881e	-0.23977706
70	0xbc922512	-0.017839942
71	0xbd78ef75	-0.06077524
72	0xbdf1bd11	-0.1180364
73	0xbe0c0963	-0.13675456
74	0xbdb6bd62	-0.08922841
75	0x3e64c291	0.22339846
76	0xbc922dfb	-0.01784419
77	0xbe1073e0	-0.14106703
78	0x3e8c2ab5	0.27376333
79	0xbe938684	-0.28813565
80	0xbdda2174	-0.10650912
81	0xbe147ed4	-0.14501506
82	0xbda83ff5	-0.08215324
83	0x3e63d21a	0.22248116
84	0x3e24218c	0.16028422
85	0x3e7c3a91	0.24631716
86	0xbebebe87	-0.37254736
87	0xbe3e1ef9	-0.18566503
88	0xbe063d7a	-0.13109389
89	0x3eb4279e	0.35186476
90	0xbe9ad1df	-0.30238244
91	0xbe128e86	-0.14312181
92	0x3e6ff195	0.23432
93	0xbb9df9e0	-0.004821047
94	0xbd0d8f5a	-0.03456054
95	0x3ded3832	0.11582984
96	0x3cd557c2	0.026042823
97	0xbe6be41b	-0.23036234
98	0xbe40a929	-0.1881453
99	0x3e4986c9	0.19680323
100	0xbb59bc3c	-0.0033223769
101	0x3cfe181d	0.031017357
102	0xbe3492bc	-0.176341
103	0x3e7b18ab	0.24521129
104	0xbe1292bc	-0.14313787
105	0xbe080ce0	-0.13286161
106	0x3eb0b931	0.3451629
107	0xbd19a8ac	-0.037514374
108	0x3d90cfe5	0.07070903
109	0x3cf1796e	0.029476847
110	0x3e883b2a	0.2660764
111	0x3e4462b3	0.19178276
112	0xbe558ade	-0.20853755
113	0x3e8e6e4f	0.27818534
114	0xbe4aa81a	-0.19790688
115	0x3d22f41b	0.03978358
116	0x3e91fafb	0.28511795
117	0x3d12ba4f	0.03582221
118	0x3ddccd78	0.107813776
119	0x3dde204c	0.10846004
120	0x3d1177e7	0.03551474
121	0xbe07d5ac	-0.13265103
122	0x3e5c8c40	0.21537876
123	0xbd22b6f2	-0.03972525
124	0x3e679f3a	0.22619334
125	0xbd3ec762	-0.046576865
126	0xbddf4d3c	-0.10903403
127	0xbdce4408	-0.1007157
128	0xbd5f2dcd	-0.05448704
129	0x3c970df8	0.018439278
130	0xbe359309	-0.1773187
131	0x3d84d615	0.064861454
132	0x3de3b07b	0.11117645
133	0x3d0587db	0.032600265
134	0x3ceba977	0.02876733
135	0x3e1cea0e	0.1532366
136	0x3ddcdfb5	0.10784856
137	0xbe40e9bb	-0.18839161
138	0x3cf06597	0.029345317
139	0x3e45b89d	0.19308706
140	0x3e100241	0.1406336
141	0xbeaba2b1	-0.3352256
142	0x3e747795	0.23873742
143	0x3e659b0c	0.22422427
144	0x3dd2a693	0.10285678
145	0x3e10feb8	0.14159667
146	0xbde2a414	-0.11066452
147	0xbd06561d	-0.032796968
148	0x3d867c37	0.06566661
149	0x3d68a8d5	0.056801636
150	0xbc890029	-0.01672371
151	0x3e0b19f4	0.13584119
152	0xbe023534	-0.12715608
153	0x3e03c33d	0.12867446
154	0xbe4f5251	-0.20246245
155	0x3e7d7934	0.24753267
156	0x3dc10b12	0.094259396
157	0xbe1afa24	-0.15134484
158	0xbd59e183	-0.05319358
159	0xbe85c427	-0.26126215
160	0xbc0cce39	-0.008594089
161	0xbe3f3bc3	-0.18675141
162	0xbe13e191	-0.14441516
163	0x3e5ea272	0.21741655
164	0x3dfa8122	0.122316614
165	0x3e1eab2a	0.15494981
166	0x3d7ddeab	0.06197993
167	0xbe11ac70	-0.14225936
168	0xbe256422	-0.16151479
169	0x3e4d38db	0.2004122
170	0x3ed1d67d	0.40983954
171	0x3dad16f6	0.08451645
172	0x3dd66591	0.10468591
173	0x3d9076a3	0.07053878
174	0x3e5c4cd6	0.21513686
175	0x3d14703e	0.036239855
176	0xbe0a6cce	-0.13518068
177	0xbdc36f0d	-0.09542666
178	0xbdb5ebd4	-0.08882871
179	0xbdb6adb6	-0.089198515
180	0x3e9853fa	0.2975157
181	0xbe62bf15	-0.22143205
182	0xbe4fb0ee	-0.20282337
183	0x3decc39c	0.11560747
184	0x3e6d2820	0.23159838
185	0x3e730b8c	0.23734874
186	0x3d18a2fd	0.037264813
187	0xbde30b42	-0.11086132
188	0x3d882a9d	0.06648753
189	0xbe502871	-0.20327927
190	0xbd31f0ad	-0.043442417
191	0xbdaccb24	-0.084371835
192	0x3e4e18fc	0.20126718
193	0xbdb134ad	-0.08652625
194	0x3dce5602	0.100749984
195	0xbcd39712	-0.025828872
196	0xbe4337f6	-0.19064316
197	0xbe5bafb0	-0.21453738
198	0x3e8989fd	0.2686309
199	0x3e822983	0.25422296
200	0x3e9c77a3	0.30560026
201	0x3e2ff2e3	0.17182498
202	0x3dfcfbe2	0.1235273
203	0xbc0f2280	-0.008736253
204	0xbe705dfe	-0.23473355
205	0xbe7199e0	-0.23593855
206	0x3e082a99	0.132975
207	0x3e52130b	0.20515077
208	0xbe29937e	-0.1656017
209	0xbe8d0f07	-0.27550527
210	0xbd7e391c	-0.062066182
211	0x3db24157	0.08703869
212	0x3e47c84e	0.19510004
213	0x3e743bf1	0.23850991
214	0x3e891ee1	0.2678137
215	0xb9d616a5	-0.00040834132
216	0x3e6575b7	0.22408186
217	0x3df765de	0.120799765
218	0x3e870e9b	0.2637833
219	0xbde857c4	-0.11344865
220	0xbdb14f58	-0.08657712
221	0xbd8d8463	-0.069100164
222	0xbe0f27c7	-0.13980018
223	0xbe0805a3	-0.132834
224	0x3be5d01c	0.007013334
225	0x3cfc9f9e	0.03083783
226	0xbd551dd2	-0.052030392
227	0x3e3558f1	0.1770971
228	0x3e3eae6f	0.18621229
229	0xbe962eb8	-0.2933252
230	0xbda49e0f	-0.0803796
231	0x3de81145	0.11331419
232	0xbe697e5e	-0.22802112
233	0x3ce44219	0.027863549
234	0x3e5c69d2	0.21524742
235	0x3ea0fb92	0.31441933
236	0x3e8eb43b	0.2787188
237	0xbd0a1402	-0.033710487
238	0xbe1caecf	-0.15301059
239	0xbbb8164f	-0.0056178938
240	0x3e6b5680	0.22982216
241	0xbe515d4d	-0.20445748
242	0x3e577944	0.21042353
243	0xbe159d12	-0.14610699
244	0x3df2d8e6	0.11857776
245	0x3d96c5e1	0.07361961
246	0x3e556122	0.20837834
247	0xbe2f89ee	-0.1714246
248	0x3cdf882e	0.027286615
249	0x3e23f985	0.16013153
250	0xbea0eef7	-0.31432316
251	0xbdfb0b40	-0.12258005
252	0x3dfa5410	0.12223065
253	0x3d11a026	0.03555312
254	0x3e6c33ef	0.23066686
255	0x3ea8aeb0	0.32945776

lin.bias f4 [32]
0	0xbe2e66cd	-0.17031403
1	0x3e500b4c	0.2031681
2	0x3e021516	0.12703356
3	0x3daac33d	0.0833802
4	0x3df35d0c	0.11882982
5	0xbdeeed67	-0.11666375
6	0x3dd753dd	0.105140425
7	0x3d3e1446	0.046406053
8	0x3e2057ea	0.15658537
9	0xbdb14ba9	-0.08657009
10	0x3de85dc2	0.11346008
11	0x3e719cf9	0.23595037
12	0x3d7456a0	0.059652925
13	0xbea27af1	-0.31734422
14	0x3e0b2419	0.13587989
15	0xbe0d078f	-0.13772415
16	0x3cf84daa	0.03031047
17	0x3d24a95a	0.04020057
18	0x3dd3190a	0.1030751
19	0x3e153b4d	0.14573403
20	0xbe787eb4	-0.24267083
21	0xbd9d7146	-0.07687621
22	0xbe5b0244	-0.21387583
23	0x3d989e4b	0.07452067
24	0xbbcac467	-0.0061879638
25	0x3e8d9de1	0.27659515
26	0xbe8e8438	-0.2783525
27	0x3dc9f718	0.098615825
28	0xbdb03c6c	-0.086052746
29	0x3e79fb43	0.24412255
30	0xbdcd5178	-0.100253046
31	0xbdc16126	-0.09442358

rosa2.emb0 f4 [1, 1, 32]
0	0xbeea8ea5	-0.45811954
1	0x3eb623de	0.3557424
2	0x3eb337bc	0.3500346
3	0xbef59273	-0.47963294
4	0xbe38a0a0	-0.18030024
5	0x3e98562f	0.29753253
6	0x3eafe7af	0.34356448
7	0x3e84ebc9	0.2596114
8	0xbee9e5f4	-0.45683253
9	0x3edac065	0.4272491
10	0x3ebc3680	0.3676033
11	0x3ea13a9c	0.31490028
12	0x3ed5c470	0.41751432
13	0x3f02f376	0.5115274
14	0x3f025ed3	0.5092594
15	0x3f0a05f9	0.53915364
16	0xbe0c38ac	-0.13693494
17	0x3efc1e20	0.49241734
18	0xbe41a78b	-0.18911569
19	0xbeed2d76	-0.46323746
20	0xbe1ff5ee	-0.15621158
21	0xbeb2efd2	-0.34948593
22	0x3e26ee90	0.16301942
23	0xbeb72e2f	-0.35777423
24	0x3f0ca21c	0.5493486
25	0x3ec7a72b	0.38994727
26	0x3ef798df	0.4835882
27	0xbe5e7bc2	-0.21726897
28	0xbeb7e5f3	-0.35917625
29	0x3e950283	0.2910348
30	0xbed14e8e	-0.40880245
31	0xbf004430	-0.50104046

rosa2.emb1 f4 [1, 1, 32]
0	0x3f02a316	0.510301
1	0xbef6f1f9	-0.48231485
2	0xbed952b0	-0.42445898
3	0x3e753c58	0.239488
4	0x3ee66bc8	0.45004106
5	0xbebe3d93	-0.37156352
6	0xbe82c34d	-0.25539628
7	0xbe469d27	-0.19395886
8	0x3e9d6ba6	0.30746192
9	0xbf149ed6	-0.58054864
10	0xbe7cb6d8	-0.24679124
11	0xbed09d4a	-0.40745002
12	0xbeb8b41e	-0.36074919
13	0xbedc3714	-0.4301077
14	0xbeb782ce	-0.35841984
15	0xbefce6dd	-0.49394885
16	0x3db2b99f	0.08726811
17	0xbee91f62	-0.45531756
18	0x3ed032fe	0.40663904
19	0x3edfb849	0.43695286
20	0x3e8a0254	0.269549
21	0x3efe8c53	0.49716434
22	0xbe2be3b3	-0.16786079
23	0x3e76d6c5	0.24105366
24	0xbee3bc4b	-0.44479594
25	0xbe8a515a	-0.2701519
26	0xbe9cf27d	-0.30653754
27	0x3ec569d5	0.38557306
28	0x3ef60700	0.48052216
29	0xbeb1893f	-0.34675023
30	0x3f183f09	0.59471184
31	0x3eef5bbc	0.46749675

o.weight f4 [11, 32]
0	0x3d84be9d	0.06481669
1	0x3d8e3f29	0.069456406
2	0x3cd6f6aa	0.026240665
3	0xbe29e2e3	-0.16590457
4	0x3e66f669	0.22554936
5	0x3ceaf018	0.028678939
6	0xbe82be55	-0.25535837
7	0xbe5ad2ab	-0.21369426
8	0xbe0f8bc2	-0.14018157
9	0xbe201d82	-0.15636256
10	0xbe93c9d3	-0.28864917
11	0x3dd4b4c7	0.10386043
12	0x3e5102a1	0.20411159
13	0x3e374943	0.17899041
14	0x3e6e3938	0.23264015
15	0xbec2bfed	-0.38037053
16	0xbd914087	-0.07092386
17	0x3b9dd4d2	0.00481663
18	0xbe82483f	-0.25445744
19	0x3c133fff	0.008987426
20	0xbed88c95	-0.42294756
21	0xbddaceab	-0.1068395
22	0x3e55d3b4	0.2088154
23	0x3e9494d1	0.29019788
24	0x3e7874a3	0.24263243
25	0x3c8ee9a3	0.017445391
26	0x3e059481	0.13044931
27	0xbd0b9559	-0.034077976
28	0x3db8cc3f	0.09023332
29	0xbeaebd5b	-0.34128842
30	0x3ea4b39f	0.3216829
31	0x3d8e1080	0.06936741
32	0x3cdc25bc	0.026873462
33	0x3e8d2828	0.275697
34	0xbe870859	-0.26373556
35	0xbefdcf06	-0.4957201
36	0x3e374b3a	0.1789979
37	0xbdbfd768	-0.09367257
38	0x3e808d35	0.25107732
39	0xbd9e2e51	-0.07723678
40	0x3e93bc41	0.28854564
41	0x3e1c202e	0.1524665
42	0x3e396651	0.18105437
43	0x3cff0aa1	0.031132998
44	0x3c34d545	0.011037176
45	0x3e2c145d	0.16804643
46	0xbeb4153e	-0.35172457
47	0x3e805bfd	0.2507018
48	0x3d7ae28e	0.061251216
49	0xbdc127ba	-0.09431405
50	0x3e46c19c	0.19409794
51	0xbe13c002	-0.14428714
52	0x3ca40d19	0.020025777
53	0x3ec64cfd	0.38730612
54	0x3e91cee6	0.28478163
55	0xbd4a5f3e	-0.049407236
56	0x3e471694	0.19442207
57	0x3b261d5f	0.0025347096
58	0xbdc80e5e	-0.09768365
59	0x3e897c70	0.2685275
60	0xbec6189d	-0.38690653
61	0x3aa0a5f3	0.0012256488
62	0x3dd09f31	0.10186613
63	0x3ea66103	0.3249589
64	0x3e98b307	0.29824087
65	0xbe251f32	-0.16125181
66	0x3bb06180	0.0053827167
67	0x3c29cd9d	0.010363963
68	0x3e031ca5	0.12803896
69	0xbdbbc805	-0.0916901
70	0xbd3ba5a2	-0.045812257
71	0x3e0f6e85	0.14007004
72	0x3dd837f8	0.1055755
73	0xbe8ad004	-0.27111828
74	0xbd40fd83	-0.047116768
75	0xbe15cab1	-0.14628102
76	0x3cf82479	0.030290829
77	0x3e9ce447	0.30642912
78	0xbe67469d	-0.2258553
79	0x3e837f91	0.25683263
80	0x3e5e3974	0.21701604
81	0x3e5db6aa	0.21651712
82	0x3c0fd291	0.00877823
83	0x3e5a0977	0.21292673
84	0xbe038163	-0.12842326
85	0x3e6e33dc	0.2326197
86	0x3e42c2a9	0.1901957
87	0x3dab15d4	0.08353773
88	0xbe981fe7	-0.2971184
89	0x3e8b34be	0.27188677
90	0x3cb0ce42	0.021582726
91	0xbe248b5c	-0.16068786
92	0xbda1f5e3	-0.07908227
93	0x3c2a4387	0.010392076
94	0x3e14003a	0.14453211
95	0xbe29ba08	-0.16574872
96	0xbdc319a2	-0.095263734
97	0xbe5de97d	-0.216711
98	0x3e02bce5	0.1276737
99	0xbda18d06	-0.07888226
100	0xbbc0fb7e	-0.005889355
101	0x3dce2169	0.10064966
102	0x3e2ee372	0.17078951
103	0x3e43e701	0.1913109
104	0xbea0d096	-0.31409138
105	0x3dc5dfd6	0.09661834
106	0xbe73b7ed	-0.23800631
107	0xbc9b46b9	-0.018954622
108	0x3da2984c	0.079392046
109	0xbca5a6c1	-0.020221116
110	0x3cde7f3e	0.027160283
111	0x3e531d91	0.20616747
112	0xbd7e25e4	-0.062047854
113	0x3e8f272c	0.27959573
114	0xbc871a25	-0.016491959
115	0x3e87519f	0.2642946
116	0x3e1a1788	0.15048039
117	0x3cf27428	0.029596403
118	0x3e435c16	0.19078097
119	0xbe35db06	-0.17759332
120	0x3b57dd7c	0.0032938411
121	0xbe219b03	-0.15781789
122	0xbd74e0e3	-0.05978478
123	0x3c8b6f7a	0.01702093
124	0xbdb9db57	-0.09075039
125	0xbcd711a5	-0.02625353
126	0xbe5d0b89	-0.21586432
127	0x3e9bd6b2	0.30437237
128	0xbd510d5e	-0.05103814
129	0xbe869486	-0.2628519
130	0x3e0b8279	0.1362399
131	0x3e347cb1	0.17625691
132	0xbc793e6a	-0.015212635
133	0xbe914f14	-0.28380644
134	0x3e512ba2	0.20426801
135	0x3da0a7fd	0.07844541
136	0xbe803b12	-0.25045067
137	0xbe81a0ba	-0.25317937
138	0xbd03c481	-0.032169823
139	0xbd95b3ed	-0.07309709
140	0xbe06f61d	-0.13179822
141	0xbe03dcae	-0.12877151
142	0xbda641eb	-0.081180416
143	0x3e6ff9a7	0.23435079
144	0xbce50095	-0.02795438
145	0xbe774cae	-0.24150345
146	0xbc06be8c	-0.008224141
147	0xbe84a256	-0.25905102
148	0x3e15efa1	0.14642192
149	0x3e9b9889	0.30389813
150	0xbcb49b5a	-0.022046734
151	0xbdcff32c	-0.10153803
152	0x3d80ae8e	0.06283294
153	0xbe0b2910	-0.13589883
154	0x3df0d587	0.11759477
155	0xbe82b4e4	-0.25528634
156	0x3da5aa32	0.08089103
157	0xbc818ec8	-0.015815154
158	0x3e33ec04	0.17570502
159	0x3d7edeb2	0.062224098
160	0xbcb72de3	-0.022360748
161	0xbe9348b4	-0.28766406
162	0xbe804ced	-0.2505869
163	0x3e65620b	0.22400682
164	0x3ea8f126	0.32996482
165	0x3e601961	0.21884681
166	0x3e0017ef	0.1250913
167	0xbe939e09	-0.2883151
168	0xbdbbf5a6	-0.09177713
169	0x3cb7afc2	0.022422675
170	0x3ea91d05	0.33029953
171	0xba5c2c00	-0.00083988905
172	0x3e93df61	0.28881362
173	0x3ce401d9	0.027832912
174	0x3db06e82	0.08614828
175	0xbd8de037	-0.06927531
176	0x3eb0fc9a	0.3456772
177	0x3d2f97f4	0.042869523
178	0x3e179990	0.14804673
179	0x3db52570	0.08845031
180	0x3db95eea	0.090513065
181	0x3df600c2	0.12011863
182	0xbeb2af6a	-0.34899455
183	0xbd9cefa9	-0.07662899
184	0x3e487212	0.19574764
185	0xbddb7f1f	-0.10717606
186	0x3d728157	0.05920538
187	0x3e19b011	0.1500857
188	0x3e9ed2a6	0.31020087
189	0xbcaaadc1	-0.020834805
190	0xbe3730a3	-0.17889647
191	0x3ddd813a	0.10815664
192	0xbd13ad25	-0.036053795
193	0x3e52d612	0.20589474
194	0xbe699578	-0.22810924
195	0x3cadbc4a	0.021207947
196	0x3d5394f5	0.05165573
197	0x3e74e4a1	0.2391534
198	0x3d2fe02b	0.042938393
199	0xbe2d85a6	-0.16945514
200	0x3e630bba	0.22172442
201	0xbe23bcff	-0.15990065
202	0xbe427673	-0.18990497
203	0xbdc56c2a	-0.09639771
204	0xbe0fe6f4	-0.14052945
205	0xbe017c1b	-0.12644999
206	0x3e575c50	0.21031308
207	0x3d5dcf62	0.054152854
208	0xbde0e8e3	-0.109819196
209	0xbca10459	-0.019655393
210	0xbec3a7cb	-0.38213953
211	0x3cd3a5e2	0.025835935
212	0x3e6e7ac2	0.23289016
213	0x3d1cda1b	0.03829394
214	0xbd63a61e	-0.055578344
215	0x3e87e8ed	0.26544896
216	0x3e46b8a7	0.19406377
217	0xbe3910c3	-0.180728
218	0x3e1fd849	0.1560985
219	0xbe8594cf	-0.26090094
220	0x3e08119a	0.13287964
221	0xbe799202	-0.24372104
222	0x3ca85e7c	0.020552866
223	0xbe49fde5	-0.1972576
224	0x3e227bba	0.1586751
225	0x3e661ffd	0.2247314
226	0xbe6f0052	-0.23339966
227	0x3d629d3e	0.05532574
228	0x3e57b20a	0.2106401
229	0x3e72163b	0.23641293
230	0xbe9f6f1d	-0.3113946
231	0xbebc7bf0	-0.36813307
232	0x3e39f9db	0.18161719
233	0xbdb72e97	-0.08944433
234	0x3dca12ac	0.09866843
235	0xbe89a15c	-0.2688092
236	0xbe89b112	-0.26892906
237	0x3d94960d	0.072551824
238	0xbdd7f872	-0.10545434
239	0xbe905438	-0.28189254
240	0xbe4f3f2d	-0.20238943
241	0x3e0765d1	0.13222434
242	0xbe2d6258	-0.16932046
243	0x3d06c43a	0.03290198
244	0x3db50720	0.088392496
245	0x3dc454c5	0.09586481
246	0xbe66c7ea	-0.22537199
247	0x3da66c86	0.08126168
248	0xbe035505	-0.12825401
249	0xbe1b251c	-0.15150875
250	0x3e4cc2a1	0.1999612
251	0x3e6c8f56	0.23101553
252	0x3d367227	0.044542458
253	0x3e269c41	0.16270544
254	0x3dd12120	0.10211396
255	0xbc4b7ad9	-0.012419426

o.bias f4 [11]
0	0x3dff22a3	0.12457778
1	0x3e058779	0.1303996
2	0xbdb62b5a	-0.088949874
3	0x3d8ffa7c	0.07030198
4	0xbe377d7b	-0.17918961
5	0x3e8d56ec	0.2760538
6	0xbdaa4a1b	-0.08314916
7	0xbe34d66d	-0.17659922
8	0xbdcd08c1	-0.10011435
9	0xbc414548	-0.011796303
10	0x3dfed809	0.12443549
