RWKV-v8/251018_rosa_4bit_run.pth (torch, 67237 bytes, 18 tensors)

e.weight f4 [11, 64]
-0.07884177 -1.3482661 0.06813777 0.9838217 0.1625554 -0.20614173 -0.3727843 0.2135429
1.0334598 -0.7822804 1.6596475 -0.29834142 0.7056242 1.175498 0.31729114 0.047568742
-0.66862136 -0.3014415 1.6251643 -0.9533761 0.8312627 0.26281464 -1.0672611 0.54854435
-1.2132922 -0.41512144 -0.8357643 0.028880356 -0.23575906 -0.5097333 -1.0881953 0.20469007
-0.13888 -0.35997444 1.2448465 -0.10340061 0.85855293 -0.22162625 0.31641895 -0.41451618
0.9191522 -1.1738669 -0.6172855 1.8151852 0.6846879 0.81787574 -1.1085292 0.88225603
-1.0796931 -0.023882484 -0.6924532 -1.0595675 0.7247402 0.1851485 0.20360081 0.37008753
0.2660303 -0.25130877 0.38101336 0.44302493 0.20079803 -0.47887886 -1.3116283 -3.1252322
-0.10628902 -0.79604745 0.44761387 -0.738075 0.52795434 0.34157225 -1.0661122 -0.07279084
0.24149454 -1.26713 -0.90531105 1.2059155 0.24012537 0.19662702 0.26108262 1.0895493
2.030081 1.0346378 -0.33185148 2.0915484 0.86083615 -0.7513807 -0.9918047 -1.5539124
0.018298369 -0.36834574 1.2399149 0.4240618 0.2095 -0.7696769 0.5972729 1.6954771
-1.4690316 -0.18116726 0.033020865 -0.91342556 1.741722 -0.35567003 -0.9223877 -0.79560727
-1.7242161 0.06953892 -0.53369874 -0.37114978 -0.6814133 -0.20547117 -0.16962737 -0.24763076
0.11345795 0.017490923 -0.69020855 0.031415317 0.096739225 -2.9616299 0.8285927 -1.925205
0.7935864 0.63965577 -0.5610425 -0.124531455 -0.56917953 -1.3091698 0.66323525 -1.2761958
0.6215585 1.4618361 -0.28026065 -0.7212138 2.2482178 0.3555527 1.3199406 0.014106574
-1.6804389 -0.8300254 -0.6403542 0.8196885 0.5671437 0.66428715 -0.97162026 0.3007461
-0.41957477 -0.6502758 -1.3028271 -1.4937694 0.2754992 0.7210574 -0.12606645 -1.3291677
-1.7380522 0.95771885 0.01141729 -0.23262842 -0.02254105 1.2348115 0.18477947 0.8624317
1.3666455 -2.0630744 0.19319876 1.2583293 1.1976542 -0.10054905 0.66575634 -0.03641805
-0.52983934 0.38750556 -0.038229566 0.5750247 1.6722772 -0.29840398 -0.12225996 0.36358744
-0.724795 1.6483161 1.7871933 -1.0066931 1.5043284 2.3217037 -0.11043557 1.62832
1.2449611 0.0061205425 -1.2021009 0.50108975 0.88334906 -0.14725165 -0.3333897 -0.14279711
-1.8784018 -0.4816471 -0.5132903 0.13691948 -0.08528531 1.6539272 -0.24689002 -0.826911
0.6278281 -0.71087533 -1.4170123 0.66736823 0.74960834 0.26285946 0.093246825 0.15565206
-0.21939202 1.3590139 -0.5430597 -0.8554064 -1.4250084 -0.88725585 1.7538456 0.37569848
-1.2139629 -0.24399541 -0.21098974 1.0899276 1.1800119 0.44606635 -3.1312513 0.8028341
-1.4181366 -0.24788652 1.2623672 -0.4874661 0.31232035 -0.50866705 -0.7582284 1.1916252
-1.6484188 0.38307965 -0.14218967 0.61098087 -0.5623034 0.08349022 1.4817824 0.76683927
-0.011890593 -1.1948195 -1.2601521 1.9188155 -0.89261585 0.34993824 -0.18276574 -0.03039209
0.748721 -0.54680187 1.36901 0.15231289 1.5821657 -0.65224856 1.0693778 -0.6807999
00000000: cb77 a1bd fc93 acbf d18b 8b3d bddb 7b3f
00000010: ec74 263e d116 53be 95dd bebe fdaa 5a3e
00000020: 6948 843f 8743 48bf 546f d43f 35c0 98be
00000030: caa3 343f b876 963f fc73 a23e 71d7 423d
00000040: c52a 2bbf 8a56 9abe 6205 d03f 7510 74bf
00000050: a2cd 543f a48f 863e 039c 88bf 676d 0c3f
00000060: 294d 9bbf cc8a d4be a6f4 55bf 7f96 ec3c
00000070: d36a 71be e27d 02bf fc49 8bbf 469a 513e
00000080: 8f36 0ebe 924e b8be 2157 9f3f b3c3 d3bd
00000090: 20ca 5b3f fef1 62be aa01 a23e 773b d4be
000000a0: 8f4d 6b3f 4541 96bf 6c06 1ebf fd57 e83f
000000b0: b547 2f3f 4e60 513f 49e4 8dbf 88db 613f
000000c0: 6233 8abf 33a5 c3bc 9d44 31bf e89f 87bf
000000d0: 9388 393f 9297 3d3e bb7c 503e 1d7c bd3e
000000e0: 2035 883e 8bab 80be 2f14 c33e 2ad4 e23e
000000f0: 009e 4d3e 9c2f f5be 70e3 a7bf ce03 48c0
00000100: 0fae d9bd c4c9 4bbf a52d e53e 7cf2 3cbf
00000110: 0428 073f 8fe2 ae3e 5d76 88bf 5d13 95bd
00000120: 584a 773e 5131 a2bf 77c2 67bf 705b 9a3f
00000130: 6de3 753e 9858 493e 9fac 853e 5a76 8b3f
00000140: d9ec 0140 036f 843f 70e8 a9be eedb 0540
00000150: c25f 5c3f 7c5a 40bf eae6 7dbf 9ae6 c6bf
00000160: 76e6 953c d097 bcbe 88b5 9e3f a11e d93e
00000170: 2b87 563e 8c09 45bf e0e6 183f 6505 d93f
00000180: 3a09 bcbf e983 39be e340 073d 42d6 69bf
00000190: bff0 de3f 621a b6be 9a21 6cbf ebac 4bbf
000001a0: 1db3 dcbf 6c6a 8e3d 7ba0 08bf 5807 bebe
000001b0: 1a71 2ebf 0967 52be ccb2 2dbe eb92 7dbe
000001c0: a45c e83d 2049 8f3c 82b1 30bf 59ad 003d
000001d0: 371f c63d 588b 3dc0 a71e 543f 1e6d f6bf
000001e0: 7a28 4b3f 7bc0 233f 7ba0 0fbf 590a ffbd
000001f0: c0b5 11bf e092 a7bf c9c9 293f 625a a3bf
00000200: 751e 1f3f 721d bb3f 537e 8fbe 78a1 38bf
00000210: cde2 0f40 010b b63e d0f3 a83f 421f 673c
00000220: 9f18 d7bf 8b7c 54bf 41ee 23bf 1bd7 513f
00000230: 5430 113f b90e 2a3f 1bbc 78bf 65fb 993e
00000240: 81d2 d6be 7a78 26bf 0ac3 a6bf d633 bfbf
00000250: 3b0e 8d3e 3897 383f 9017 01be 2b22 aabf
00000260: 7f78 debf 102d 753f 960f 3b3c 2536 6ebe
00000270: 02a8 b8bc 4e0e 9e3f d436 3d3e 53c8 5c3f
00000280: 3dee ae3f 6909 04c0 e5d5 453e ef10 a13f
00000290: bc4c 993f a9ec cdbd 026f 2a3f 182b 15bd
000002a0: 8da3 07bf 2167 c63e 9b96 1cbd d234 133f
000002b0: 2e0d d63f 68c8 98be 6e63 fabd 2228 ba3e
000002c0: 2a8c 39bf 06fc d23f c0c2 e43f 52db 80bf
000002d0: d58d c03f cb96 1440 0b2c e2bd ca6c d03f
000002e0: e35a 9f3f d58e c83b 71de 99bf 6b47 003f
000002f0: 2a23 623f 23c9 16be 0eb2 aabe 6839 12be
00000300: 786f f0bf 739a f6be fe66 03bf 9f34 0c3e
00000310: 11aa aebd e3b3 d33f bdd0 7cbe 70b0 53bf
00000320: 58b9 203f edfb 35bf a960 b5bf a5d8 2a3f
00000330: 55e6 3f3f 8495 863e 31f8 be3d 4163 1f3e
00000340: 4da8 60be 2bf4 ad3f f605 0bbf eafb 5abf
00000350: ad66 b6bf 3323 63bf 037e e03f 8d5b c03e
00000360: 2363 9bbf efd9 79be b20d 58be bf82 8b3f
00000370: a10a 973f cf62 e43e 6c66 48c0 8986 4d3f
00000380: 8085 b5bf f7d5 7dbe 4095 a13f 2895 f9be
00000390: 74e8 9f3e 0138 02bf 421b 42bf 2d87 983f
000003a0: 63ff d2bf 0423 c43e 2b9a 11be 3e69 1c3f
000003b0: 1ef3 0fbf ecfc aa3d 0cab bd3f 944f 443f
000003c0: c3d0 42bc d8ef 98bf aa4c a1bf bf9b f53f
000003d0: 7982 64bf 1b2b b33e f126 3bbe d5f8 f8bc
000003e0: 2eac 3f3f 35fb 0bbf b83b af3f e9f7 1b3e
000003f0: 6884 ca3f c3f9 26bf 5fe1 883f e748 2ebf

emb_rosa.emb.weight f4 [11, 64]
-1.665874 -0.8828418 -0.080351904 -0.042681277 -0.36947143 0.64145744 -0.31436327 -0.9233132
0.14436746 0.135525 -0.07431897 1.8740287 -0.21107481 -0.07974086 0.16035643 1.1436458
-1.2784593 0.45166096 -2.3144388 -1.1532668 -0.69788456 -0.070456296 -1.5597849 -0.93752223
1.0316026 0.47496536 0.5882273 1.1179056 1.0002505 0.19638948 -1.4911066 1.2760797
0.4508007 1.4584239 -0.5072639 -1.7056059 -0.08957493 -0.07588348 -0.9643911 0.17222585
-0.5803904 -2.4177992 1.4979314 -0.26050317 -0.5926982 -1.168552 1.2677788 -0.2943977
-0.7853411 0.7589565 0.50329655 0.10177624 -1.6838846 0.90329736 0.4187708 1.6369659
0.6309856 -0.43891746 0.85137796 -2.1885786 0.59744245 -0.6375405 -0.8231853 1.3781397
-0.18203552 -1.1843481 0.22668377 0.02827454 -0.9468283 -0.24698308 -0.4908465 0.23880613
1.3619448 0.5535478 0.6565777 -0.5906604 -0.8453566 -1.3386343 0.29762092 0.20362143
0.9736452 -1.0345662 -0.90380734 1.1200484 0.77874064 -2.4366055 -0.42613503 -2.1312296
-0.482828 0.16170192 -0.108620696 -0.7682295 -2.143559 -1.7867811 1.5397537 0.86502
1.1529604 -0.69565636 -0.65246606 1.4618542 1.5355489 0.84901786 1.6894939 0.20449294
-0.9733774 1.2449179 -1.3436816 -0.08137116 1.206741 -2.0630705 0.025386836 -0.72924304
-1.9845335 -0.85841906 -0.106365986 -0.4020493 -0.5655746 -0.23417327 0.34819117 -0.8904366
-0.60493255 0.19886297 1.3116418 -0.41737866 -0.5374083 0.057919536 1.0455831 0.85773075
-0.5941175 -0.620398 -1.3606033 -1.0965347 0.39094678 -1.3554683 1.257102 -0.7014478
-0.36187235 -1.1882666 -0.98898506 0.9079123 0.3870283 0.6286372 0.78384066 -0.20308727
-1.232904 -0.9192071 0.85130507 0.7614764 -0.2806718 -1.7000982 0.28163517 1.2987657
-0.10819696 0.40017486 0.29748496 0.8677172 0.38467503 2.0191398 0.18465479 -0.47514585
0.50266063 -1.1675655 -0.39118308 0.2697779 0.38926652 -0.38584992 -1.2547461 2.382318
-1.9361874 1.8824148 0.021586634 1.3233209 0.5476104 -1.9790556 -1.033504 0.82897246
-0.78029674 -0.53030306 1.3810798 -1.9893562 -0.0004098184 0.20909616 -1.0366169 0.61177236
-0.1662661 -0.36199492 -1.3926979 -0.3570542 -2.0793269 0.7582329 1.9782535 -1.8243846
1.5464791 -0.6268575 0.07485376 0.47721964 -0.631998 0.13563518 0.6906203 -1.8387552
-0.8347184 -0.506829 0.7139367 0.14366826 1.9720469 0.5083267 0.11795585 -0.34723324
0.726663 2.1682694 0.53470033 -0.6654756 1.2654964 1.3371836 0.33091336 -0.9229171
-0.54510766 0.8445648 -1.0051695 1.1014967 1.322842 0.114653 0.18158168 -1.0930815
1.5154368 0.47657114 -0.98066 -0.29925096 -0.055091865 0.49227464 -0.44069695 0.18382451
-0.034165252 2.3302436 -1.2731988 0.108747184 0.8164265 0.24108425 -0.9595454 -1.2685882
-0.4766813 -1.6769269 -0.80833733 -0.12078919 -1.600461 -0.20071553 -0.09594152 0.34101972
0.16660783 -2.2345698 1.0583324 0.67091817 -0.030226765 -2.05101 2.2998874 -0.3044981
00000000: 5c3b d5bf ec01 62bf 8a8f a4bd 90d2 2ebd
00000010: 5c2b bdbe 8e36 243f 39f4 a0be 415e 6cbf
00000020: 10d5 133e 11c7 0a3e 8b34 98bd 2ce0 ef3f
00000030: ff23 58be 2d4f a3bd 7a34 243e fc62 923f
00000040: 8ea4 a3bf 1b40 e73e c41f 14c0 3f9e 93bf
00000050: 90a8 32bf 644b 90bd 08a7 c7bf 7501 70bf
00000060: 8e0b 843f a92e f33e 1096 163f 8817 8f3f
00000070: 3508 803f 531a 493e 95dc bebf 9456 a33f
00000080: 59cf e63e a2ad ba3f 0cdc 01bf 4b51 dabf
00000090: 1073 b7bd cc68 9bbd 56e2 76bf f95b 303e
000000a0: 7794 14bf 39bd 1ac0 37bc bf3f ac60 85be
000000b0: 12bb 17bf 1d93 95bf 9346 a23f 4cbb 96be
000000c0: 1d0c 49bf f94a 423f 0bd8 003f 1070 d03d
000000d0: 8889 d7bf 7f3e 673f 2069 d63e 1988 d13f
000000e0: 4688 213f cab9 e0be e8f3 593f ac11 0cc0
000000f0: fdf1 183f db35 23bf 46bc 52bf e266 b03f
00000100: 8567 3abe b898 97bf ca1f 683e 02a0 e73c
00000110: 5763 72bf 22e9 7cbe 3c50 fbbe 9889 743e
00000120: 3554 ae3f 4fb5 0d3f 7a15 283f 8535 17bf
00000130: 4a69 58bf 5e58 abbf c561 983e 2382 503e
00000140: d040 793f aa6c 84bf eb5f 67bf bf5d 8f3f
00000150: 8c5b 473f 58f1 1bc0 5f2e dabe 1166 08c0
00000160: 3b35 f7be 3095 253e 8774 debd b0aa 44bf
00000170: 1230 09c0 3eb5 e4bf a616 c53f f371 5d3f
00000180: 3594 933f 8916 32bf 0408 27bf 0a1e bb3f
00000190: de8c c43f 3c59 593f 5641 d83f 9966 513e
000001a0: 432f 79bf 7859 9f3f c2fd abbf eca5 a6bd
000001b0: 7d76 9a3f 5909 04c0 0ef8 cf3c acaf 3abf
000001c0: 3205 febf 5ac1 5bbf 69d6 d9bd 68d9 cdbe
000001d0: 7fc9 10bf 1ecb 6fbe 1d46 b23e a7f3 63bf
000001e0: dcdc 1abf bca2 4b3e e1e3 a73f a8b2 d5be
000001f0: 9793 09bf 093d 6d3d abd5 853f 3e94 5b3f
00000200: 1618 18bf 67d2 1ebf 4028 aebf 405b 8cbf
00000210: 2d2a c83e fc7f adbf b8e8 a03f 1592 33bf
00000220: 5547 b9be 1f19 98bf 202e 7dbf f16c 683f
00000230: 9328 c63e 5eee 203f c8a9 483f 1cf6 4fbe
00000240: cccf 9dbf 2851 6bbf 21ef 593f 1ef0 423f
00000250: 37b4 8fbe d19c d9bf 7c32 903e f43d a63f
00000260: 5e96 ddbd b8e3 cc3e f34f 983e b722 5e3f
00000270: 20f4 c43e 9639 0140 2516 3d3e 5146 f3be
00000280: 5eae 003f c972 95bf 2649 c8be 5420 8a3e
00000290: f14d c73e 1f8e c5be 859b a0bf e677 1840
000002a0: fdd4 f7bf f8f2 f03f 74d6 b03c 9462 a93f
000002b0: 3230 0c3f b251 fdbf dc49 84bf 8a37 543f
000002c0: 87c1 47bf f1c1 07bf 39c7 b03f 39a3 febf
000002d0: e5dc d6b9 4e1d 563e ddaf 84bf 1d9d 1c3f
000002e0: a941 2abe 6657 b9be ed43 b2bf cfcf b6be
000002f0: b113 05c0 8d1b 423f 6937 fd3f 6f85 e9bf
00000300: 07f3 c53f bc79 20bf ee4c 993d 2256 f43e
00000310: 9fca 21bf f3e3 0a3e 7ecc 303f 555c ebbf
00000320: 1bb0 55bf 8cbf 01bf 8ec4 363f c61d 133e
00000330: 086c fc3f b321 023f d692 f13d 8ec8 b1be
00000340: 9606 3a3f edc4 0a40 1fe2 083f 9c5c 2abf
00000350: c9fb a13f d528 ab3f 7a6d a93e 4c44 6cbf
00000360: 2d8c 0bbf 6635 583f 65a9 80bf d8fd 8c3f
00000370: e352 a93f 31cf ea3d 8cf0 393e 18ea 8bbf
00000380: d5f9 c13f 2201 f43e 890c 7bbf 6c37 99be
00000390: 02a8 61bd 6c0b fc3e 08a3 e1be 7e3c 3c3e
000003a0: ddf0 0bbd b622 1540 2ef8 a2bf d8b6 de3d
000003b0: 5401 513f cade 763e c4a4 75bf 1961 a2bf
000003c0: 920f f4be 8aa5 d6bf 32ef 4ebf 5360 f7bd
000003d0: e8db ccbf 5f88 4dbe fd7c c4bd 239a ae3e
000003e0: 3e9b 2a3e 3103 0fc0 7077 873f 4bc1 2b3f
000003f0: 1f9e f7bc bf43 03c0 5b31 1340 2de7 9bbe

rosa1.emb0 f4 [1, 1, 64]
-0.025628401 -0.08437128 -0.005776728 0.1255454 0.043459516 -0.03396076 -0.076831244 -0.0012668034
0.13048755 0.0041575013 -0.004636321 0.027128568 -0.056674186 0.060224462 0.0027305472 -0.009287802
-0.0023665652 0.10338056 0.115439355 0.12966949 0.0030865232 0.06571009 -0.033443484 -0.032385882
-0.00740078 -0.155766 -0.047810674 -0.0003667983 0.08330376 -0.0241433 -0.0123782465 -0.013137743
0.15991518 -0.048844133 0.02924301 -0.020245127 0.15420789 -0.11677193 0.018543122 0.029338688
-0.05520179 -0.12085197 0.0026372655 0.013568766 -0.037033264 0.013573554 0.029237019 0.01222278
0.05224329 -0.04460006 0.025459258 -0.08373988 -0.05965726 -0.10450788 0.059350375 -0.023838641
0.023980431 -0.06858886 0.10002248 0.011485145 0.00053809443 -0.016644452 -0.13029349 -0.060596574
00000000: a7f2 d1bc daca acbd b54a bdbb f98e 003e
00000010: 9b02 323d 701a 0bbd b359 9dbd de0a a6ba
00000020: 879e 053e a63b 883b 48ec 97bb bb3c de3c
00000030: 3123 68bd edad 763d fbf2 323b dd2b 18bc
00000040: 6018 1bbb 30b9 d33d 786b ec3d 14c8 043e
00000050: 4447 4a3b 0393 863d 09fc 08bd 0fa7 04bd
00000060: 3e82 f2bb 1f81 1fbe 20d5 43bd d64e c0b9
00000070: 299b aa3d 2bc8 c5bc 21ce 4abc b03f 57bc
00000080: cec0 233e c910 48bd 098f ef3c 1cd9 a5bc
00000090: ace8 1d3e 1f26 efbd bfe7 973c b057 f03c
000000a0: 461b 62bd 3d81 f7bd f9d5 2c3b 884f 5e3c
000000b0: 31b0 17bd 9d63 5e3c 7982 ef3c 0e42 483c
000000c0: 0ffd 553d 8dae 36bd ef8f d03c d07f abbd
000000d0: 2c5b 74bd 3a08 d6bd 6119 733d 4149 c3bc
000000e0: 9c72 c43c 5178 8cbd 96d8 cc3d 312c 3c3c
000000f0: e80e 0d3a f259 88bc a86b 05be 1d34 78bd

rosa1.emb1 f4 [1, 1, 64]
0.0043047937 0.115901135 0.0028966588 -0.15706058 0.015149701 0.17202342 0.010636489 -0.013572967
-0.06463611 -0.030138394 0.08277457 0.037615415 0.11118011 -0.109382644 -0.04235685 -0.09309372
0.054518875 -0.031240096 -0.16061963 -0.082065634 0.066573255 -0.0764388 -0.068596825 0.09352169
0.14964812 0.124559075 0.10594864 -0.02316066 -0.020096093 -0.0043477598 -0.03840484 -0.023242168
-0.16127193 0.0248274 0.07607925 -0.012214355 -0.123710856 0.090659745 0.08621756 -0.06234388
0.0213076 0.07416556 -0.08820883 -0.1591663 0.10103307 0.04087373 0.018568149 -0.07188591
-0.15534215 0.014410929 -0.02562965 0.071687 0.14578676 0.027399654 -0.05925616 -0.0015087595
-0.04492388 0.09352289 -0.1272028 -0.045727964 -0.0562417 0.08907086 0.028105749 0.06728522
00000000: 3a0f 8d3b 935d ed3d dfd5 3d3b 7dd4 20be
00000010: 7436 783c e826 303e ab44 2e3c 2661 5ebc
00000020: f05f 84bd cbe4 f6bc b785 a93d 9f12 1a3d
00000030: 66b2 e33d 0204 e0bd 607e 2dbd eca7 bebd
00000040: 2f4f 5f3d 3beb ffbc 7979 24be 0712 a8bd
00000050: 8f57 883d f28b 9cbd 7e7c 8cbd 4d88 bf3d
00000060: 5b3d 193e d418 ff3d 9afb d83d 6dbb bdbc
00000070: 90a0 a4bc a777 8ebb 654e 1dbd 5c66 bebc
00000080: 7824 25be d562 cb3c 70cf 9b3d b81e 48bc
00000090: 1e5c fdbd d1ab b93d d592 b03d 4c5c 7fbd
000000a0: 478d ae3c 1de4 973d d5a6 b4bd 7efc 22be
000000b0: 6dea ce3d 366b 273d 3b1c 983c ec38 93bd
000000c0: 0312 1fbe d11b 6c3c 46f5 d1bc a2d0 923d
000000d0: 2049 153e 3d75 e03c 96b6 72bd 91c1 c5ba
000000e0: 1a02 38bd ee88 bf3d 7341 02be 3f4d 3bbd
000000f0: b25d 66bd c86a b63d 073e e63c d5cc 893d

lin.weight f4 [64, 64]
0.19071133 0.101944186 -0.020729646 0.022591364 -0.015880508 -0.05695818 -0.022055622 -0.06171903
-0.02138848 -0.037845563 -0.08707514 0.03104092 -0.03931848 -0.061315488 -0.054824673 0.09462717
0.17248012 0.0098981485 -0.048497465 0.07974787 0.18135786 -0.042746823 -0.030496337 -0.016408043
0.08721852 0.022888785 -0.0880474 0.057433248 0.09405356 0.019955482 0.18256167 0.07748143
0.003061075 0.039598472 -0.018518528 -0.08046374 0.092394486 0.11293778 0.097585544 0.0021718878
0.086442925 -0.073405206 0.037018493 -0.04967879 -0.016791325 -0.0806889 -0.14761859 -0.14237916
0.06587198 0.16103348 -0.11205361 -0.020908484 0.02101872 -0.01566457 -0.021675654 -0.066528864
0.015005075 -0.018060464 0.019079784 0.06395066 -0.085971214 0.017162276 0.0031323102 -0.02289718
-0.068183996 0.057280585 -0.12859915 0.10661461 0.13757703 -0.1354403 -0.039209384 0.10974601
-0.036083538 -0.043833643 0.11184436 0.005164789 -0.091733694 -0.03709794 -0.088127315 0.02430567
-0.12134452 0.052403357 0.039094716 -0.13120331 -0.045622516 0.112651505 -0.09486354 -0.110557914
0.16898246 0.11130635 -0.10253819 -0.13369958 0.076836176 0.031495526 -0.11747314 0.08385747
0.085633814 -0.16826645 0.044115126 0.050109275 0.0867045 -0.020999534 -0.047718097 0.064903684
0.09999767 -0.017429555 0.02583802 -0.19391933 0.049806926 0.07013611 -0.10835966 -0.097848825
-0.059661303 0.0027143576 0.056276053 0.11424941 0.008307312 -0.03861034 0.07121481 0.012475622
-0.07340394 0.019207051 0.13049595 -0.030788716 0.16173072 0.095491245 0.04601646 0.087173335
-0.036453433 -0.015665347 -0.012930705 0.08696269 -0.004265194 -0.02328619 0.13741237 0.06616606
-0.015940372 -0.046740025 0.018034315 -0.19957888 0.036387958 -0.11165971 0.054734387 -0.1275511
-0.07995416 -0.104500875 -0.0054674307 0.08948127 0.05663058 -0.093980774 -0.0018956818 -0.08920134
-0.0077601015 0.034030516 0.05955555 -0.04986267 0.0055729332 -0.10093636 0.0715647 -0.12552457
-0.08587016 -0.02946244 0.0661755 0.029357169 -0.113891706 -0.19830967 0.106522664 -0.010171222
0.11826638 -0.03316921 -0.03151184 0.034487706 -0.121996164 -0.096324205 -0.02796909 -0.07301898
-0.034822937 -0.10888651 0.11845913 0.09505574 0.13172239 -0.03365377 0.08478647 0.055932958
0.030158509 0.02867356 0.026622359 -0.0607893 -0.06680033 0.10084094 -0.0015268341 0.12276669
-0.07009058 -0.018971885 0.046690114 0.14824395 0.10770203 0.116576806 -0.028152484 -0.019287664
-0.07878277 -0.07657002 -0.033514787 -0.0607577 0.055948693 -0.023678416 -0.050995823 0.1377627
-0.0100507 -0.06641512 -0.11705581 0.09464265 -0.07520759 0.14211507 0.10594672 0.0461737
-0.09462063 0.08099646 -0.16423813 0.1692501 0.08129196 -0.087289535 0.04250276 -0.049311
-0.13593344 0.015881406 -0.031683583 0.0019252684 0.054892242 0.020181032 -0.07328268 0.08160688
0.06621654 0.086436674 -0.08389353 0.06507089 -0.038529955 0.15494698 0.10203571 0.10888025
-0.06905468 -0.08287405 -0.04242603 0.14434804 0.012988072 0.061756354 0.11581936 0.081400976
-0.08839761 -0.10757723 0.17478056 0.06339479 -0.12612763 0.014763489 0.04619102 -0.014727381
00000000: d549 433e 1dc8 d03d 38d1 a9bc 8611 b93c
00000010: d717 82bc fb4c 69bd fead b4bc 18cd 7cbd
00000020: e536 afbc f303 1bbd 7354 b2bd 8749 fe3c
00000030: 6a0c 21bd f325 7bbd d68f 60bd e4cb c13d
00000040: a19e 303e d82b 223c 47a5 46bd da52 a33d
00000050: e0b5 393e 4b17 2fbd 74d3 f9bc 296a 86bc
00000060: a09f b23d 4381 bb3c 3252 b4bd 203f 6b3d
00000070: 279f c03d ae79 a33c 72f1 3a3e 95ae 9e3d
00000080: 519c 483b 0232 223d 2bb4 97bc 2cca a4bd
00000090: 5239 bd3d ec4b e73d eeda c73d 3b56 0e3b
000000a0: fd08 b13d 7855 96bd b4a0 173d fd7b 4bbd
000000b0: f68d 89bc 3940 a5bd 5429 17be d8cb 11be
000000c0: e3e7 863d f6e5 243e 5d7c e5bd 4548 abbc
000000d0: 732f ac3c fc52 80bc 2491 b1bc 4940 88bd
000000e0: d9d7 753c 8af3 93bc 354d 9c3c 90f8 823d
000000f0: ad11 b0bd e797 8c3c 7247 4d3b de92 bbbc
00000100: 0da4 8bbd 0c9f 6a3d 7faf 03be c358 da3d
00000110: fee0 0c3e ddb0 0abe 059a 20bd 84c2 e03d
00000120: 55cc 13bd e88a 33bd a80e e53d 643d a93b
00000130: e0de bbbd 02f4 17bd 187c b4bd af1c c73c
00000140: 7a83 f8bd e7a4 563d c821 203d 295a 06be
00000150: adde 3abd d5b5 e63d d147 c2bd 306c e2bd
00000160: bd09 2d3e 95f4 e33d 8bff d1bd 8be8 08be
00000170: 495c 9d3d 7401 013d c295 f0bd 77bd ab3d
00000180: c860 af3d 0a4e 2cbe 10b2 343d 623f 4d3d
00000190: 2192 b13d 3707 acbc 0d74 43bd 39ec 843d
000001a0: 94cb cc3d 6dc8 8ebc 41aa d33c ca92 46be
000001b0: 5902 4c3d 85a3 8f3d abeb ddbd f764 c8bd
000001c0: 695f 74bd 5de3 313b b881 663d 98fb e93d
000001d0: 641b 083c e025 1ebd 12d9 913d 8d66 4c3c
000001e0: ce54 96bd 1b58 9d3c bba0 053e 9e38 fcbc
000001f0: bd9c 253e ea90 c33d c17b 3c3d ef87 b23d
00000200: 3250 15bd 9d54 80bc 4fdb 53bc 7f19 b23d
00000210: 0ac3 8bbb aec2 bebc d4b5 0c3e 1282 873d
00000220: 6295 82bc 7872 3fbd b3bc 933c 685e 4cbe
00000230: 8a0b 153d d9ad e4bd 2a31 603d c19c 02be
00000240: 02bf a3bd 8e04 d6bd 2228 b3bb f541 b73d
00000250: 78f5 673d fe78 c0bd 8778 f8ba 31af b6bd
00000260: 7348 febb 9563 0b3d 85f0 733d cd3c 4cbd
00000270: 279d b63b b9b7 cebd 8390 923d 8389 00be
00000280: b2dc afbd 375b f1bc 0587 873d 727e f03c
00000290: 0e40 e9bd b111 4bbe 8e28 da3d 32a5 26bc
000002a0: a535 f23d 70dc 07bd 8f12 01bd fb42 0d3d
000002b0: 20d9 f9bd a045 c5bd 6f1f e5bc fa8a 95bd
000002c0: 7fa2 0ebd e4ff debd b39a f23d 95ac c23d
000002d0: 3ce2 063e 89d8 09bd 87a4 ad3d f519 653d
000002e0: fa0e f73c d0e4 ea3c 2217 da3c 33fe 78bd
000002f0: 9dce 88bd b285 ce3d 0d20 c8ba 1a6d fb3d
00000300: a68b 8fbd ed6a 9bbc 223e 3f3d 43cd 173e
00000310: e292 dc3d d2bf ee3d 0aa0 e6bc 2a01 9ebc
00000320: dc58 a1bd bed0 9cbd cd46 09bd 11dd 78bd
00000330: 752a 653d 3df9 c1bc ffe0 50bd aa11 0d3e
00000340: b1ab 24bc a704 88bd f5ba efbd 01d4 c13d
00000350: 7006 9abd 9d86 113e 98fa d83d a220 3d3d
00000360: 76c8 c1bd 79e1 a53d 0a2e 28be e64f 2d3e
00000370: 667c a63d dbc4 b2bd 6017 2e3d 55fa 49bd
00000380: 2332 0bbe b919 823c a5c6 01bd 4a59 fc3a
00000390: b0d6 603d b152 a53c 3b15 96bd 8221 a73d
000003a0: 8a9c 873d b605 b13d 5fd0 abbd e343 853d
000003b0: 96d1 1dbd 6caa 1e3e 19f8 d03d 9cfc de3d
000003c0: 8a6c 8dbd dfb9 a9bd ebc6 2dbd f9cf 133e
000003d0: eccb 543c 3bf4 7c3d b332 ed3d 8eb5 a63d
000003e0: ce09 b5bd 7351 dcbd adf9 323e 21d5 813d
000003f0: 9a27 01be 90e2 713c cc32 3d3d 1d4b 71bc

lin.bias f4 [64]
-0.13659813 0.06458783 -0.07725125 0.07379655 0.15309766 0.039028205 0.045087308 -0.02622127
0.19375871 0.05030459 -0.049843267 0.00071171747 0.13373935 0.06849057 -0.1275839 -0.08050004
-0.073887 -0.005665699 0.0685596 -0.040125214 0.0600694 -0.123904355 0.01617375 0.051044147
-0.08003657 -0.099024035 0.19500722 0.028250283 0.019325508 0.051657565 0.00906691 -0.018300422
0.005492522 -0.103222355 0.0798445 -0.031245364 -0.06113841 -0.1559026 0.16498232 0.028997635
-0.011999624 -0.066908866 -0.100160554 -0.13580747 -0.09049418 0.032275025 0.021569006 -0.09063343
-0.054080516 0.18159057 -0.06578144 -0.14204559 0.09206817 -0.02295491 -0.009035119 0.099172056
-0.06399071 -0.011379628 -0.016689451 0.00095984584 -0.065100096 0.017798362 -0.028409282 0.10068282
00000000: 61e0 0bbe a046 843d e735 9ebd a522 973d
00000010: a2c5 1c3e 0adc 1f3d 78ad 383d fdcd d6bc
00000020: af68 463e 300c 4e3d 7428 4cbd 8d92 3a3a
00000030: f8f2 083e c944 8c3d 5ba5 02be 34dd a4bd
00000040: 1152 97bd 54a7 b9bb fa68 8c3d 565a 24bd
00000050: 550b 763d 91c1 fdbd d07e 843c ab13 513d
00000060: 37ea a3bd 1dcd cabd f9af 473e 236d e73c
00000070: 8750 9e3c e296 533d 608d 143c c4ea 95bc
00000080: 9dfa b33b 3e66 d3bd 8385 a33d 47f6 ffbc
00000090: 456c 7abd eea4 1fbe 20f1 283e 738c ed3c
000000a0: 129a 44bc 8407 89bd fa20 cdbd 1d11 0bbe
000000b0: 0355 b9bd d132 043d 7cb1 b03c 059e b9bd
000000c0: 8883 5dbd e1f2 393e 6bb8 86bd 6674 11be
000000d0: 3d8e bc3d ef0b bcbc 0908 14bc b81a cb3d
000000e0: 900d 83bd 9f71 3abc 51b8 88bc 2a9e 7b3a
000000f0: 3353 85bd dfcd 913c 95ba e8bc cb32 ce3d

rosa2.emb0 f4 [1, 1, 64]
-0.083239414 -0.113869995 0.05935417 0.3197454 -0.0061906404 -0.0017335842 -0.118959546 -0.017787939
0.17756204 0.039065488 -0.017682597 0.13562624 0.08405238 0.027136281 -0.15047482 0.03426182
-0.056781966 0.21923567 0.10812471 0.16391826 0.15245481 0.10966801 -0.057234984 -0.050882686
-0.099223845 -0.16902398 0.09286552 0.08589873 0.13583769 0.07126353 0.10263925 -0.037375264
0.33254996 -0.037845984 0.121878415 0.15805617 0.20929772 -0.23109767 0.047076296 0.17252962
-0.10430016 -0.15087882 -0.14769359 -0.08108024 -0.20347899 -0.17548174 0.103191964 -0.28512287
0.025160719 -0.01318403 0.13565932 -0.20285179 0.22552219 -0.09471295 0.02969556 -0.021889538
0.17326914 0.25237498 0.20656486 0.058539193 -0.1637477 -0.008834068 -0.14128616 -0.11403461
00000000: 6d79 aabd ac34 e9bd 5c1d 733d abb5 a33e
00000010: dbda cabb 6f39 e3ba 10a1 f3bd 03b8 91bc
00000020: d3d2 353e 2203 203d 18db 90bc 9be1 0a3e
00000030: a723 ac3d e84c de3c 1216 1abe 1f56 0c3d
00000040: 3594 68bd 517f 603e 7d70 dd3d 30da 273e
00000050: 1d1d 1c3e 9f99 e03d 3b6f 6abd 5d6a 50bd
00000060: df35 cbbd 9f14 2dbe 4730 be3d aceb af3d
00000070: 0919 0b3e 9df2 913d 8734 d23d ce16 19bd
00000080: fd43 aa3e 6404 1bbd 649b f93d 7ad9 213e
00000090: 2452 563e dea4 6cbe 13d3 403d 9bab 303e
000000a0: 539b d5bd fa7f 1abe fd3c 17be 660d a6bd
000000b0: cc5c 50be 7cb1 33be 4f56 d33d a0fb 91be
000000c0: da1d ce3c d401 58bc 47ea 0a3e 61b8 4fbe
000000d0: 4aef 663e ddf8 c1bd 1a44 f33c b051 b3bc
000000e0: 776d 313e 4b37 813e bd85 533e cbc6 6f3d
000000f0: 7aad 27be c4bc 10bc 52ad 10be fa8a e9bd

rosa2.emb1 f4 [1, 1, 64]
-0.052458636 0.2598386 -0.039423015 -0.39030227 0.16640103 0.14652485 0.15443876 -0.12223954
-0.07511872 -0.039287627 0.03640392 -0.073092446 0.021236988 -0.11811832 0.10692454 -0.2376908
0.092423886 -0.14696692 -0.14006749 -0.15627502 -0.028656624 -0.1457146 0.0556737 0.052724946
0.14479952 0.1764715 0.026451712 -0.12274359 -0.15723233 -0.24298804 -0.07208931 -0.084661305
-0.34477636 -0.05082685 0.12004233 -0.16189219 -0.1954535 0.2371861 0.063962325 -0.23552488
0.17903507 0.13441989 0.25526017 0.06499104 0.24342766 0.21758321 -0.044461116 0.21084067
-0.22382095 -0.0117639 -0.17525771 0.22770551 -0.26285568 0.01226326 -0.08036991 0.06535219
-0.162316 -0.36319506 -0.19085996 -0.071075745 0.18878095 0.099287845 0.16515355 0.16938321
00000000: dede 56bd 9109 853e 077a 21bd b3d5 c7be
00000010: 0865 2a3e 9c0a 163e 3225 1e3e b958 fabd
00000020: d8d7 99bd 10ec 20bd 471c 153d 7eb1 95bd
00000030: 31f9 ad3c 05e8 f1bd 41fb da3d 3865 73be
00000040: bc48 bd3d 7f7e 16be da6d 0fbe 8f06 20be
00000050: 4cc1 eabc 3536 15be 1b0a 643d 1df6 573d
00000060: 5346 143e f2b4 343e 43b1 d83c fe60 fbbd
00000070: 8301 21be dbd1 78be 8fa3 93bd e862 adbd
00000080: 8786 b0be d12f 50bd c1d8 f53d 11c7 25be
00000090: f624 48be eae0 723e aefe 823d 6f2d 71be
000000a0: f854 373e 5ea5 093e 76b1 823e 061a 853d
000000b0: 1a45 793e 22ce 5e3e dc1c 36bd 9ee6 573e
000000c0: 5231 65be 5fbd 40bc c276 33be a22b 693e
000000d0: 0595 86be d7eb 483c fb98 a4bd 5ed7 853d
000000e0: 2a36 26be b4f4 b9be cb70 43be 2990 91bd
000000f0: cb4f 413e 6d57 cb3d 031e 293e cb72 2d3e

lin1.weight f4 [64, 64]
0.17813925 -0.032509286 0.10050428 0.06508147 0.14949657 -0.08003037 0.009509224 0.06001637
-0.115923725 -0.18889663 0.13644157 -0.17340855 -0.06282611 0.20167705 0.12894881 -0.022210123
0.035654444 0.049620647 -0.092506915 0.17203514 -0.14805329 0.044922657 -0.08874369 -0.050009508
-0.039021693 -0.055173766 -0.020089442 0.109698854 -0.07995336 -0.089092694 0.17012879 0.035680108
-0.042609498 -0.039843794 -0.15906727 0.09371364 -0.117391795 0.052242707 -0.19210824 -0.09223446
0.07465971 -0.05040066 0.14004229 0.108858846 -0.09143369 0.09117356 -0.23840052 -0.10276464
0.1094114 0.065252036 -0.1578018 -0.061967626 0.03660002 -0.084499754 -0.10192753 -0.1611781
-0.068036586 -0.035158034 0.03217851 0.19323732 0.009123172 -0.16882165 0.040257625 -0.03616986
-0.021044027 -0.019057512 -0.1277619 0.14945382 -0.015558661 0.04619007 0.0070650224 -0.1513179
0.044066153 -0.03182595 0.046499517 -0.049078196 0.053587187 0.06137807 -0.1719882 0.11550829
-0.1449471 -0.007868151 -0.0454668 -0.18074222 0.06242192 0.01752201 0.14294456 0.027511625
-0.08964172 0.09840203 0.003745665 0.12912215 0.1337266 0.06255956 -0.086501226 -0.08439646
-0.14267422 0.0010789285 0.10803813 0.060944077 -0.14911602 -0.05806532 -0.08951343 -0.037249427
0.050953332 -0.10889004 -0.11995679 -0.02568931 0.04124707 -0.0023349382 0.06609051 -0.09443985
0.1328436 -0.15333089 -0.10738136 0.16390923 -0.16442347 -0.025067287 -0.06834958 -0.05176637
-0.07741525 0.0659103 0.21743657 0.05497732 0.10334721 0.09895225 0.05612985 0.13688403
0.062285192 -0.015838575 0.077250876 -0.025136832 -0.085614555 -0.063904695 0.12737995 -0.10932826
-0.02174967 -0.046451226 -0.037314817 -0.14461556 0.099078976 0.088325195 -0.043256093 -0.16931641
-0.056744277 -0.0010623392 -0.004850256 -0.10982901 -0.06479126 -0.068045825 0.17050295 0.14311014
-0.20394953 0.11998646 0.031197434 0.0676565 -0.036812488 0.16439486 0.0061638863 -0.10866356
-0.102264866 -0.14723068 0.07297608 0.05032341 -0.112319596 -0.041394062 0.034235448 -0.012430503
0.0007189559 0.098386675 -0.18433791 -0.0037983672 0.11593343 0.048276488 -0.1444745 0.02969804
-0.14684084 -0.020112686 -0.11603784 0.029887963 0.110957764 0.05529895 0.09503269 0.006878699
-0.17430995 0.047891665 0.010436285 0.031682353 -0.12696029 0.05592143 -0.015270616 -0.0846616
0.04820005 -0.23223983 0.019214045 0.010228682 0.01445321 -0.05351256 0.12113099 -0.10034277
-0.06895848 -0.028517222 0.0017130529 -0.18569171 0.050851557 0.013332692 0.19799569 0.005400923
-0.11557561 -0.08071667 -0.107198946 0.04760454 -0.034577515 0.03673954 0.12204637 0.10012339
-0.104568705 0.031391904 -0.001146752 -0.03188052 -0.059108593 -0.06924464 -0.06460304 -0.034038898
-0.15981084 0.086282596 -0.053142436 0.025771365 -0.2604853 0.08512078 0.099626206 0.0046161534
-0.122953996 0.17608261 0.12743108 0.03428612 -0.042804312 -0.073930934 -0.061514936 -0.038707495
0.17162931 -0.0857518 -0.103447355 0.11462422 -0.081153944 -0.04489568 0.03417726 0.03585367
-0.2227407 0.18194558 -0.058715526 0.021408161 -0.1744579 0.06438128 -0.06564063 0.19364731
00000000: 236a 363e 7528 05bd 30d5 cd3d 6f49 853d
00000010: a115 193e f6e6 a3bd 94cc 1b3c bad3 753d
00000020: 6b69 edbd 1e6e 41be 57b7 0b3e 0392 31be
00000030: faaa 80bd 6e84 4e3e 280b 043e 01f2 b5bc
00000040: 650a 123d 053f 4b3d 4474 bdbd fb29 303e
00000050: 489b 17be d200 383d 40bf b5bd c5d6 4cbd
00000060: 36d5 1fbd e3fd 61bd 9d92 a4bc cba9 e03d
00000070: 96be a3bd 3b76 b6bd 3e36 2e3e 4e25 123d
00000080: 4c87 2ebd 3f33 23bd 88e2 22be f0ec bf3d
00000090: 1c6b f0bd 73fc 553d 06b8 44be 6ce5 bcbd
000000a0: 31e7 983d ec70 4ebd 3f67 0f3e 63f1 de3d
000000b0: 9641 bbbd 34b9 ba3d 441f 74be 4476 d2bd
000000c0: 1613 e03d dca2 853d cc96 21be c4d1 7dbd
000000d0: e7e9 153d 350e adbd 61bf d0bd df0b 25be
000000e0: c456 8bbd df01 10bd 9dcd 033d 01e0 453e
000000f0: 5b79 153c 95df 2cbe 2ee5 243d d926 14bd
00000100: 8664 acbc 801e 9cbc 04d4 02be 6c0a 193e
00000110: c1e9 7ebc cd31 3d3d b481 e73b 14f3 1abe
00000120: b67e 343d ed5b 02bd 4776 3e3d 3806 49bd
00000130: 3d7e 5b3d 9267 7b3d ad1d 30be 9c8f ec3d
00000140: 036d 14be 6be9 00bc 653b 3abd 7d14 39be
00000150: 21ae 7f3d 518a 8f3c 0f60 123e 0f60 e13c
00000160: 1496 b7bd 0187 c93d d579 753b 9938 043e
00000170: a0ef 083e 3a1f 803d 8e27 b1bd 0dd8 acbd
00000180: 3119 12be d56a 8d3a 1843 dd3d 7fa0 793d
00000190: dfb1 18be e7d5 6dbd d152 b7bd db92 18bd
000001a0: 71b4 503d be01 dfbd e8ab f5bd 6372 d2bc
000001b0: b0f2 283d c305 19bb 765a 873d ae69 c1bd
000001c0: 2708 083e c602 1dbe c2ea dbbd d2d7 273e
000001d0: a05e 28be e959 cdbc ddfa 8bbd f908 54bd
000001e0: e38b 9ebd fbfb 863d b1a7 5e3e e62f 613d
000001f0: b4a7 d33d 7aa7 ca3d 6ae8 653d 542b 0c3e
00000200: c21e 7f3d e6bf 81bc b535 9e3d c2eb cdbc
00000210: af56 afbd 77e0 82bd e46f 023e 7fe7 dfbd
00000220: 5d2c b2bc a443 3ebd 6cd7 18bd 1a16 14be
00000230: ebe9 ca3d d7e3 b43d 4d2d 31bd 4861 2dbe
00000240: b06c 68bd 303e 8bba e5ee 9ebb 08ee e0bd
00000250: 48b1 84bd 9c5b 8bbd 5398 2e3e 778b 123e
00000260: 25d8 50be 76bb f53d c391 ff3c 7e8f 8a3d
00000270: b1c8 16bd 2057 283e 6dfa c93b 008b debd
00000280: 3e70 d1bd a4c3 16be 7c74 953d ec1f 4e3d
00000290: d107 e6bd d28c 29bd 783a 0c3d 4fa9 4bbc
000002a0: 5078 3c3a f47e c93d 14c3 3cbe 07ee 78bb
000002b0: 826e ed3d 91bd 453d 20f1 13be 4e49 f33c
000002c0: 725d 16be 5cc3 a4bc 3fa5 edbd 9ad7 f43c
000002d0: d33d e33d 2781 623d 80a0 c23d b666 e13b
000002e0: 4f7e 32be 0d2a 443d f4fc 2a3c 5bc5 013d
000002f0: e101 02be df0d 653d 9b31 7abc 1063 adbd
00000300: 6a6d 453d 47d0 6dbe c666 9d3c 3496 273c
00000310: 28cd 6c3c fc2f 5bbd 8613 f83d 8380 cdbd
00000320: 1b3a 8dbd f39c e9bc 8488 e03a f825 3ebe
00000330: b949 503d 5d71 5a3c 62bf 4a3e 3afa b03b
00000340: e8b2 ecbd c84e a5bd 1f8b dbbd fafc 423d
00000350: 27a1 0dbd 337c 163d 72f3 f93d 7e0d cd3d
00000360: 1e28 d6bd cc94 003d 9d4e 96ba 2695 02bd
00000370: da1b 72bd 22d0 8dbd 994e 84bd 5f6c 0bbd
00000380: 74a5 23be eeb4 b03d e2ab 59bd 781e d33c
00000390: 545e 85be ce53 ae3d d308 cc3d 1a43 973b
000003a0: 4ecf fbbd 004f 343e 4b7d 023e 9a6f 0c3d
000003b0: 9353 2fbd 1a69 97bd 16f7 7bbd c08b 1ebd
000003c0: 98bf 2f3e a49e afbd 35dc d3bd 1ac0 ea3d
000003d0: 0a34 a6bd 88e4 37bd 74fd 0b3d 4cdb 123d
000003e0: 2316 64be f14f 3a3e b17f 70bd 2b60 af3c
000003f0: 17a5 32be 55da 833d 986e 86bd 7b4b 463e

lin1.bias f4 [64]
0.058133204 -0.033205725 0.112772815 0.0016951311 0.13070458 0.038827084 0.06276167 0.057585455
-0.0599262 0.043059625 -0.1057613 -0.06124416 0.027875787 0.0075405743 -0.10792117 -0.15266833
-0.07382103 0.053952556 -0.012788465 -0.022955285 0.10254528 0.004017526 0.099969424 -0.010974834
-0.04175532 0.07396118 0.10615443 -0.1189975 0.040223464 -0.15484717 0.0834657 -0.14848576
0.06348215 -0.07863725 -0.025226502 -0.015046602 0.16209221 -0.08349197 0.1053517 0.03545246
0.058200046 -0.01779546 0.066364676 0.018332025 -0.1354102 0.0076979185 0.033553794 -0.21603346
-0.066018 -0.08617583 0.11680501 -0.102385804 0.056652736 -0.04559994 -0.09357767 0.062457033
-0.004613846 0.09152945 -0.09532611 -0.06927629 0.1334916 0.039421026 0.0055871806 0.033094805
00000000: 151d 6e3d ba02 08bd 6ff5 e63d 292f de3a
00000010: 6cd7 053e 2609 1f3d 3189 803d bade 6b3d
00000020: 2d75 75bd 4a5f 303d 6199 d8bd 28db 7abd
00000030: c35b e43c ec16 f73b c605 ddbd 1655 1cbe
00000040: 7b2f 97bd 5bfd 5c3d b686 51bc b90c bcbc
00000050: 4203 d23d 73a5 833b c5bc cc3d cacf 33bc
00000060: a007 2bbd f678 973d 7e67 d93d f6b4 f3bd
00000070: 5cc1 243d 4290 1ebe 11f0 aa3d a70c 18be
00000080: ee02 823d 910c a1bd cfa7 cebc 0686 76bc
00000090: 80fb 253e d7fd aabd a2c2 d73d 9936 113d
000000a0: 2c63 6e3d c9c7 91bc 34ea 873d 0b2d 963c
000000b0: f9a8 0abe d23e fc3b b46f 093d e037 5dbe
000000c0: 7234 87bd f47c b0bd 7737 ef3d a6af d1bd
000000d0: b30c 683d 01c7 3abd a6a5 bfbd f2d2 7f3d
000000e0: bf2f 97bb cb73 bb3d 563a c3bd bae0 8dbd
000000f0: 06b2 083e f177 213d ab14 b73b 6b8e 073d

rosa3.emb0 f4 [1, 1, 64]
0.044479366 0.13098344 -0.26178908 0.47531164 0.30679774 0.22161706 -0.10134216 -0.09913954
-0.19642918 0.0124767935 0.3073728 0.2332629 0.22053477 0.3562455 0.01803794 0.096149884
-0.36411628 0.28657255 0.014465711 0.30522484 -0.072822385 0.318438 0.17335396 -0.15758209
-0.39495972 -0.23432903 0.31566626 0.10997873 0.27060682 0.11096913 0.3972455 0.03330389
-0.33166552 -0.069227904 0.10366474 0.4702746 0.41618228 -0.27957767 0.09177905 0.30047977
-0.33888108 -0.067149706 -0.37851027 -0.037946 -0.2152342 -0.012549222 0.29580036 -0.274642
0.24137099 0.24379309 0.1544538 -0.22646824 0.29656085 -0.1971648 0.10057132 -0.03261436
0.10827992 0.5045514 0.20850058 0.12703712 -0.1431546 0.32364395 -0.3589245 -0.22648655
00000000: ff2f 363d 8620 063e 3809 86be 0c5c f33e
00000010: 9814 9d3e 95ef 623e 7a8c cfbd ac09 cbbd
00000020: bb24 49be 776b 4c3c f85f 9d3e 78dc 6e3e
00000030: ded3 613e cf65 b63e 4dc4 933c 3bea c43d
00000040: 736d babe a3b9 923e 9701 6d3c 6e46 9c3e
00000050: e723 95bd 4e0a a33e b383 313e 335d 21be
00000060: 2938 cabe f3f3 6fbe 029f a13e 873c e13d
00000070: fa8c 8a3e c943 e33d c363 cb3e a969 083d
00000080: 10d0 a9be 5cc7 8dbd 2e4e d43d d5c7 f03e
00000090: d815 d53e ce24 8fbe a8f6 bb3d 7cd8 993e
000000a0: d281 adbe c985 89bd 19cc c1be 446d 1bbd
000000b0: 5b66 5cbe 419b 4dbc 2573 973e e09d 8cbe
000000c0: f529 773e e5a4 793e 2329 1e3e 4ae7 67be
000000d0: d3d6 973e 92e5 49be 56f8 cd3d a396 05bd
000000e0: ddc1 dd3d 482a 013f 2d81 553e 0516 023e
000000f0: 1f97 12be a9b4 a53e f4c4 b7be 17ec 67be

rosa3.emb1 f4 [1, 1, 64]
-0.089533485 -0.27697 0.23080783 -0.5390875 -0.22995788 -0.12484041 0.09984755 0.1438791
0.12848341 0.02567771 -0.34671074 -0.29174265 -0.13545029 -0.38224775 0.027939819 -0.31296825
0.41972685 -0.27300745 0.06405464 -0.34827363 0.103113934 -0.34454232 -0.24215697 0.25020394
0.43710056 0.16435866 -0.28124824 -0.1468029 -0.3813142 -0.28906447 -0.40831935 -0.0809094
0.35246393 0.08938718 0.029401248 -0.4298552 -0.4342849 0.3950979 -0.10716123 -0.383613
0.326758 0.12910913 0.44974384 0.063473985 0.3029168 0.05448955 -0.3043658 0.23914449
-0.41903916 -0.31644687 -0.20035282 0.2515627 -0.37026778 0.25454792 -0.12523048 0.12836507
-0.12960686 -0.54109347 -0.25383872 -0.19197874 0.20321667 -0.31498575 0.35079977 0.3317138
00000000: 555d b7bd 03cf 8dbe e358 6c3e a301 0abf
00000010: 147a 6bbe 54ac ffbd df7c cc3d 0b55 133e
00000020: 2891 033e 105a d23c 1284 b1be 4b5f 95be
00000030: 7bb3 0abe fab5 c3be 0ce2 e43c 603d a0be
00000040: 70e6 d63e a2c7 8bbe 142f 833d ec50 b2be
00000050: 662d d33d da67 b0be fff7 77be bb1a 803e
00000060: a5cb df3e a34d 283e c5ff 8fbe 8053 16be
00000070: 9d3b c3be 4200 94be 3c0f d1be d4b3 a5bd
00000080: 2776 b43e a010 b73d e3da f03c fb15 dcbe
00000090: 975a debe 464a ca3e 5977 dbbd ec68 c4be
000000a0: d34c a73e 2f35 043e d344 e63e a6fe 813d
000000b0: e917 9b3e 6f30 5f3d d6d5 9bbe 4be2 743e
000000c0: 4d8c d6be 5305 a2be 4a29 4dbe d4cc 803e
000000d0: bd93 bdbe 1b54 823e 6b3c 00be 2272 033e
000000e0: a9b7 04be 1a85 0abf 26f7 81be 1396 44be
000000f0: 0818 503e d045 a1be 079c b33e 64d6 a93e

lin2.weight f4 [64, 64]
0.016874768 -0.12577188 0.09499853 0.0038734297 0.10548024 0.12611622 -0.05451875 -0.0037127126
-0.1682168 -0.15879402 0.0328212 0.018564751 0.10183681 0.12674184 -0.065488584 0.06153923
-0.07247547 0.28646725 0.1588512 0.12671722 -0.1501674 0.15337735 -0.09276471 0.009441369
-0.08737183 0.016317014 -0.13949984 0.13396649 0.18428509 0.040778626 -0.09395341 0.15892573
0.018152852 0.1695792 0.06770428 0.05852764 -0.12974565 -0.08820991 0.075053774 -0.23094061
0.01808274 -0.025620168 0.07196224 -0.015493317 -0.100196734 0.17160401 0.07259146 0.11392959
0.005075094 -0.116199374 -0.029071221 -0.0015672041 0.18895742 0.014595741 -0.06559145 0.0074138627
-0.008558941 0.12337988 -0.03860802 -0.082928926 -0.03528174 0.05835256 0.22715622 0.057934072
-0.083696045 0.030859582 -0.012864437 0.054080985 -0.033936374 0.09834968 0.1466723 0.06480036
-0.09468245 0.13314079 -0.1012008 -0.042451404 -0.11769529 -0.10855357 -0.07217825 0.05008669
-0.071318485 -0.08447803 -0.16399606 0.015525569 -0.068605945 0.086278714 -0.06526177 0.15770681
0.14554171 0.061298635 -0.19927166 0.12855363 0.0738117 0.09634598 -0.1481814 -0.032020647
0.11129451 0.13186616 -0.16066504 -0.07854735 -0.07340031 -0.031516246 -0.025943503 0.027557943
-0.089130625 -0.12131633 -0.07136828 0.045015067 -0.08184944 -0.012603019 -0.027522825 0.09809973
0.15225208 -0.114909686 -0.08153926 0.04080907 0.065629326 0.124529004 -0.06897788 -0.03525257
0.0611179 0.032855697 0.13729401 0.14713648 0.095377386 -0.08292912 0.06911255 0.045269597
-0.004894271 -0.08446071 0.19809149 0.16001916 -0.10503391 -0.17641997 0.21150486 -0.12852433
-0.12254665 -0.041633077 0.013374251 -0.06685718 -0.09440676 0.05222325 0.020654684 -0.06947512
0.19828634 -0.08008645 0.088376224 0.059651457 0.05674822 0.0033768548 0.015869807 0.10241736
-0.116319425 0.024330417 0.097920135 -0.14531648 0.045049645 -0.19012457 -0.086210996 -0.02327873
-0.0062368545 -0.111384645 0.0667423 0.08075292 0.07567303 0.0720936 0.08188916 -0.025487006
-0.06598591 -0.015784888 -0.20448026 -0.0013328186 0.19992794 -0.1354577 -0.008391801 -0.057786882
0.026917182 -0.014595751 -0.16956381 -0.13427205 -0.21701387 0.011621075 -0.26000634 -0.11028104
-0.035054475 -0.063433334 -0.18904124 0.10190291 -0.14403975 -0.1525147 0.16115475 0.14886902
-0.10764411 0.07925133 -0.013298474 0.16753276 -0.052501854 0.29223678 0.14139599 0.01759116
0.17505673 -0.12779228 -0.18177578 0.04803025 -0.18104799 0.18576303 -0.15363908 0.13705425
-0.014547215 -0.04892294 -0.014409372 -0.034327835 0.077555634 0.06684577 -0.09032486 -0.08729045
0.06667718 0.067712195 0.1479578 -0.16447033 0.053793848 -0.11768271 -0.05901246 0.09456275
-0.036732517 -0.0013213234 0.08152197 -0.026831828 -0.04300388 -0.003409397 0.10242719 0.022247713
0.12474313 -0.09530784 -0.112777844 -0.12342637 0.076284826 0.13379224 0.1259388 0.1184064
-0.067389406 -0.0028169013 -0.10918829 0.09588009 -0.009380804 0.054692324 -0.11952744 -0.106581375
-0.051389344 0.13191165 -0.030680347 0.16067693 -0.07149998 -0.18887378 -0.12617964 0.20893477
00000000: f43c 8a3c 58ca 00be 978e c23d 5ed9 7d3b
00000010: 0606 d83d 9c24 013e 0e4f 5fbd fb50 73bb
00000020: 0641 2cbe e69a 22be 866f 063d 1b15 983c
00000030: d18f d03d 9dc8 013e e11e 86bd 8f10 7c3d
00000040: 056e 94bd d6ab 923e e4a9 223e 29c2 013e
00000050: 7cc5 19be f40e 1d3e 6dfb bdbd f9af 1a3c
00000060: 01f0 b2bd 42ab 853c 0cd9 0ebe 832e 093e
00000070: 3bb5 3c3e 7d07 273d a56a c0bd 6dbd 223e
00000080: 4ab5 943c 2ba6 2d3e 8ba8 8a3d aeba 6f3d
00000090: 0bdc 04be 66a7 b4bd cbb5 993d b27b 6cbe
000000a0: 4122 943c 63e1 d1bc f060 933d aed7 7dbc
000000b0: f233 cdbd f6b8 2f3e d5aa 943d eb53 e93d
000000c0: f94c a63b f0f9 edbd c526 eebc a56a cdba
000000d0: 0e7e 413e fa22 6f3c cf54 86bd fdef f23b
000000e0: cd3a 0cbc 97ae fc3d 7123 1ebd a4d6 a9bd
000000f0: 9683 10bd 1803 6f3d a49b 683e 474c 6d3d
00000100: d568 abbd 3ccd fc3c 5cc5 52bc 0684 5d3d
00000110: de00 0bbd 8f6b c93d 4331 163e 0db6 843d
00000120: dfe8 c1bd 0f56 083e 5d42 cfbd 86e1 2dbd
00000130: 3a0a f1bd 5651 debd 31d2 93bd b327 4d3d
00000140: 6d0f 92bd d102 adbd 95ee 27be f55e 7e3c
00000150: 4681 8cbd e5b2 b03d f6a7 85bd e57d 213e
00000160: e308 153e 4714 7b3d df0d 4cbe 90a3 033e
00000170: 972a 973d 0b51 c53d ddbc 17be 1528 03bd
00000180: 60ee e33d ec07 073e 6085 24be 6fdd a0bd
00000190: e752 96bd 2e17 01bd 7887 d4bc 32c1 e13c
000001a0: 1e8a b6bd b274 f8bd 8829 92bd b861 383d
000001b0: aea0 a7bd e57c 4ebc 8c77 e1bc 83e8 c83d
000001c0: f8e7 1b3e c555 ebbd 0efe a6bd 6927 273d
000001d0: ab68 863d 1009 ff3d 4644 8dbd 0065 10bd
000001e0: c356 7a3d b293 063d cd96 0c3e f2aa 163e
000001f0: 3855 c33d bed6 a9bd e18a 8d3d 9d6c 393d
00000200: 1f60 a0bb bdf9 acbd 7fd8 4a3e 10dc 233e
00000210: 051c d7bd 70a7 34be bb94 583e e29b 03be
00000220: bdf9 fabd 7287 2abd ad1f 5b3c 6bec 88bd
00000230: 5558 c1bd 0ce8 553d 0334 a93c f948 8ebd
00000240: 930b 4b3e 5d04 a4bd 98fe b43d 1655 743d
00000250: d270 683d 394e 5d3b 6601 823c 31c0 d13d
00000260: e138 eebd 9550 c73c 5a8a c83d d8cd 14be
00000270: fa85 383d 04b0 42be 648f b0bd 09b3 bebc
00000280: 875e ccbb a21d e4bd 30b0 883d c961 a53d
00000290: 76fa 9a3d cfa5 933d 81b5 a73d 20ca d0bc
000002a0: 9f23 87bd 4f4f 81bc 4663 51be f9b1 aeba
000002b0: e9b9 4c3e 6cb5 0abe c47d 09bc f0b1 6cbd
000002c0: 6c81 dc3c 0423 6fbc 23a2 2dbe 9d7e 09be
000002d0: e238 5ebe 5266 3e3c 8d1f 85be 07db e1bd
000002e0: 4895 0fbd 56e9 81bd 0794 41be 79b2 d03d
000002f0: 287f 13be d02c 1cbe c005 253e 1f71 183e
00000300: 8474 dcbd 854e a23d d8e1 59bc b58d 2b3e
00000310: 2f0c 57bd 0fa0 953e 1cca 103e 561b 903c
00000320: 1242 333e fbdb 02be 6e23 3abe 5ebb 443d
00000330: a564 39be aa38 3e3e 9053 1dbe f357 0c3e
00000340: 7157 6ebc 6c63 48bd 4915 6cbc 589b 0cbd
00000350: 7dd5 9e3d 6fe6 883d 3dfc b8bd 56c5 b2bd
00000360: 0c8e 883d b1ac 8a3d 4082 173e e96a 28be
00000370: f056 5c3d a203 f1bd 0db7 71bd 1daa c13d
00000380: d674 16bd 4230 adba fef4 a63d 6cce dbbc
00000390: d624 30bd 3170 5fbb 59c5 d13d d640 b63c
000003a0: 5379 ff3d c230 c3bd 12f8 e6bd f7c6 fcbd
000003b0: 383b 9c3d d500 093e 1af6 003e 0e7f f23d
000003c0: 7503 8abd c39b 38bb 1c9e dfbd c85c c43d
000003d0: f2b1 19bc 0f05 603d cdca f4bd 5647 dabd
000003e0: a27d 52bd d913 073e 5a55 fbbc 7e88 243e
000003f0: 956e 92bd 2168 41be 3c35 01be fff2 553e

lin2.bias f4 [64]
0.0017847634 0.028801842 -0.09624446 -0.0028358852 -0.06507625 0.15594889 0.00851204 0.17314152
-0.062112436 -0.015278726 -0.0048663868 -0.038886968 -0.07409149 0.11356564 0.047239155 0.002600305
-0.009288283 0.042187974 -0.06902172 -0.08380381 0.13662206 -0.08481199 0.027417468 0.010319735
-0.095705785 -0.049043663 0.09237603 -0.069213 -0.08224505 0.012939062 0.082649484 -0.07897118
-0.014030676 -0.034447465 0.13516982 0.11123268 0.040459216 0.13759612 0.009452789 0.14817283
0.11558379 -0.0995939 0.006829229 -0.057652775 -0.002249116 -0.0040879827 0.12303699 -0.028259758
-0.08384397 -0.0594392 0.028667033 0.054086175 -0.031990223 0.00698991 0.056821097 0.13213041
-0.117749415 -0.05919082 -0.050558906 0.14824007 -0.0037572824 0.03437095 -0.043688845 -0.03971449
00000000: b9ee e93a d7f1 eb3c d11b c5bd 42da 39bb
00000010: b246 85bd 11b1 1f3e 1576 0b3c 034c 313e
00000020: 9c69 7ebd 9f53 7abc 3676 9fbb f147 1fbd
00000030: 47bd 97bd 1a95 e83d d87d 413d e169 2a3b
00000040: e22d 18bc 4ccd 2c3d 425b 8dbd 55a1 abbd
00000050: a7e6 0b3e e9b1 adbd 999a e03c 1b14 293c
00000060: 6501 c4bd 02e2 48bd a52f bd3d 8cbf 8dbd
00000070: 1870 a8bd 5cfe 533c 2244 a93d a4bb a1bd
00000080: ece0 65bc c918 0dbd f569 0a3e f6cd e33d
00000090: 90b8 253d ffe5 0c3e dfdf 1a3c 9eba 173e
000000a0: 32b7 ec3d e3f7 cbbd bac7 df3b 5125 6cbd
000000b0: e865 13bb 7cf4 85bb d1fa fb3d 0281 e7bc
000000c0: 63b6 abbd 8576 73bd 20d7 ea3c 7789 5d3d
000000d0: 2e08 03bd 9d0b e53b 3dbd 683d 324d 073e
000000e0: 9b26 f1bd 1372 72bd db16 4fbd 3fcc 173e
000000f0: bd3c 76bb 8ec8 0c3d 13f3 32bd a9ab 22bd

rosa4.emb0 f4 [1, 1, 64]
0.18091235 0.24565388 -0.29466173 0.5104234 0.261367 -0.307091 -0.39879236 0.29687545
-0.1746757 -0.25047407 0.3454793 0.068898804 0.4656038 0.065066226 0.3006724 0.14833501
-0.37362126 0.21771826 0.058039036 0.22923504 0.036493726 0.3115863 0.3278199 -0.12726927
-0.39473 -0.38753757 0.3887864 0.022271985 0.35819507 0.26297042 0.09009533 0.069146566
-0.1911615 -0.17312184 0.3263611 0.47323313 0.32715127 -0.3380075 -0.18418682 0.43890688
-0.13384011 -0.24719663 -0.20301801 -0.18870082 -0.3668668 0.35908595 -0.06994842 -0.21463297
0.43226126 0.17299727 0.19549553 -0.34668955 0.33678266 -0.04065403 0.3252311 -0.40940306
-0.22275671 0.40745205 0.09453255 -0.009841579 0.19994697 0.36945626 -0.3256349 0.088592134
00000000: 1641 393e b18c 7b3e e7dd 96be 1cab 023f
00000010: e5d1 853e 083b 9dbe 832e ccbe 0f00 983e
00000020: 30de 32be 233e 80be aae2 b03e d11a 8d3d
00000030: 9f63 ee3e 7141 853d bcf1 993e 22e5 173e
00000040: 494b bfbe 89f1 5e3e 57ba 6d3d 97bc 6a3e
00000050: 727a 153d 3d88 9f3e 03d8 a73e e052 02be
00000060: 0d1a cabe 536b c6be 030f c73e bd73 b63c
00000070: 5865 b73e 0fa4 863e e683 b83d b79c 8d3d
00000080: d7bf 43be da46 31be cd18 a73e 9d4b f23e
00000090: 5f80 a73e 520f adbe 789b 3cbe 67b8 e03e
000000a0: 620d 09be 1d21 7dbe f4e3 4fbe ca3a 41be
000000b0: f7d5 bbbe 1dda b73e 1e41 8fbd bfc8 5bbe
000000c0: 5951 dd3e 3226 313e fb2f 483e 4b81 b1be
000000d0: c76e ac3e d784 26bd b184 a63e 479d d1be
000000e0: 561a 64be 8e9d d03e 489a c13d 933e 21bc
000000f0: e6be 4c3e 5f29 bd3e 9eb9 a6be cb6f b53d

rosa4.emb1 f4 [1, 1, 64]
-0.17432176 -0.2972759 0.18469812 -0.5104972 -0.31891227 0.29675105 0.44336015 -0.1437909
0.111388035 0.22855842 -0.40295067 -0.14909303 -0.43664303 0.015623754 -0.22213668 -0.29732016
0.38327593 -0.1955284 0.010891997 -0.30497122 -0.08078062 -0.39296016 -0.35712296 0.2047908
0.44408768 0.33495796 -0.34556553 0.01410212 -0.39541718 -0.45045453 -0.15711446 -0.09879999
0.31340292 0.23892361 -0.27936426 -0.4789928 -0.35947555 0.32846355 0.14936574 -0.4424848
0.14056425 0.23353711 0.3578683 0.40554205 0.33257577 -0.37559065 0.17208126 0.20978656
-0.4553018 -0.27564925 -0.2727136 0.35427845 -0.37096554 -0.00446436 -0.22694767 0.3976474
0.2937365 -0.45188802 -0.22186549 -0.0038732106 -0.4066158 -0.3174587 0.29985464 -0.19753854
00000000: 6781 32be 8c34 98be 8121 3d3e f2af 02bf
00000010: 7848 a3be c1ef 973e 1a00 e33e ec3d 13be
00000020: 691f e43d 380b 6a3e 8d4f cebe d8ab 18be
00000030: ad8f dfbe c6fa 7f3c cc77 63be 593a 98be
00000040: be3c c43e 9938 48be 5974 323c 3025 9cbe
00000050: 4f70 a5bd 1332 c9be d2d8 b6be aeb4 513e
00000060: 765f e33e 9c7f ab3e f7ed b0be 940c 673c
00000070: 1f74 cabe faa1 e6be 9de2 20be a657 cabd
00000080: 5976 a03e 64a8 743e d508 8fbe 8b3e f5be
00000090: 2e0d b8be 602c a83e 55f3 183e 5e8d e2be
000000a0: 13f0 0f3e 5a24 6f3e 843a b73e 35a3 cf3e
000000b0: 5f47 aa3e 6b4d c0be 1236 303e 4ad2 563e
000000c0: 511d e9be e621 8dbe 1ea1 8bbe fc63 b53e
000000d0: 32ef bdbe c449 92bb f864 68be 7198 cb3e
000000e0: a164 963e de5d e7be b530 63be b1d5 7dbb
000000f0: f22f d0be f289 a2be 8c86 993e 8b47 4abe
