RWKV-v8/251105_reverse_L2.pth (torch, 183085 bytes, 99 tensors)

e.weight f4 [12, 32]
0	0x3e6ce0c5	0.23132618
1	0x3d0de4fb	0.0346422
2	0x3e154a46	0.14579114
3	0xbeb47a76	-0.3524968
4	0x3d8d67eb	0.069045864
5	0xbe4b5b0f	-0.19858955
6	0x3d2665f3	0.04062457
7	0xbe7ceb7d	-0.24699207
8	0xbdaf570d	-0.085615255
9	0x3de43e9d	0.11144755
10	0x3d70d6af	0.05879849
11	0xbe1bc9bb	-0.15213673
12	0xbe3b3bca	-0.18284526
13	0x3d97a894	0.074052006
14	0xbd863dc2	-0.06554748
15	0x3def9ba2	0.116996065
16	0x3e35e083	0.17761426
17	0xbde1cec1	-0.11025763
18	0xbe363359	-0.17793025
19	0x3db4aa96	0.08821599
20	0xbdb717e0	-0.08940101
21	0x3e1abce8	0.15111125
22	0x3ddbeb58	0.10738248
23	0x3e36f92a	0.17868486
24	0x3e2adbe6	0.16685447
25	0x3e62d201	0.22150423
26	0x3e04993c	0.1294908
27	0x3e20af11	0.15691783
28	0xbd831106	-0.06399731
29	0x3d9f0485	0.07764534
30	0x3d90cfb4	0.07070866
31	0x3e2a8515	0.1665233
32	0xbdba8879	-0.09108061
33	0xbd92a3d3	-0.07160153
34	0xbda7d7ce	-0.08195458
35	0x3e01c942	0.1267443
36	0xbc1e8e19	-0.009677433
37	0xbbcef1ce	-0.0063154465
38	0x3d6f8b36	0.05848237
39	0x3d22c407	0.039737727
40	0xbe82cef2	-0.25548512
41	0x3d8f0751	0.06983817
42	0xbdc5b353	-0.09653344
43	0xbe068226	-0.13135585
44	0xbe7de535	-0.24794467
45	0x3ebfdd26	0.3747341
46	0xbe6d66c1	-0.23183729
47	0xbd853aa3	-0.06505325
48	0xbdafb7c0	-0.085799694
49	0xbdbbe49d	-0.09174464
50	0xbcc232a0	-0.02370578
51	0x3cbfd3ac	0.023416363
52	0xbd1239f1	-0.03569979
53	0x3dbba3ab	0.091620766
54	0xbe1c47ef	-0.15261815
55	0xbd92316b	-0.07138332
56	0xbd4bf315	-0.049792368
57	0xbd9af42a	-0.07566102
58	0xb97ef33d	-0.00024313941
59	0x3e09bed5	0.13451703
60	0xbc1d492f	-0.009599968
61	0x3e6766b5	0.22597773
62	0xbd85309e	-0.065034136
63	0x3e5ca1ee	0.21546146
64	0x3e8c0da8	0.2735417
65	0x3dbb3001	0.091400154
66	0x3e8b80d5	0.2724673
67	0x3e105863	0.14096217
68	0xbc394c21	-0.011309654
69	0xbd022f28	-0.031783253
70	0xbdd9ab51	-0.10628379
71	0x3e78066d	0.24221201
72	0xbc335390	-0.010945216
73	0x3db26741	0.087111
74	0x3cc93ac6	0.024564158
75	0x3e53e083	0.20691113
76	0x3cabc14a	0.02096619
77	0xbd718cb7	-0.058972087
78	0xbea93127	-0.33045313
79	0xbe1f6051	-0.15564086
80	0xbbf792f8	-0.007555362
81	0xbdbcfa2a	-0.092274025
82	0xbe435652	-0.19075897
83	0xbdaf453a	-0.08558126
84	0x3db88b3f	0.09010934
85	0x3dff9b2c	0.124807686
86	0xbb89a33d	-0.0042003677
87	0x3ccd4736	0.02505837
88	0x3de19de9	0.11016447
89	0xbe203414	-0.15644866
90	0xbe68f902	-0.22751239
91	0x3cacc6cc	0.021090887
92	0xbe6e5596	-0.23274836
93	0x3d88f232	0.0668682
94	0x3e1c198e	0.15244123
95	0x3d33ea7d	0.043924797
96	0xbeb04fab	-0.34435782
97	0x3d8f2049	0.0698858
98	0x3e254a79	0.1614169
99	0xbd04236e	-0.03226035
100	0x3d114a08	0.035470992
101	0x3dd3b998	0.103381336
102	0x3e3090fc	0.17242807
103	0xbe53c034	-0.20678788
104	0x3dd4018c	0.103518575
105	0x3dacfc22	0.08446528
106	0x3c1cea45	0.009577339
107	0x3d0a3295	0.033739645
108	0x3d33d418	0.04390344
109	0x3e678ccb	0.22612302
110	0xbdd23f12	-0.10265936
111	0xbad5d970	-0.0016315412
112	0xbe9aa2a8	-0.30202222
113	0xbdd2a779	-0.10285849
114	0xbe325454	-0.17414981
115	0x3d288abf	0.041147944
116	0x3e3617bc	0.17782491
117	0x3d0a7124	0.033799306
118	0xbcf97a0e	-0.030453708
119	0x3dce6462	0.1007774
120	0x3b856011	0.00407029
121	0x3d690be6	0.056896113
122	0x3afe6340	0.0019408241
123	0x3e11441a	0.14186135
124	0x3d946d05	0.07247356
125	0x3df74343	0.12073376
126	0x3e1a4abe	0.15067574
127	0x3dccf59e	0.10007785
128	0x3e472619	0.19448127
129	0x3cf7ad23	0.030233925
130	0xbe5a940a	-0.21345535
131	0xbe0f9be9	-0.14024319
132	0xbd4134a4	-0.047169343
133	0x3e4740cd	0.19458313
134	0x3e13d1c0	0.14435482
135	0xbcabc58e	-0.020968225
136	0x3e188d0b	0.14897554
137	0x3dced939	0.10100026
138	0xbe497590	-0.19673753
139	0x3de147ea	0.11000045
140	0xbdd41ee6	-0.10357456
141	0x3e21f926	0.15817699
142	0xbdfc4869	-0.12318499
143	0x3df9f102	0.12204172
144	0xbe592654	-0.21206027
145	0x3e22eace	0.15909883
146	0x3e25aac8	0.16178429
147	0x3e1f5739	0.15560617
148	0x3c53dace	0.012930585
149	0x391fd8ba	0.00015244159
150	0xbd8c557d	-0.06852243
151	0xbcd0f503	-0.025507456
152	0x3da19b1a	0.078909114
153	0x3e16eb0d	0.14738102
154	0xbd1e1a38	-0.038599223
155	0x3e4015df	0.18758343
156	0xbe929581	-0.28629687
157	0xbcac453a	-0.021029104
158	0xbd9b2d5a	-0.075770095
159	0x3e3fd59b	0.18733828
160	0xbe3ff21c	-0.18744701
161	0x3dd7dd17	0.105402164
162	0xbd9974fb	-0.074930154
163	0xbdb739a8	-0.08946544
164	0xbc5874a5	-0.013211404
165	0xbdc75d29	-0.09734566
166	0xbcbbb672	-0.022914145
167	0xbde354e5	-0.11100177
168	0xbe457eaf	-0.19286607
169	0x3ea02991	0.31281713
170	0x3e1d7de1	0.1538005
171	0xbd2e4c44	-0.0425532
172	0xbe76e6ae	-0.24111435
173	0x3dc51bb2	0.09624423
174	0xbca8ebe4	-0.020620294
175	0x3ebd90d0	0.37024546
176	0xbd102301	-0.035189632
177	0x3d66fca6	0.056393288
178	0xbd969d53	-0.07354226
179	0xbd83269e	-0.0640385
180	0xbe0ab524	-0.13545662
181	0xbe461356	-0.19343314
182	0xbe561d83	-0.20909695
183	0xbce6ca6f	-0.0281727
184	0xbd38b1c2	-0.045091398
185	0xbe5a6386	-0.21327028
186	0xbe99cdfc	-0.30039966
187	0x3ce62b12	0.02809671
188	0x3d9fc82b	0.07801851
189	0x3d4a6e22	0.049421437
190	0x3e084516	0.13307604
191	0x3dd277b3	0.10276737
192	0x3e4c3016	0.19940218
193	0xbe0bd31f	-0.13654755
194	0x3dfc7c85	0.12328438
195	0xbda257a1	-0.0792687
196	0xbe274a39	-0.16336907
197	0x3d4a8914	0.049447134
198	0x3e03ec53	0.1288312
199	0x3e64db29	0.22349228
200	0x3d88abfb	0.06673428
201	0x3eb94d45	0.36191764
202	0xbdf98785	-0.121840514
203	0xbe4eaf37	-0.20184027
204	0xbc4c3200	-0.012463093
205	0x3e54b756	0.20773062
206	0x3e412680	0.18862343
207	0x3dccdb38	0.1000275
208	0xbe27c900	-0.16385269
209	0xbe46f002	-0.19427493
210	0xbe752111	-0.23938395
211	0xbc53d78d	-0.012929809
212	0xbd126393	-0.035739493
213	0x3d77e5a6	0.060521744
214	0x3c75d530	0.015004441
215	0xbe41206a	-0.18860021
216	0xbd12c6ef	-0.03583425
217	0x3e2f7eb9	0.17138185
218	0xbe3dc059	-0.18530406
219	0x3e495756	0.19662222
220	0xbd429ef2	-0.047514863
221	0x3da8fc4f	0.08251249
222	0x3e01b856	0.12667975
223	0x3e4fefd1	0.20306326
224	0xbddaa145	-0.10675291
225	0x3e8e53fe	0.27798456
226	0x3d471521	0.048604134
227	0xbdd037c1	-0.10166884
228	0xbda25176	-0.07925694
229	0xbc9d8e16	-0.01923279
230	0x3d88f886	0.06688027
231	0x3e97a724	0.29619706
232	0xbd607a11	-0.05480391
233	0xbd4db485	-0.050220985
234	0xbe965245	-0.29359642
235	0xbe46fe86	-0.1943303
236	0xbcea2c41	-0.028585555
237	0x3e227dac	0.15868253
238	0x3dc52a1b	0.096271716
239	0x3da14921	0.07875276
240	0xbe4b170f	-0.19833015
241	0x3cb0c162	0.021576587
242	0xbda150f6	-0.0787677
243	0x3d0f0fcc	0.034927174
244	0xbe1015db	-0.14070837
245	0xbbda58c5	-0.006663414
246	0xbd41f2d4	-0.04735072
247	0x3e072564	0.13197857
248	0x3e0d8f25	0.13824137
249	0xbdf515ef	-0.11967074
250	0x3dc7200b	0.097229086
251	0x3debbc48	0.11510521
252	0x3d370658	0.044683784
253	0x3db94105	0.090456046
254	0x3d68acf6	0.056805573
255	0x3dd39ecb	0.10333022

ln1a.weight f4 [32]
0	0x3e8077cf	0.25091407
1	0x3f214a45	0.6300395
2	0x3f63241b	0.8872697
3	0x3f720785	0.94542724
4	0x3f866ea0	1.050251
5	0x3f3ed45b	0.7454278
6	0x3f5309fc	0.8243711
7	0x3f81aa5b	1.0130113
8	0x3f3b9462	0.7327329
9	0x3f498419	0.7871719
10	0x3f94ea07	1.163392
11	0x3f45ca1f	0.7726154
12	0x3f6564a8	0.89606714
13	0x3f456987	0.77114147
14	0x3f91850d	1.1368729
15	0x3fa6c34a	1.3028347
16	0x3faa821c	1.3320956
17	0x3f8e3cab	1.1112264
18	0x3f92bdd1	1.1464177
19	0x3f9fd24f	1.2486056
20	0x3fa03990	1.2517567
21	0x3f9bf7d8	1.2185011
22	0x3f9eb2fa	1.2398369
23	0x3f99f11a	1.2026703
24	0x3fb7576d	1.4323555
25	0x3f92d4b7	1.1471165
26	0x3f92cbbf	1.1468428
27	0x3f9336e3	1.1501125
28	0x3fae4fa1	1.3618051
29	0x3f97618d	1.1826645
30	0x3f7e644b	0.99371785
31	0x3fab3f32	1.3378661

ln1a.bias f4 [32]
0	0xbd68e55c	-0.05685936
1	0x3ba98d42	0.00517431
2	0x3e3bbd30	0.18333888
3	0xbcd39c6c	-0.025831424
4	0x3e09f3c4	0.13471895
5	0x3cc4d8c6	0.024029147
6	0xbeb63b1f	-0.3559198
7	0xbc554daa	-0.013019005
8	0x3e399014	0.18121368
9	0x3d2fa6be	0.042883627
10	0xbde2534e	-0.11051045
11	0x3d821ba5	0.06352929
12	0xbd289268	-0.04115525
13	0xbd35acd6	-0.044354282
14	0xbdca3ec8	-0.09875256
15	0x3d68be46	0.056822084
16	0x3d77aa7c	0.06046532
17	0xbcb213d9	-0.02173798
18	0x3dc92d87	0.09823137
19	0x3cf61476	0.030039053
20	0x3e0b58f6	0.13608155
21	0x3c44e6a5	0.012017881
22	0xbd7ce005	-0.06173708
23	0x3e168d8f	0.14702438
24	0x3e25b09a	0.1618065
25	0x3e1f40e4	0.15552098
26	0x3d732d66	0.059369467
27	0x3e779f73	0.24181919
28	0x3dc59925	0.096483506
29	0xbe3fe608	-0.18740094
30	0xbdad3239	-0.08456845
31	0xbd96302b	-0.07333406

ln1b.weight f4 [32]
0	0x3f96cbd6	1.1780956
1	0x3f6b7630	0.91977215
2	0x3f88db12	1.0691855
3	0x3f800fc3	1.000481
4	0x3f887268	1.0659914
5	0x3fb61d32	1.422766
6	0x3fa8c76b	1.3185858
7	0x3f7f703c	0.9978063
8	0x3f8de19d	1.1084477
9	0x3f7f5707	0.9974217
10	0x3f930df7	1.1488637
11	0x3f915e06	1.1356819
12	0x3f8ead59	1.1146652
13	0x3f85d3f0	1.0455303
14	0x3f8c5f5b	1.09666
15	0x3f90a319	1.1299773
16	0x3f944411	1.1583272
17	0x3f6dce2c	0.9289272
18	0x3f8b8ef7	1.0903004
19	0x3f87a0aa	1.0595906
20	0x3f98e356	1.1944377
21	0x3fa3c5c3	1.2794727
22	0x3f7e3ed8	0.9931464
23	0x3f8614f1	1.0475141
24	0x3f96b913	1.177523
25	0x3f8fc0c7	1.1230706
26	0x3f816008	1.0107431
27	0x3f87d4d6	1.0611827
28	0x3f87b099	1.0600768
29	0x3f8a64ec	1.0812049
30	0x3f90c812	1.1311057
31	0x3f9b03f5	1.2110583

ln1b.bias f4 [32]
0	0x3cee9dae	0.029127922
1	0xbdfd862e	-0.12379108
2	0xbd6a3fb0	-0.057189643
3	0x3e63b510	0.22237039
4	0x3df1eb3a	0.11812444
5	0x3cb4db40	0.022077203
6	0x3dcf3ef6	0.10119431
7	0x3cfdd304	0.03098441
8	0x3d0c9704	0.034323707
9	0x3b93401a	0.0044937255
10	0x3c8cde64	0.017195888
11	0xbdc23bbd	-0.094840504
12	0x3e491ef0	0.19640708
13	0xbc883231	-0.016625496
14	0x3d3f86cc	0.04675941
15	0xbd8177db	-0.06321689
16	0x3dc484ca	0.0959564
17	0x3e8eef02	0.27916723
18	0x3dc37b53	0.095450066
19	0x3cfec628	0.031100348
20	0xbcb56f6d	-0.022147859
21	0x3dc6167c	0.09672257
22	0xbda89793	-0.082320355
23	0xbdd06a2d	-0.101765014
24	0xbdb681ea	-0.08911498
25	0x3cfc0384	0.030763395
26	0xbc196f95	-0.009364982
27	0xbe3495be	-0.17635247
28	0xbc5d7bf5	-0.013518323
29	0xbd13c08a	-0.03607229
30	0xbc8a34d9	-0.016870903
31	0xbe26f690	-0.16304994

ln1c.weight f4 [32]
0	0x3f890734	1.0705323
1	0x3fb73932	1.431433
2	0x3fea3dc7	1.8300103
3	0x3fd5ad7d	1.669357
4	0x4026abcc	2.6042356
5	0x40118c76	2.274198
6	0x3fed56c1	1.85421
7	0x3fef35ed	1.8688332
8	0x3fb5bc37	1.4198064
9	0x40140553	2.312825
10	0x3fe0f1dc	1.757381
11	0x3fdc08a2	1.7190135
12	0x400a0678	2.1566448
13	0x40575c8f	3.3650243
14	0x3fd36636	1.6515567
15	0x400719e2	2.1109548
16	0x402cdc8c	2.700961
17	0x4032ed35	2.795728
18	0x4017b224	2.3702478
19	0x3fc10299	1.5078918
20	0x3fdabd3d	1.7089001
21	0x400d4d43	2.2078407
22	0x400a13cc	2.1574583
23	0x3fc98a16	1.5745265
24	0x3fbc14c2	1.4693835
25	0x3ff42cbc	1.9076152
26	0x4018e91f	2.3892286
27	0x3fd38886	1.6526039
28	0x400969d8	2.1470852
29	0x40563702	3.3471074
30	0x40290fc5	2.6415875
31	0x3ff17a75	1.8865496

ln1c.bias f4 [32]
0	0xbe48c410	-0.19606042
1	0x3f2cd753	0.6751606
2	0xbdb0024c	-0.08594188
3	0xbe930f5f	-0.28722665
4	0xbf918129	-1.1367542
5	0xbf19ebb3	-0.60125273
6	0x3f82e0cb	1.0224851
7	0x3edc4b48	0.43026185
8	0xbf540e80	-0.82834625
9	0x3f60a639	0.87753636
10	0xbe92592e	-0.28583664
11	0xbdc50b47	-0.096212916
12	0xbf3209bb	-0.695461
13	0x3f835fdd	1.026363
14	0xbf7de4e5	-0.9917739
15	0x3fa30994	1.2737298
16	0xbf78be6d	-0.97165567
17	0xbf97ac02	-1.1849368
18	0xbf7d215a	-0.98879015
19	0xbe4f041b	-0.2021641
20	0x3ec8aec5	0.3919584
21	0x3f752d47	0.9577221
22	0xbf903b0d	-1.1268021
23	0xbf4761ab	-0.77883404
24	0x3f5fe754	0.87462354
25	0xbf8f6d0e	-1.1205156
26	0xbf2aa1e5	-0.6665328
27	0x3f4b1000	0.7932129
28	0xbf22fbae	-0.6366528
29	0x3fd143be	1.6348798
30	0x3faef8a2	1.3669627
31	0x3f4ab676	0.79184663

rwkv1.x_r f4 [1, 1, 32]
0	0x3f21c3d1	0.6318942
1	0x3f0c4fdd	0.5480936
2	0x3f0626f0	0.52403164
3	0x3ec8d6bd	0.39226332
4	0xbcc5d4bb	-0.02414929
5	0x3f03a236	0.5141939
6	0x3f2dc41b	0.6787736
7	0x3acb084f	0.0015490147
8	0x3f06b19d	0.52614766
9	0x3e84f07f	0.25964734
10	0x3e3a389e	0.1818566
11	0xbe71f2fa	-0.23627844
12	0xbd637b7d	-0.05553769
13	0x3f117c67	0.5683045
14	0x3d6942da	0.05694852
15	0xbd99e87a	-0.075150445
16	0xbdc5ef9c	-0.096648425
17	0xbdaf0055	-0.08544985
18	0xbdc2c41c	-0.09510061
19	0x3edf1763	0.4357253
20	0x3dab2600	0.08356857
21	0xbdf21c6d	-0.11821828
22	0x3e5ca7b3	0.21548347
23	0xbe3a720d	-0.1820757
24	0xbdd101fa	-0.10205455
25	0xbdafc218	-0.08581942
26	0xbcd3cad6	-0.025853556
27	0x3ea8f744	0.3300115
28	0x3d1e6602	0.0386715
29	0xbe4f2cfc	-0.20232004
30	0xbe6a2723	-0.22866492
31	0xbdddd92d	-0.108324386

rwkv1.x_w f4 [1, 1, 32]
0	0x3f2a9a92	0.66642106
1	0x3f678f1c	0.9045274
2	0x3f352a09	0.70767266
3	0x3f445d9d	0.7670534
4	0x3f51da47	0.8197369
5	0x3f162cbd	0.58662015
6	0x3f00d065	0.50317985
7	0x3f0e766a	0.55649436
8	0x3ec8770c	0.39153326
9	0x3f4c00ce	0.7968873
10	0x3eeec255	0.4663264
11	0x3f05a874	0.52210164
12	0x3f6d4ec5	0.9269832
13	0x3ea61a80	0.32442093
14	0x3f1651cd	0.5871857
15	0x3f270ff5	0.65258723
16	0x3f26b8d5	0.6512578
17	0x3f0539a4	0.5204108
18	0x3ead74a2	0.33878046
19	0x3e7eddb0	0.24889255
20	0x3e3f4b12	0.18680981
21	0x3f0531cb	0.52029103
22	0xbc544d62	-0.012957903
23	0x3e3ec7a5	0.18630846
24	0xbde5c020	-0.112182856
25	0x3e073104	0.13202292
26	0x3f2dcc96	0.678903
27	0xbdbf5d37	-0.09343951
28	0x3ed7b2eb	0.4212869
29	0xbd89fc24	-0.06737545
30	0x3dff118b	0.12454518
31	0xbda63367	-0.08115273

rwkv1.x_k f4 [1, 1, 32]
0	0x3f59b7ff	0.8504638
1	0x3f40d502	0.75325024
2	0x3f0a5bcc	0.5404632
3	0x3f2b9f96	0.67040384
4	0x3f3aa0cc	0.72901607
5	0x3f372cc4	0.7155268
6	0x3f2a7241	0.6658059
7	0x3c95a088	0.018265024
8	0x3eec8495	0.46194902
9	0x3f4077f6	0.75183046
10	0x3e4f3664	0.20235592
11	0x3e33ed3b	0.17570965
12	0x3ebe6eff	0.37194058
13	0x3efbdf03	0.49193582
14	0x3e890e94	0.26768935
15	0xbdff235e	-0.12457918
16	0xbcd03203	-0.025414472
17	0x3d64ed60	0.05589044
18	0x3bb2e69e	0.0054596206
19	0x3d164837	0.036689963
20	0x3cc38d2c	0.023871027
21	0x3e041177	0.12897287
22	0x3d6e1e70	0.058134496
23	0xbd39519f	-0.045243856
24	0x3c5c7ce5	0.013457512
25	0x3c6cfc5d	0.014464465
26	0xbcc6b51a	-0.024256278
27	0xbedc1139	-0.4298189
28	0xbe25282e	-0.16128609
29	0xbe206167	-0.15662156
30	0xbd745e36	-0.05966016
31	0xbe2be69d	-0.1678719

rwkv1.x_v f4 [1, 1, 32]
0	0x3e7a5eeb	0.24450271
1	0x3e4a805a	0.19775525
2	0x3d62c9fb	0.055368405
3	0x3dc3bc33	0.095573805
4	0x3d01eae1	0.03171814
5	0x3dbb026e	0.09131323
6	0x3e11fdaf	0.14256929
7	0x3ce40b4b	0.027837416
8	0x3d9a72a0	0.07541394
9	0x3e0bb970	0.13644958
10	0x3cada09d	0.02119475
11	0x3d774656	0.060369812
12	0x3dba8be0	0.0910871
13	0x3d82f787	0.06394868
14	0x3d185507	0.037190463
15	0x3bc1dffa	0.0059165927
16	0xbcd3b74b	-0.025844237
17	0xbb1524aa	-0.002275745
18	0xbbc0dfd9	-0.0058860597
19	0x3d0dd86a	0.034630217
20	0x3c71080f	0.014711394
21	0x3d70ddea	0.058805384
22	0x3d4eca50	0.05048591
23	0x3aac98c6	0.0013168089
24	0xbc312d37	-0.010814003
25	0x3c719b01	0.0147464285
26	0x3befcc7e	0.0073180785
27	0xbdfc9f57	-0.12335079
28	0xbc59b7e3	-0.013288471
29	0xbc8dcfc8	-0.017310992
30	0x3d29c09a	0.041443445
31	0xbd5329ff	-0.051553722

rwkv1.x_a f4 [1, 1, 32]
0	0x3f8c8fcd	1.0981385
1	0x3f4505d7	0.76962036
2	0x3f12eaba	0.57389414
3	0x3f4f148e	0.8089074
4	0x3f84dbab	1.0379537
5	0x3f709be4	0.9398787
6	0x3f1cca2b	0.61245984
7	0x3ef1dce0	0.47238827
8	0x3f0bbc6a	0.5458437
9	0x3f36597e	0.71230304
10	0x3ef7afe7	0.4837639
11	0x3e9c9781	0.30584338
12	0x3ed5044a	0.41604835
13	0xbdbe0d8a	-0.09279926
14	0x3f108e53	0.5646717
15	0x3ed2a538	0.41141677
16	0x3d50e7c7	0.05100229
17	0x3f614984	0.880028
18	0xbe25cc76	-0.16191277
19	0x3e8dd40d	0.27700844
20	0x3e406ad2	0.18790749
21	0x3e20d241	0.15705206
22	0x3f4bf7e0	0.796751
23	0x3e2f5f6a	0.17126241
24	0x3efaa0b0	0.4895072
25	0xbd9c3c91	-0.076287396
26	0xbd6c7483	-0.0577283
27	0x3e64bab2	0.22336844
28	0xbe060ddd	-0.13091226
29	0xbe9e4b5b	-0.30916867
30	0xbeb1f184	-0.34754574
31	0xbed2a2a8	-0.41139722

rwkv1.x_g f4 [1, 1, 32]
0	0x3f29e3e4	0.6636336
1	0x3eaf4462	0.3423186
2	0x3e580540	0.21095753
3	0x3e8ab661	0.2709227
4	0x3e65dc60	0.22447348
5	0x3e885eef	0.2663493
6	0x3eb9c730	0.3628478
7	0x3ebf075f	0.3731031
8	0x3ef8beca	0.4858306
9	0x3e58e67b	0.21181671
10	0x3dafe317	0.08588236
11	0x3e4f1788	0.2022382
12	0x3e4fc784	0.20290953
13	0x3ea5afdf	0.32360741
14	0x3ce432a5	0.02785618
15	0x3e611fd3	0.21984796
16	0x3c94635b	0.018113783
17	0x3e85e835	0.26153722
18	0x3dc6c68a	0.09705837
19	0x3d88aced	0.06673608
20	0xbd869c51	-0.06572784
21	0x3dbe5a98	0.09294623
22	0x3da10438	0.07862133
23	0x3d642ebc	0.055708632
24	0x3d3c4702	0.045966156
25	0xbdaeaaa2	-0.085286394
26	0x3e9e9950	0.30976343
27	0xbe3f02c5	-0.186534
28	0xbd43de9a	-0.04781971
29	0xbcb3481d	-0.021884972
30	0xbc973e1c	-0.018462233
31	0xbd351410	-0.044208586

rwkv1.w1 f4 [32, 8]
0	0x3e3c9d5a	0.184194
1	0x3d157775	0.036490876
2	0x3d33bf7a	0.04388378
3	0xbd667a54	-0.056269005
4	0xbe0c20be	-0.13684365
5	0xbd80ce72	-0.06289376
6	0xbdad03a6	-0.084479615
7	0xbd176a6c	-0.036966726
8	0x3ec99a5e	0.39375585
9	0xbd9cab06	-0.07649808
10	0x3e7a5548	0.24446595
11	0xbe38c0c8	-0.1804229
12	0xbe520e43	-0.20513253
13	0xbe5b5ead	-0.21422835
14	0xbe0e46b7	-0.13894163
15	0xbdec534e	-0.115393266
16	0xbdc3a83d	-0.09553573
17	0x3dd3a32d	0.10333858
18	0x3db13eb3	0.08654537
19	0xbe0bf8a1	-0.13669063
20	0xbe0a660b	-0.13515489
21	0xbdecbe49	-0.115597315
22	0xbe327038	-0.1742562
23	0xbe42d9f4	-0.19028455
24	0xbd55e919	-0.052224252
25	0xbe3509b0	-0.17679477
26	0xbe86def8	-0.26341987
27	0x3e8cd874	0.2750889
28	0x3e97b610	0.2963109
29	0x3e8dd3bb	0.277006
30	0x3e900436	0.28128213
31	0x3e9712ac	0.29506433
32	0xbeb486bf	-0.35259053
33	0x3e4b8cdb	0.19877951
34	0xbdf02740	-0.11726236
35	0xbd8df663	-0.0693176
36	0xbbf8edc8	-0.007596705
37	0x3bf5d2d2	0.0075019384
38	0xbcf5b125	-0.029991696
39	0xbdc9c8e7	-0.09852772
40	0xbdbb27ad	-0.09138427
41	0x3ea21fd0	0.31664896
42	0xbb92c472	-0.0044789845
43	0xbd94b5c3	-0.07261231
44	0xba3ecf09	-0.00072787754
45	0xbd954179	-0.072878785
46	0xbd268e59	-0.040663097
47	0xbe474992	-0.19461659
48	0x3e88a616	0.26689214
49	0xbd8fc1d9	-0.070193954
50	0x3e050866	0.12991485
51	0xbd452968	-0.04813519
52	0xbd8586c8	-0.06519848
53	0xbdf232ea	-0.11826117
54	0xbd13b307	-0.036059406
55	0x3cafcad8	0.021459028
56	0xbe1a3e3c	-0.15062803
57	0x3df23d70	0.118281245
58	0xbdd494bc	-0.10379931
59	0x3db7b548	0.089701235
60	0x3d3ad629	0.045614395
61	0x3dce6df4	0.10079566
62	0x3dac3955	0.08409373
63	0x3dde0139	0.10840077
64	0xbe9ddbde	-0.30831808
65	0x3ced7c44	0.028989919
66	0xbe405cc3	-0.18785386
67	0x3d618eee	0.05506795
68	0x3da38dd2	0.079860345
69	0x3dfb6360	0.12274814
70	0x3d534bb1	0.051585857
71	0xbd094fca	-0.03352336
72	0x3e1d11f1	0.15338875
73	0x3d88d0f6	0.06680481
74	0x3e97ae97	0.2962539
75	0xbe65c80c	-0.22439593
76	0xbe9326b1	-0.28740457
77	0xbe6fac90	-0.23405671
78	0xbe810f3f	-0.25206944
79	0xbe443776	-0.19161782
80	0xbcec37ab	-0.028835138
81	0xbe4dfc25	-0.20115717
82	0xbe7fa8ca	-0.24966732
83	0x3e99f61b	0.30070576
84	0x3e8e2098	0.27759242
85	0x3e98bb39	0.2983034
86	0x3e8eb945	0.27875724
87	0x3ea09265	0.3136169
88	0x3e6ddab2	0.23227957
89	0x3ca6719c	0.020317845
90	0xbd7e554a	-0.062093057
91	0x3c5bf20b	0.013424407
92	0x3d9348d4	0.07191625
93	0x3d1d84e2	0.038456805
94	0x3d98a4fe	0.07453345
95	0x3d8fe5a9	0.07026226
96	0x3bce534b	0.0062965504
97	0x3ac97513	0.0015369974
98	0xbe15c25f	-0.14624928
99	0x3dc799fa	0.097461656
100	0x3dd24645	0.10267309
101	0x3e045391	0.12922503
102	0x3dbfbe58	0.09362477
103	0x3dd12bb7	0.10213416
104	0x3e5e447d	0.21705814
105	0x3e036b6f	0.12833951
106	0x3ecbd60d	0.39811745
107	0xbeaa43c1	-0.33254817
108	0xbed072f6	-0.40712708
109	0xbeb478d3	-0.35248432
110	0xbebddf5c	-0.37084472
111	0xbe95fbba	-0.29293615
112	0xbeb8d284	-0.3609811
113	0xbdfa9b79	-0.12236685
114	0xbededbe3	-0.43527135
115	0x3eb25de3	0.34837255
116	0x3ec43acd	0.3832611
117	0x3ebcae58	0.36851764
118	0x3eaac6fa	0.33354932
119	0x3e9fda27	0.31221125
120	0x3cbe87e5	0.023258159
121	0x3c6e08be	0.0145284515
122	0x3e5962ed	0.21229143
123	0xbe2b7bbd	-0.16746421
124	0xbe6542ed	-0.22388811
125	0xbe3cc7ee	-0.18435642
126	0xbe3a87be	-0.18215844
127	0xbe0768b3	-0.13223533
128	0xbed82ab7	-0.4222009
129	0x3d9a1c73	0.075249575
130	0xbe48d0e4	-0.19610935
131	0x3d1447e1	0.03620136
132	0x3d7120d8	0.058869213
133	0x3daf8ff4	0.08572379
134	0x3d0abfc6	0.033874296
135	0xbc884668	-0.016635135
136	0xbea9614d	-0.33082047
137	0xbe3db25d	-0.18525071
138	0xbec1c2a3	-0.3784381
139	0x3eb557ba	0.35418493
140	0x3ed8af2d	0.4232115
141	0x3eb68b74	0.3565327
142	0x3ed94cd4	0.42441428
143	0x3eb0a0ed	0.34497777
144	0xbef1e8e0	-0.47247982
145	0xbd6396c5	-0.055563707
146	0xbeac5ef1	-0.33666185
147	0x3e4e0d65	0.20122297
148	0x3e8687fe	0.2627563
149	0x3e75437d	0.23951526
150	0x3e614715	0.21999772
151	0x3e4ff6fe	0.20309064
152	0xbc6c911b	-0.014438893
153	0xbea2a5ca	-0.31767112
154	0xbe4ae424	-0.19813591
155	0x3e8338e5	0.25629345
156	0x3eaab5e5	0.333419
157	0x3e712575	0.23549445
158	0x3e9ae5ba	0.30253392
159	0x3e93f3f4	0.2889706
160	0xbebe33a7	-0.37148783
161	0x3e42e87c	0.19033998
162	0xbe3961c3	-0.181037
163	0x3d12d53c	0.035847887
164	0x3dcbe4da	0.09955759
165	0x3dec82ce	0.115483865
166	0x3da72a0f	0.08162319
167	0xbb4645b8	-0.0030253958
168	0x3f154f5a	0.58324206
169	0x3c5ad4cf	0.013356402
170	0x3e0be910	0.13663125
171	0xbde68b56	-0.11257045
172	0xbe08ff4a	-0.13378635
173	0xbe18fa71	-0.14939286
174	0xbe1543c7	-0.14576636
175	0xbe0d1062	-0.13775781
176	0xbe454eb0	-0.19268298
177	0xbe90ed1f	-0.2830591
178	0xbec67b1c	-0.387658
179	0x3edcfc75	0.4316136
180	0x3eec4714	0.46147978
181	0x3ecfd4ad	0.40591946
182	0x3ee691f8	0.4503324
183	0x3ed63f26	0.41845053
184	0xbd93e5bd	-0.072215535
185	0xbed3a0f3	-0.41333732
186	0xbe160b84	-0.1465283
187	0x3e5aea66	0.21378478
188	0x3e7dddcf	0.24791645
189	0x3e3ed310	0.18635201
190	0x3e6e44fd	0.23268504
191	0x3e8cbfd3	0.274901
192	0x3eafeb32	0.34359127
193	0x3f0e961c	0.556978
194	0x3ef14024	0.47119248
195	0xbf0fd04f	-0.5617723
196	0xbf034005	-0.5126956
197	0xbefecb25	-0.49764362
198	0xbeee06e1	-0.46489623
199	0xbf0d8bac	-0.5529125
200	0x3d2a4c6e	0.041576795
201	0xbd3a94e1	-0.04555214
202	0x3dc9fad1	0.098622926
203	0xbdb53f19	-0.088499255
204	0xbdd024c7	-0.10163265
205	0xbdc40eda	-0.09573145
206	0xbdac5fb3	-0.08416691
207	0xbd572e8c	-0.052534625
208	0x3dbe68a8	0.09297305
209	0x3d64689b	0.055763822
210	0xbd6d467d	-0.05792855
211	0x3d1eadea	0.038740076
212	0x3d0bc2d5	0.034121353
213	0x3d99a315	0.075018086
214	0x3ca80331	0.020509334
215	0x3d2e6fd7	0.042587128
216	0x3e894867	0.2681305
217	0x3e27bca3	0.16380553
218	0x3ef7511d	0.48304072
219	0xbec593a7	-0.38589212
220	0xbed1a024	-0.4094249
221	0xbecc0d27	-0.39853784
222	0xbeba6384	-0.3640405
223	0xbeab4934	-0.33454287
224	0xbec7e5d8	-0.39042544
225	0x3e5fb03c	0.21844572
226	0x3dca03c3	0.09863999
227	0xbdca201c	-0.098694056
228	0xbdc876da	-0.09788294
229	0xbda153b8	-0.07877296
230	0xbdb21c92	-0.086968556
231	0xbd1e4443	-0.03863932
232	0xbe095913	-0.13412885
233	0xbe611d4f	-0.21983837
234	0xbe1125f9	-0.14174642
235	0x3e055401	0.13020326
236	0x3e0a91c5	0.13532169
237	0x3e087f2a	0.13329759
238	0x3e105075	0.14093192
239	0x3dd54032	0.10412635
240	0x3e2e5146	0.17023191
241	0x3e205534	0.15657502
242	0x3e64dcc6	0.22349843
243	0xbe72ff2a	-0.2373015
244	0xbe81699c	-0.25275886
245	0xbe78e586	-0.24306306
246	0xbe81830f	-0.25295302
247	0xbe841e99	-0.25804594
248	0x3e9a7319	0.30165938
249	0x3d98f965	0.07469443
250	0x3ec8e310	0.39235735
251	0xbe820f39	-0.2540224
252	0xbeb68426	-0.35647696
253	0xbe9e1ad8	-0.30879855
254	0xbea91d7c	-0.33030307
255	0xbe757619	-0.23970832

rwkv1.w2 f4 [8, 32]
0	0x3e776ec0	0.24163342
1	0x3f097a93	0.5370266
2	0x3e3c2dd0	0.18376851
3	0xbf873403	-1.0562748
4	0x3e77a0bc	0.24182409
5	0xbd85beb8	-0.06530517
6	0xbeba6998	-0.36408687
7	0x3e06f328	0.13178694
8	0xbe8dde25	-0.27708545
9	0x3ef6ea35	0.4822556
10	0xbed53721	-0.41643623
11	0x3cd0562b	0.025431713
12	0xbd5efaf5	-0.05443855
13	0xbedcff53	-0.43163547
14	0x3ee05382	0.4381371
15	0x3f4b0381	0.7930222
16	0x3e6703e6	0.22560081
17	0x3e0b4321	0.13599826
18	0x3cc040a2	0.02346832
19	0xbd75af86	-0.059981845
20	0xbdf38634	-0.118908316
21	0x3cbd0b9e	0.023076829
22	0xbd953cfa	-0.07287021
23	0xbe6420d2	-0.22278145
24	0xbe571056	-0.21002325
25	0xbeacc74f	-0.3374581
26	0x3e97e9a6	0.29670447
27	0x3e03813e	0.1284227
28	0xbf150ffe	-0.5822753
29	0x3d745c9b	0.059658628
30	0x3e36070e	0.17776129
31	0xbd91e421	-0.0712359
32	0x3eb7a0c6	0.35864848
33	0x3f06b9b7	0.5262713
34	0x3e310309	0.17286314
35	0xbf8fc432	-1.1231749
36	0x3e76707d	0.24066348
37	0xbd81a49a	-0.063302234
38	0xbedf18ee	-0.43573707
39	0x3ce14a5a	0.027501274
40	0xbe9a73e2	-0.30166537
41	0x3f0ea8c0	0.5572624
42	0xbedbd52b	-0.42936072
43	0x3d9211ae	0.071322784
44	0xbd7cd2ba	-0.061724402
45	0xbf065f85	-0.524895
46	0x3f0eeaec	0.5582721
47	0x3f373b60	0.71574974
48	0x3ea82fef	0.3284907
49	0x3e9af4ce	0.30264896
50	0x3e978d04	0.29599774
51	0x3e3ae252	0.18250397
52	0x3dae9406	0.08524327
53	0x3e504cc8	0.2034179
54	0xbc38d539	-0.011281305
55	0xbdfe78e2	-0.124254
56	0xbe28f6c8	-0.1650039
57	0xbe05a2e4	-0.13050419
58	0x3e8bb070	0.2728305
59	0xbd0800b0	-0.03320378
60	0xbe7cd7f1	-0.2469175
61	0xbca239c0	-0.019802928
62	0xbdeaf977	-0.11473363
63	0xbdc013d4	-0.09378782
64	0x3e4d2f99	0.20037688
65	0x3f0c3928	0.54774714
66	0x3e38451d	0.17995115
67	0xbf876f31	-1.0580808
68	0x3e4d64df	0.2005801
69	0xbd9cc4a7	-0.07654696
70	0xbeb15748	-0.34636903
71	0x3e2a102b	0.1660773
72	0xbe6caccc	-0.23112792
73	0x3f05be04	0.52243066
74	0xbed7795b	-0.42084774
75	0x3c118928	0.008882798
76	0xbd6a8a9c	-0.057261094
77	0xbedbd3ba	-0.42934972
78	0x3edcdafc	0.43135822
79	0x3f48d4be	0.7844962
80	0x3eaf060f	0.3418431
81	0x3e504403	0.20338444
82	0x3df9a0f8	0.121889055
83	0x3d540c85	0.051769752
84	0xbcb952e6	-0.022622537
85	0x3e114af1	0.14188744
86	0xbd97c07e	-0.07409762
87	0xbe20e13b	-0.15710919
88	0xbe864fed	-0.26232854
89	0xbe5cd0e4	-0.2156406
90	0x3e675326	0.22590312
91	0x3d4c4266	0.04986801
92	0xbeab0569	-0.33402565
93	0x3d6ec203	0.058290493
94	0x3db1538c	0.086585134
95	0xbddae73c	-0.10688636
96	0xbe59af2b	-0.21258228
97	0xbf07c08a	-0.53028166
98	0xbe53096f	-0.20609067
99	0x3f86dcea	1.0536168
100	0xbe700560	-0.2343955
101	0x3d55a656	0.052160583
102	0x3e9e8917	0.30963966
103	0xbe2c0333	-0.16798095
104	0x3e7f7536	0.24947056
105	0xbf070276	-0.5273813
106	0x3eb926cc	0.36162412
107	0xbca76682	-0.020434622
108	0x3d485fd5	0.048919518
109	0x3edb628c	0.42848623
110	0xbee90826	-0.4551403
111	0xbf478a6d	-0.77945596
112	0xbea11e0d	-0.3146824
113	0xbe67ba1d	-0.2262959
114	0xbe0c6429	-0.13710083
115	0xbd962e13	-0.07333007
116	0xbb844e9c	-0.0040376913
117	0xbe36022e	-0.17774269
118	0x3cc3e94b	0.023914954
119	0x3e48469f	0.1955819
120	0x3e3ee27e	0.18641087
121	0x3e268b3e	0.16264054
122	0xbe41f98b	-0.1894285
123	0xbc447ced	-0.011992675
124	0x3eb50749	0.3535712
125	0xbacb61df	-0.0015516839
126	0x3baa56c3	0.005198331
127	0x3dc9c77b	0.09852501
128	0xbe78fa21	-0.24314167
129	0xbf0c941c	-0.54913497
130	0xbe54f885	-0.20797928
131	0x3f885b4e	1.0652864
132	0xbe339f00	-0.17541122
133	0x3d956df6	0.07296364
134	0x3ea2ec8f	0.31821105
135	0xbe43b9cd	-0.19113846
136	0x3e8271bd	0.254774
137	0xbf098f56	-0.5373434
138	0x3ed0c54d	0.4077553
139	0xbc45b296	-0.012066504
140	0x3cda8c03	0.02667809
141	0x3ed57973	0.4169422
142	0xbef809ea	-0.48445064
143	0xbf47383b	-0.77820176
144	0xbea7ff1a	-0.32811815
145	0xbe6d6ba4	-0.23185593
146	0xbe023d40	-0.12718678
147	0xbd4d9dd4	-0.050199345
148	0x3c3ab970	0.011396751
149	0xbe71ea21	-0.2362447
150	0x3d100fb6	0.035171233
151	0x3dd00c0e	0.10158549
152	0x3e844248	0.2583182
153	0x3e57752e	0.21040794
154	0xbe35648c	-0.17714137
155	0xbd82aeda	-0.063810065
156	0x3ea534fd	0.3226699
157	0xbc9260d0	-0.01786843
158	0x3ab713fd	0.0013967749
159	0x3da012da	0.07816096
160	0xbe814a05	-0.25251785
161	0xbf0b6a57	-0.54459137
162	0xbe5dce62	-0.2166076
163	0x3f8d8c8d	1.1058518
164	0xbe60619b	-0.21912234
165	0x3d2038d2	0.039116688
166	0x3eb02fda	0.34411508
167	0xbdfba80b	-0.12287911
168	0x3e967678	0.2938726
169	0xbf104a75	-0.5636361
170	0x3ed6004a	0.41797096
171	0x3c7d1cc1	0.01544875
172	0x3d195394	0.037433222
173	0x3edca507	0.43094656
174	0xbef3d2cf	-0.47621772
175	0xbf41814f	-0.75587934
176	0xbe8ebcb7	-0.27878353
177	0xbe4f14c0	-0.20222759
178	0xbe2c1de8	-0.16808283
179	0xbd9b923a	-0.0759625
180	0x3ca465fa	0.020068157
181	0xbe0d5eb1	-0.13805653
182	0x3d459378	0.04823634
183	0x3e2b875c	0.16750854
184	0x3e6e3372	0.23261812
185	0x3e5016fe	0.20321271
186	0xbe5f101f	-0.21783493
187	0xbd18255b	-0.037145
188	0x3ebdbf83	0.37060174
189	0xbcc64b97	-0.024205966
190	0xbcbd7071	-0.023124905
191	0x3de94ec8	0.113919795
192	0xbe6b1a6a	-0.22959295
193	0xbf10b273	-0.5652229
194	0xbe3da453	-0.18519716
195	0x3f8619b3	1.0476593
196	0xbe80df26	-0.2517025
197	0x3d854be2	0.06508614
198	0x3ea950c1	0.33069423
199	0xbdf3b2dc	-0.11899349
200	0x3e6fe9c8	0.23429024
201	0xbf0b4d34	-0.5441468
202	0x3eda4b68	0.42635655
203	0xbca8b88b	-0.02059581
204	0x3d62272a	0.05521313
205	0x3ed3e5ab	0.4138616
206	0xbefd59fa	-0.4948271
207	0xbf4c24ee	-0.7974385
208	0xbeb39299	-0.35072783
209	0xbe7bc9e1	-0.2458873
210	0xbe00edb1	-0.12590672
211	0xbd994ea4	-0.07485703
212	0xbce3e481	-0.02781892
213	0xbe35b78f	-0.17745803
214	0x3d94756d	0.0724896
215	0x3dd0b8ac	0.10191473
216	0x3e8571b1	0.26063302
217	0x3e37d820	0.17953539
218	0xbe44befb	-0.19213478
219	0xbc781e8d	-0.015144003
220	0x3ea35f4d	0.31908646
221	0xbc699908	-0.014257677
222	0x3d3398b0	0.043846786
223	0x3dd87ae7	0.10570317
224	0xbe89fc3e	-0.26950258
225	0xbf04907a	-0.51782954
226	0xbe589a48	-0.21152604
227	0x3f8ad003	1.084473
228	0xbe633bc9	-0.22190775
229	0x3cf02d9d	0.029318625
230	0x3ec0d44f	0.3766198
231	0xbe146d55	-0.14494832
232	0x3e70de40	0.23522282
233	0xbf03ac66	-0.51434934
234	0x3ee184dc	0.44046676
235	0xbc76d4cf	-0.015065386
236	0x3d957b8e	0.07298957
237	0x3ee398e5	0.44452587
238	0xbef72e77	-0.48277637
239	0xbf40bf1e	-0.7529162
240	0xbeaf35ad	-0.3422064
241	0xbe6ba5df	-0.23012494
242	0xbe31b90e	-0.17355749
243	0xbda389b1	-0.07985247
244	0x3a0f7841	0.00054729363
245	0xbe409742	-0.188077
246	0x3d665591	0.056233946
247	0x3df76603	0.12080004
248	0x3e638a75	0.22220786
249	0x3e317c3c	0.17332548
250	0xbe54c7b4	-0.20779306
251	0xbba577cd	-0.0050496818
252	0x3ea44acd	0.32088318
253	0x3c73c79b	0.014879133
254	0x3d57d73e	0.052695505
255	0x3dc2b424	0.09507015

rwkv1.w0 f4 [1, 1, 32]
0	0xc0f9e297	-7.80891
1	0xc0d54644	-6.6648273
2	0xc0c7b43c	-6.2407513
3	0xc0a5c899	-5.180737
4	0xc0a1c3b4	-5.0551395
5	0xc09ac8a1	-4.836991
6	0xc0947951	-4.639809
7	0xc0805ac5	-4.0110803
8	0xc08897b1	-4.268517
9	0xc04ade40	-3.169815
10	0xc05c8a63	-3.4459465
11	0xc03297ef	-2.7905233
12	0xc012fb53	-2.2965896
13	0xbffc2207	-1.9697884
14	0xbefb81aa	-0.49122363
15	0x3f3b21bc	0.7309835
16	0xc0926d41	-4.5758367
17	0xc07821fe	-3.8770747
18	0xc0502786	-3.2524123
19	0xc0289ff9	-2.634764
20	0xc007131b	-2.110541
21	0xbfc15e84	-1.5106969
22	0xbfaf2f40	-1.3686295
23	0xbf862593	-1.0480217
24	0xbf82b589	-1.021165
25	0xbf334160	-0.7002163
26	0x3b42a07b	0.0029697705
27	0x3eaa1a24	0.3322307
28	0x3f0795fe	0.52963245
29	0x3fbfab0e	1.4974077
30	0x400cfe07	2.2030046
31	0x403b5747	2.927202

rwkv1.a1 f4 [32, 8]
0	0x3db3a3dc	0.08771488
1	0x3de4499a	0.11146851
2	0xbd847c7d	-0.06469057
3	0x3e12ee38	0.14348686
4	0x3dc3ca8e	0.095601186
5	0x3d957ff9	0.072997995
6	0x3e63b7ec	0.2223813
7	0xbe8d72c1	-0.27626613
8	0xbd9ed953	-0.07756295
9	0xbdbd0da9	-0.09231121
10	0x3e8810b1	0.26575235
11	0x3d3982d2	0.045290776
12	0xbdd7b0db	-0.105317794
13	0x3e0fdc29	0.14048828
14	0xbaa88281	-0.0012856276
15	0xbdc6adba	-0.097011045
16	0xbd91a9f7	-0.07112496
17	0xbd3cfd1e	-0.04613983
18	0xbe0c3e09	-0.1369554
19	0xbdfa90be	-0.12234639
20	0x3b4a100b	0.0030832316
21	0x3ddaa60d	0.10676203
22	0x3b694fd5	0.0035600562
23	0x3d6098f5	0.05483337
24	0x3e15cde7	0.14629327
25	0x3e1b2a0a	0.15152755
26	0x3dfe8c61	0.12429119
27	0x3e83a64f	0.2571282
28	0xbe276357	-0.16346489
29	0x3d926f65	0.07150153
30	0x3e338bef	0.17533849
31	0xbe831a8f	-0.256062
32	0xbc7cc60c	-0.015428077
33	0x3de9fa3c	0.114246815
34	0xbea11327	-0.31459925
35	0xbda4fc2b	-0.0805591
36	0xbdc54370	-0.09632003
37	0xbea156e9	-0.3151162
38	0xbd6b6e98	-0.057478517
39	0x3d98f416	0.07468431
40	0xbe8d005d	-0.2753934
41	0x3e4d3252	0.20038727
42	0xbe016947	-0.12637816
43	0xbe1fc493	-0.15602331
44	0xbe383b5e	-0.17991397
45	0x3e07917d	0.13239093
46	0x3d616c24	0.05503477
47	0x3d57c9e5	0.052682776
48	0x3d749747	0.05971458
49	0x3e71fa04	0.2363053
50	0x3e505ae8	0.20347178
51	0x3e1cfd1d	0.1533093
52	0xbdc8931d	-0.09793685
53	0x3e12556c	0.14290398
54	0x3e91161f	0.2833719
55	0xbe74580e	-0.23861715
56	0xbd7ae198	-0.0612503
57	0xbe337345	-0.1752444
58	0xbd9bf75b	-0.07615539
59	0xbde61e20	-0.11236215
60	0x3d689add	0.056788314
61	0xbdd147d9	-0.10218782
62	0xbe0cf4d3	-0.13765268
63	0x3e3f430f	0.18677925
64	0x3ddf9884	0.10917762
65	0xbea0981c	-0.3136605
66	0x3e3debb1	0.1854694
67	0xbd17a931	-0.037026588
68	0x3e9709d4	0.29499686
69	0xbe846c88	-0.25864053
70	0xbe8fa61b	-0.28056416
71	0x3d86e7e7	0.065872006
72	0xbe16f46f	-0.14741682
73	0xbe2ece89	-0.17070974
74	0x3e2a5ce0	0.16636992
75	0xbe66250d	-0.22475071
76	0x3e136c4b	0.14396779
77	0xbd96098b	-0.07326039
78	0xbdeb5c9f	-0.114922754
79	0x3de6e453	0.11274018
80	0x3df74294	0.12073246
81	0x3cdf29b7	0.02724157
82	0x3dd6fd1d	0.10497496
83	0x3e7cc528	0.24684584
84	0xbe82b2df	-0.25527093
85	0x3de207be	0.11036633
86	0x3d5174dd	0.05113684
87	0xbe98fe4a	-0.29881507
88	0xbce80177	-0.028321011
89	0x3d914de5	0.07094935
90	0x3cd2fc68	0.025755122
91	0x3eaa0f89	0.33214977
92	0x3e112d31	0.14177395
93	0x3dcd8aa7	0.100362115
94	0x3e5b67bb	0.21426289
95	0xbecb3572	-0.39689213
96	0x3e44efb4	0.19232064
97	0x3db75fd7	0.08953827
98	0xbe9d4de4	-0.30723488
99	0x3d20f2fa	0.03929422
100	0xbd33b871	-0.04387707
101	0x3d24f48c	0.04027228
102	0x3cb7aee9	0.02242227
103	0x3d9a54d8	0.07535714
104	0xbc163ed0	-0.009170249
105	0x3da03172	0.07821931
106	0xbc9ef942	-0.019405965
107	0x3d17a281	0.03702021
108	0x3d2f00e5	0.042725462
109	0x3deaef52	0.11471428
110	0x3d81dc54	0.063408524
111	0xbe0aeddd	-0.135673
112	0x3e2c5d35	0.1683243
113	0x3e713916	0.23556933
114	0xbde012a8	-0.109410584
115	0x3e9c2fdf	0.30505273
116	0xbe940456	-0.28909558
117	0xbd2c92e1	-0.042132262
118	0x3e127cf9	0.14305486
119	0xbe80a966	-0.2512924
120	0xbe0fcfc8	-0.14044106
121	0xbd724532	-0.05914802
122	0x3e318cfc	0.17338938
123	0xbc9eec0c	-0.019399665
124	0x3d070ecb	0.032973092
125	0xbcfa2a24	-0.030537672
126	0xbdcd3466	-0.1001976
127	0xbce04082	-0.02737451
128	0x3e0d8e07	0.1382371
129	0xbe7226c0	-0.23647594
130	0xbc870be2	-0.016485158
131	0xbe50f75b	-0.20406859
132	0x3cde9fb3	0.02717576
133	0xbd76acb2	-0.06022329
134	0xbeb04ca8	-0.34433484
135	0x3e8d9c67	0.27658388
136	0x3dab8364	0.0837467
137	0x3b572482	0.0032828157
138	0xbe0b8593	-0.13625173
139	0xbd6b5d6f	-0.057462152
140	0xbe201c40	-0.15635777
141	0xbe3bb853	-0.18332033
142	0x3d08b19a	0.0333725
143	0xbd08100b	-0.033218425
144	0x3d760f03	0.06007291
145	0xbee7658e	-0.45194668
146	0x3e9a9a92	0.30196053
147	0xbeaefa8e	-0.34175533
148	0x3eda7eeb	0.42674956
149	0xbee2f067	-0.44324037
150	0xbe83fa41	-0.25776866
151	0x3ea44191	0.32081273
152	0x3d5533b5	0.052051265
153	0xbe0910ab	-0.13385265
154	0x3f0b006e	0.5429753
155	0xbcebd8e0	-0.028789937
156	0x3dea96c4	0.114545375
157	0xbd8d133f	-0.068884365
158	0x3e35f9c3	0.17771058
159	0xbe168c23	-0.14701895
160	0xbdb8d779	-0.09025473
161	0xbec35270	-0.38148832
162	0xbdc6b902	-0.09703256
163	0xbeabe69a	-0.33574373
164	0x3e9a19e3	0.30097875
165	0xbe6b4cee	-0.22978565
166	0xbeb96366	-0.36208647
167	0x3e9ffae1	0.31246093
168	0xbd55772c	-0.052115604
169	0x3e20a3a4	0.15687424
170	0x3d69dd88	0.057096034
171	0x3e2980f5	0.165531
172	0xbd699bb8	-0.05703327
173	0x3e7c011a	0.24609795
174	0x3d901a5a	0.07036276
175	0xbe12240c	-0.14271563
176	0x3df89bae	0.121390685
177	0x3e048de1	0.12944748
178	0x3b81b6d3	0.003958562
179	0x3e1c08d5	0.15237744
180	0xbe9cbe32	-0.30613858
181	0x3dce9912	0.100877896
182	0x3e8c133c	0.27358425
183	0xbe6f0bce	-0.23344347
184	0x3cdcff45	0.02697719
185	0x3c9a74ac	0.018854462
186	0x3dd8cc04	0.10585788
187	0xbdd12bf0	-0.102134585
188	0xbe10229f	-0.14075707
189	0xbc9a2845	-0.01881803
190	0x3cc27f40	0.023742318
191	0x3a9d4ea1	0.0012001583
192	0xbe87b8cc	-0.26508176
193	0xbc82919b	-0.01593857
194	0x3e18254f	0.14857982
195	0xbe5e698f	-0.21719955
196	0x3e378501	0.1792183
197	0xbdbe0b1b	-0.09279462
198	0xbd18a04b	-0.037262242
199	0x3d908ab4	0.070577055
200	0x3d93aa09	0.07210166
201	0xbe35b61d	-0.17745252
202	0x3e0995ae	0.13436005
203	0xbe781dc9	-0.24230112
204	0x3e86c3cd	0.2632126
205	0xbe4348a3	-0.19070677
206	0xbe34dffc	-0.17663568
207	0x3e839b40	0.25704384
208	0x3e453cc9	0.19261469
209	0x3ea59bca	0.3234542
210	0x3c99f6ec	0.0187945
211	0x3dff8736	0.12476961
212	0xbc9a0469	-0.018800931
213	0xbc71996d	-0.014746052
214	0x3e36eb2f	0.17863153
215	0xbdea2e54	-0.11434618
216	0xbe2c2b79	-0.16813459
217	0xbe2f5dce	-0.17125627
218	0x3e0bbc09	0.13645948
219	0xbe76de1b	-0.24108164
220	0x3e045268	0.1292206
221	0xbd29d59f	-0.04146349
222	0xbddd8ff1	-0.1081847
223	0x3e27bd88	0.16380894
224	0x3e6013c4	0.2188254
225	0xbe8987af	-0.2686133
226	0xbd8540f4	-0.065065295
227	0xbe52b074	-0.20575124
228	0xbe1365cf	-0.14394306
229	0xbd2d28bb	-0.04227517
230	0xbf11c2aa	-0.5693766
231	0x3e9a8f98	0.30187678
232	0x3e222e7c	0.15838045
233	0x3e85c532	0.2612701
234	0xbe0899b1	-0.13339879
235	0x3e4972a4	0.19672638
236	0xbe876cc4	-0.2645017
237	0x3e8b70f8	0.27234626
238	0x3de33ab7	0.11095183
239	0xbe4dbbe9	-0.20091213
240	0xbd95d2ac	-0.07315573
241	0x3e8c05b4	0.273481
242	0xbe793765	-0.24337538
243	0x3e9a8b83	0.30184564
244	0xbeb1715a	-0.34656793
245	0x3e92d796	0.28680104
246	0x3e14c343	0.14527611
247	0xbe8556e8	-0.26042867
248	0x3d82d248	0.06387764
249	0x3e93c515	0.288613
250	0xbe5467db	-0.20742743
251	0x3ea952c1	0.3307095
252	0xbe99f42d	-0.30069104
253	0x3e98c3b0	0.29836798
254	0x3ec85a82	0.39131552
255	0xbe91d931	-0.28486016

rwkv1.a2 f4 [8, 32]
0	0x3c722d00	0.014781237
1	0x3d58879a	0.052863695
2	0xbdb29d38	-0.08721393
3	0xbe2eee5b	-0.17083113
4	0xbe454c1b	-0.19267313
5	0xbd34baf5	-0.04412361
6	0xbda8c412	-0.082405224
7	0xbe4153b3	-0.18879585
8	0x3ef84b3f	0.48494908
9	0xbe016cb9	-0.1263913
10	0xbe025a13	-0.12729673
11	0xbe2830a0	-0.16424799
12	0xbe127c2e	-0.14305183
13	0x3d3ead20	0.046551824
14	0x3e187498	0.14888227
15	0xbee9e3fa	-0.45681745
16	0xbe3341f2	-0.17505625
17	0xbe455d61	-0.19273902
18	0xbcad3082	-0.021141294
19	0xbe134caf	-0.14384721
20	0xbccceb7b	-0.02501463
21	0xbd748a76	-0.05970236
22	0xbda8033d	-0.08203743
23	0xbe54f9d5	-0.20798428
24	0xbe244195	-0.16040643
25	0xbcf7c345	-0.030244479
26	0x3edfb177	0.43690082
27	0x3e0219da	0.12705174
28	0x3d929fd6	0.071593925
29	0x3d224ed2	0.03962595
30	0x3b3c1e3b	0.0028704542
31	0xbe078d53	-0.13237505
32	0xbdb918b3	-0.09037914
33	0x3e8de28d	0.27711907
34	0x3ed37316	0.4129874
35	0xbea6a72f	-0.32549426
36	0xbdd0377b	-0.10166832
37	0x3e75f4b9	0.24019136
38	0xbf1d3423	-0.6140768
39	0x3e618d0d	0.22026463
40	0xbe63ea6e	-0.22257397
41	0x3e8ec5d8	0.27885318
42	0xbcef0d26	-0.029181074
43	0xbe379655	-0.17928441
44	0xbe4f374a	-0.20235935
45	0xbdac7a5c	-0.08421776
46	0xbf24cb65	-0.64372855
47	0x3e055a3c	0.13022703
48	0x3e2ab565	0.16670759
49	0x3e0ca7d2	0.13735893
50	0x3e19eff3	0.1503294
51	0x3c41a55c	0.01181921
52	0x3e97122c	0.29506052
53	0x3d78c16e	0.060731344
54	0xbe5e6c47	-0.21720992
55	0x3da0b9f5	0.078479685
56	0xbe63722e	-0.22211525
57	0x3de08c70	0.10964286
58	0xbe81a655	-0.25322214
59	0xbd10de64	-0.03536834
60	0x3e04d751	0.12972762
61	0xbd6223b5	-0.055209834
62	0xbc211507	-0.0098316735
63	0xbe4b0e62	-0.19829705
64	0x3d898618	0.067150295
65	0x3c56c705	0.013108973
66	0xbc64ed7e	-0.013972638
67	0x3efc67ca	0.49297935
68	0x3dfbc168	0.12292749
69	0xbdd9ea91	-0.10640443
70	0x3f2d839a	0.67778933
71	0xbe2ca09a	-0.1685814
72	0x3dc709ab	0.09718641
73	0x3e8884c9	0.26663807
74	0x3e81ab75	0.25326124
75	0x3ee5e149	0.4489844
76	0x3e2b0338	0.16700447
77	0x3e1ca9bb	0.15299122
78	0x3f05841f	0.52154726
79	0xbe80707f	-0.25085828
80	0x3d366bf5	0.04453655
81	0xbd371950	-0.044701874
82	0xbceda3f4	-0.029008843
83	0x3d5a1fda	0.053253032
84	0xbc250e6e	-0.010074241
85	0xbecf46b6	-0.40483636
86	0x3d5dfa4a	0.054193772
87	0xbd2bd44a	-0.0419505
88	0xbdab164f	-0.083538644
89	0xbd1d827c	-0.038454518
90	0xbdf405c4	-0.11915162
91	0xbe7f2621	-0.24916889
92	0xbd369c43	-0.044582617
93	0xbecad1dd	-0.39613238
94	0xbdba015f	-0.09082293
95	0x3e4ed617	0.20198856
96	0xbe0be356	-0.1366094
97	0x3ed45af1	0.41475633
98	0x3e7db4a3	0.24775939
99	0xbe75168f	-0.23934387
100	0xbe310217	-0.17285953
101	0x3bd0e767	0.0063752416
102	0xbed0d1cc	-0.40785062
103	0x3eab66e8	0.3347695
104	0xbe24e3fe	-0.16102597
105	0xbe52f6c6	-0.20601949
106	0xbf01fd44	-0.5077708
107	0xbe1c82c1	-0.15284254
108	0xbdee64a7	-0.11640292
109	0xbe8a33b3	-0.26992568
110	0xbf68afbd	-0.90893155
111	0x3e1d108d	0.15338345
112	0xbdd44139	-0.10364003
113	0xbd0bed82	-0.034162052
114	0xbdb57e6c	-0.08862004
115	0xbdaaf6c6	-0.083478495
116	0xbd9ebd8e	-0.077509984
117	0x3c8843f8	0.016633973
118	0xbe2d653a	-0.16933146
119	0xbd84936b	-0.0647343
120	0xbe6c9920	-0.23105288
121	0x3db1914a	0.0867029
122	0xbcf38232	-0.029725168
123	0xbe1e3900	-0.15451431
124	0xbe077d48	-0.13231385
125	0x3ce1f0ba	0.027580608
126	0xbe2f07ba	-0.17092791
127	0x3d4e0430	0.050296962
128	0xbe7eadb7	-0.24870954
129	0xbed577bd	-0.41692916
130	0x3e5bccb9	0.21464814
131	0x3ef7735f	0.4833021
132	0x3eabf257	0.33583328
133	0x3e1c0b43	0.15238671
134	0x3f02f94f	0.51161665
135	0xbec61a3e	-0.38691896
136	0x3c73f3ad	0.01488964
137	0xbdfee2a6	-0.124455735
138	0x3e32722c	0.17426366
139	0x3e1221e2	0.14270738
140	0x3ed878e9	0.42279747
141	0xbe62de4f	-0.22155116
142	0x3f02bca0	0.5106907
143	0x3e11c8c0	0.14236736
144	0x3cad7ff3	0.021179175
145	0x3e147fa3	0.14501815
146	0x3d743c7a	0.059627987
147	0xbc475fa3	-0.012168798
148	0x3e0447bc	0.1291799
149	0x3e05f5e5	0.13082083
150	0x3c56cbbd	0.013110098
151	0xbdde9485	-0.108681716
152	0x3d0b1a99	0.033960912
153	0xbd6154ad	-0.055012394
154	0xbd9395ff	-0.07206344
155	0x3d8e2d67	0.069422536
156	0xbdc0367a	-0.093853906
157	0x3cdd69a8	0.02702792
158	0xbd884b14	-0.06654945
159	0x3d3ab29e	0.0455805
160	0x3d986d9b	0.074427806
161	0x3e2d2a96	0.16910776
162	0xbcf7298c	-0.030171178
163	0xbecf145d	-0.40445223
164	0xbe8c2a6d	-0.27376118
165	0x3e2f569e	0.17122886
166	0xbf13ccde	-0.5773448
167	0x3e5b2cff	0.21403883
168	0xbe8dd66f	-0.27702662
169	0x3e9e8581	0.3096123
170	0xbecca975	-0.39973035
171	0x3dcb47db	0.09925815
172	0xbd6f7671	-0.058462564
173	0xbc561b50	-0.013068035
174	0xbf0ef4a0	-0.5584202
175	0x3eb98614	0.36235106
176	0xbc25ec2e	-0.01012711
177	0xbdc3766f	-0.09544074
178	0x3dee0a11	0.11623014
179	0x3d12718c	0.035752818
180	0x3c97a8b9	0.01851307
181	0x3d563b7f	0.052302834
182	0xbe1d98d0	-0.15390325
183	0x3dfe658d	0.12421713
184	0xbdcabe00	-0.09899521
185	0xbcbc9524	-0.023020335
186	0xbe3b6b04	-0.18302542
187	0xbe2217e3	-0.15829425
188	0x3cec7ff9	0.028869616
189	0xbe857ef5	-0.26073423
190	0xbdbf4354	-0.09339014
191	0x3b863a57	0.00409631
192	0x3e798ab7	0.24369322
193	0x3e8162f2	0.25270802
194	0x3e035072	0.12823656
195	0x3e5bc47a	0.21461669
196	0x3f1be404	0.608948
197	0x3e694f15	0.22784074
198	0xbeeed42a	-0.46646243
199	0x3e92ac39	0.2864702
200	0xbe22ac82	-0.15886119
201	0x3dd9f23f	0.10641908
202	0x3e299204	0.16559607
203	0xbe4b273a	-0.19839182
204	0x3da6b8a7	0.081406884
205	0xbe255692	-0.16146305
206	0xbf0c514e	-0.5481156
207	0x3d3b2d13	0.045697283
208	0x3e18e40e	0.14930746
209	0x3e078e50	0.13237882
210	0x3d8b2598	0.0679428
211	0x3e284b34	0.16434938
212	0x3d85aa10	0.065265775
213	0xbd7abdd3	-0.061216187
214	0xbe5b7a32	-0.21433333
215	0xb8588c2e	-5.1628966e-05
216	0xbe491e13	-0.19640379
217	0x3d179dac	0.037015602
218	0xbec55798	-0.3854339
219	0xbe011592	-0.12605885
220	0x3d8e65b9	0.06952996
221	0xbe2fbf76	-0.1716288
222	0xbd78410a	-0.0606089
223	0xbe2c44fd	-0.16823192
224	0xbc4274ce	-0.011868669
225	0xbeafa6c4	-0.3430692
226	0xbe847320	-0.25869083
227	0x3e8d6e33	0.27623138
228	0xbd817007	-0.06320196
229	0xbd8376d7	-0.06419151
230	0x3e73af73	0.23797397
231	0xbec22d6f	-0.37925288
232	0x3e2e826e	0.17041942
233	0xbde2105c	-0.110382766
234	0x3e94f94d	0.2909645
235	0x3e4e5edb	0.20153372
236	0x3dcc3cb3	0.09972515
237	0x3e56aea7	0.20965062
238	0x3f3e19d4	0.7425816
239	0xbe09ba4e	-0.13449976
240	0x3d6f5640	0.058431864
241	0xbd3fcd17	-0.04682645
242	0x3c350411	0.011048333
243	0xba40eb44	-0.0007359276
244	0x3d22c7fd	0.039741505
245	0x3d8cdefc	0.068784684
246	0x3e693d28	0.22777236
247	0x3cf3141b	0.029672673
248	0x3e27323f	0.16327761
249	0x3da28477	0.07935422
250	0x3eaca1aa	0.3371709
251	0x3e62ff05	0.22167595
252	0x3ceb7dea	0.028746564
253	0x3e788669	0.24270023
254	0x3dee01dc	0.116214484
255	0x3d3e677e	0.046485417

rwkv1.a0 f4 [1, 1, 32]
0	0xbf6bb906	-0.920792
1	0xbf195be7	-0.59905857
2	0xbe8ccfcd	-0.2750229
3	0xbf347523	-0.70491236
4	0xbeeb94a6	-0.46011847
5	0xbeb67fb0	-0.35644293
6	0xbdc6c526	-0.09705572
7	0xbe9e2fb7	-0.3089578
8	0xbf6e237d	-0.930229
9	0xbd1c953a	-0.03822825
10	0xbe0b394f	-0.1359608
11	0xbe665cb7	-0.22496305
12	0x3d82aea9	0.0638097
13	0xbdd69ad5	-0.104787506
14	0x3cc5a788	0.024127737
15	0x3f305d55	0.68892413
16	0xbefaf23a	-0.4901293
17	0xbee0740c	-0.43838537
18	0xbe9fc15c	-0.3120221
19	0xbe7cd7b2	-0.24691656
20	0xbe9739a4	-0.29536164
21	0xbc728f38	-0.014804654
22	0xbdab5bd6	-0.08367126
23	0xbf31bbdf	-0.69427294
24	0x3e2461d7	0.16052948
25	0xbe542c8c	-0.20720118
26	0xbe957fc8	-0.29199052
27	0xbe5b8d48	-0.21440613
28	0x3d8244c1	0.0636077
29	0x3ddccfbc	0.1078181
30	0x3ad83840	0.0016496256
31	0x3ed897b2	0.42303234

rwkv1.v1 f4 [32, 8]
0	0x00000000	0.0
1	0x00000000	0.0
2	0x00000000	0.0
3	0x00000000	0.0
4	0x00000000	0.0
5	0x00000000	0.0
6	0x00000000	0.0
7	0x00000000	0.0
8	0x00000000	0.0
9	0x00000000	0.0
10	0x00000000	0.0
11	0x00000000	0.0
12	0x00000000	0.0
13	0x00000000	0.0
14	0x00000000	0.0
15	0x00000000	0.0
16	0x00000000	0.0
17	0x00000000	0.0
18	0x00000000	0.0
19	0x00000000	0.0
20	0x00000000	0.0
21	0x00000000	0.0
22	0x00000000	0.0
23	0x00000000	0.0
24	0x00000000	0.0
25	0x00000000	0.0
26	0x00000000	0.0
27	0x00000000	0.0
28	0x00000000	0.0
29	0x00000000	0.0
30	0x00000000	0.0
31	0x00000000	0.0
32	0x00000000	0.0
33	0x00000000	0.0
34	0x00000000	0.0
35	0x00000000	0.0
36	0x00000000	0.0
37	0x00000000	0.0
38	0x00000000	0.0
39	0x00000000	0.0
40	0x00000000	0.0
41	0x00000000	0.0
42	0x00000000	0.0
43	0x00000000	0.0
44	0x00000000	0.0
45	0x00000000	0.0
46	0x00000000	0.0
47	0x00000000	0.0
48	0x00000000	0.0
49	0x00000000	0.0
50	0x00000000	0.0
51	0x00000000	0.0
52	0x00000000	0.0
53	0x00000000	0.0
54	0x00000000	0.0
55	0x00000000	0.0
56	0x00000000	0.0
57	0x00000000	0.0
58	0x00000000	0.0
59	0x00000000	0.0
60	0x00000000	0.0
61	0x00000000	0.0
62	0x00000000	0.0
63	0x00000000	0.0
64	0x00000000	0.0
65	0x00000000	0.0
66	0x00000000	0.0
67	0x00000000	0.0
68	0x00000000	0.0
69	0x00000000	0.0
70	0x00000000	0.0
71	0x00000000	0.0
72	0x00000000	0.0
73	0x00000000	0.0
74	0x00000000	0.0
75	0x00000000	0.0
76	0x00000000	0.0
77	0x00000000	0.0
78	0x00000000	0.0
79	0x00000000	0.0
80	0x00000000	0.0
81	0x00000000	0.0
82	0x00000000	0.0
83	0x00000000	0.0
84	0x00000000	0.0
85	0x00000000	0.0
86	0x00000000	0.0
87	0x00000000	0.0
88	0x00000000	0.0
89	0x00000000	0.0
90	0x00000000	0.0
91	0x00000000	0.0
92	0x00000000	0.0
93	0x00000000	0.0
94	0x00000000	0.0
95	0x00000000	0.0
96	0x00000000	0.0
97	0x00000000	0.0
98	0x00000000	0.0
99	0x00000000	0.0
100	0x00000000	0.0
101	0x00000000	0.0
102	0x00000000	0.0
103	0x00000000	0.0
104	0x00000000	0.0
105	0x00000000	0.0
106	0x00000000	0.0
107	0x00000000	0.0
108	0x00000000	0.0
109	0x00000000	0.0
110	0x00000000	0.0
111	0x00000000	0.0
112	0x00000000	0.0
113	0x00000000	0.0
114	0x00000000	0.0
115	0x00000000	0.0
116	0x00000000	0.0
117	0x00000000	0.0
118	0x00000000	0.0
119	0x00000000	0.0
120	0x00000000	0.0
121	0x00000000	0.0
122	0x00000000	0.0
123	0x00000000	0.0
124	0x00000000	0.0
125	0x00000000	0.0
126	0x00000000	0.0
127	0x00000000	0.0
128	0x00000000	0.0
129	0x00000000	0.0
130	0x00000000	0.0
131	0x00000000	0.0
132	0x00000000	0.0
133	0x00000000	0.0
134	0x00000000	0.0
135	0x00000000	0.0
136	0x00000000	0.0
137	0x00000000	0.0
138	0x00000000	0.0
139	0x00000000	0.0
140	0x00000000	0.0
141	0x00000000	0.0
142	0x00000000	0.0
143	0x00000000	0.0
144	0x00000000	0.0
145	0x00000000	0.0
146	0x00000000	0.0
147	0x00000000	0.0
148	0x00000000	0.0
149	0x00000000	0.0
150	0x00000000	0.0
151	0x00000000	0.0
152	0x00000000	0.0
153	0x00000000	0.0
154	0x00000000	0.0
155	0x00000000	0.0
156	0x00000000	0.0
157	0x00000000	0.0
158	0x00000000	0.0
159	0x00000000	0.0
160	0x00000000	0.0
161	0x00000000	0.0
162	0x00000000	0.0
163	0x00000000	0.0
164	0x00000000	0.0
165	0x00000000	0.0
166	0x00000000	0.0
167	0x00000000	0.0
168	0x00000000	0.0
169	0x00000000	0.0
170	0x00000000	0.0
171	0x00000000	0.0
172	0x00000000	0.0
173	0x00000000	0.0
174	0x00000000	0.0
175	0x00000000	0.0
176	0x00000000	0.0
177	0x00000000	0.0
178	0x00000000	0.0
179	0x00000000	0.0
180	0x00000000	0.0
181	0x00000000	0.0
182	0x00000000	0.0
183	0x00000000	0.0
184	0x00000000	0.0
185	0x00000000	0.0
186	0x00000000	0.0
187	0x00000000	0.0
188	0x00000000	0.0
189	0x00000000	0.0
190	0x00000000	0.0
191	0x00000000	0.0
192	0x00000000	0.0
193	0x00000000	0.0
194	0x00000000	0.0
195	0x00000000	0.0
196	0x00000000	0.0
197	0x00000000	0.0
198	0x00000000	0.0
199	0x00000000	0.0
200	0x00000000	0.0
201	0x00000000	0.0
202	0x00000000	0.0
203	0x00000000	0.0
204	0x00000000	0.0
205	0x00000000	0.0
206	0x00000000	0.0
207	0x00000000	0.0
208	0x00000000	0.0
209	0x00000000	0.0
210	0x00000000	0.0
211	0x00000000	0.0
212	0x00000000	0.0
213	0x00000000	0.0
214	0x00000000	0.0
215	0x00000000	0.0
216	0x00000000	0.0
217	0x00000000	0.0
218	0x00000000	0.0
219	0x00000000	0.0
220	0x00000000	0.0
221	0x00000000	0.0
222	0x00000000	0.0
223	0x00000000	0.0
224	0x00000000	0.0
225	0x00000000	0.0
226	0x00000000	0.0
227	0x00000000	0.0
228	0x00000000	0.0
229	0x00000000	0.0
230	0x00000000	0.0
231	0x00000000	0.0
232	0x00000000	0.0
233	0x00000000	0.0
234	0x00000000	0.0
235	0x00000000	0.0
236	0x00000000	0.0
237	0x00000000	0.0
238	0x00000000	0.0
239	0x00000000	0.0
240	0x00000000	0.0
241	0x00000000	0.0
242	0x00000000	0.0
243	0x00000000	0.0
244	0x00000000	0.0
245	0x00000000	0.0
246	0x00000000	0.0
247	0x00000000	0.0
248	0x00000000	0.0
249	0x00000000	0.0
250	0x00000000	0.0
251	0x00000000	0.0
252	0x00000000	0.0
253	0x00000000	0.0
254	0x00000000	0.0
255	0x00000000	0.0
