RWKV-v8/260123_reverse_L2_only_rwkv7.pth (torch, 190051 bytes, 99 tensors)

e.weight f4 [12, 32]
-0.008940718 0.47992706 -0.06490504 -1.1347255 0.4511181 -0.048652373 0.27700508 -0.17147325
-0.9993069 0.043931983 0.08211331 0.10654245 -0.8411163 -0.49734268 0.01550842 -0.021121752
-0.17283612 -0.06726383 -0.41829693 -0.632808 0.04001251 0.24398002 -0.4849614 0.5244351
0.08216466 -0.5547018 0.4893058 0.41312167 -0.28474525 -0.4660523 1.0599188 -0.10248025
-0.057747316 0.7214005 -0.09667991 -0.15167299 -0.77173454 0.0068830806 -0.05471761 0.16873159
-0.6328929 0.00425133 0.08345895 -1.3477595 -0.5222634 -1.1169852 0.6620616 -0.21400069
0.30093065 -0.07577873 0.40462887 0.32189998 0.036446974 0.4097927 -0.009628216 0.4094465
0.084161475 -0.35574248 -0.38434243 -0.4428841 0.026518894 -0.08894294 -1.0683215 0.80363053
-0.016711088 -0.95343477 0.051556837 0.23495291 -0.08966534 -0.10276974 0.80606204 0.0005759736
-1.2778113 -0.022207718 0.09164764 -1.2085466 0.3519815 0.6776898 -0.0011726848 0.011129277
0.13002321 -0.05878425 -0.50555795 -0.38488606 -0.3081963 -0.5007606 -0.20335387 0.47100303
0.08969007 0.7844486 -0.40532187 -0.09963503 -0.015630586 -0.028220056 -0.11820967 0.18475866
-0.027561238 0.19703172 0.31560007 -0.3826881 -0.04511611 -0.11614663 0.113519646 -0.33394766
0.092838384 -0.2317715 0.07681467 0.5612385 0.18488911 -0.937668 -0.018391242 0.08321459
0.067756005 -0.07183619 0.34293875 -0.6293223 -0.10142838 0.11546817 -0.5293512 -1.0064107
0.07871582 1.0449406 0.17755643 0.7471692 -0.23600286 -0.795543 -1.2082802 -0.37376332
-0.027261512 0.6213504 0.23551755 0.3971989 0.30416918 -0.009312641 -1.1081066 0.0017734831
-0.1110205 -0.048614986 0.075748034 -0.92707294 0.35102972 0.42494383 0.0925355 -0.043681215
0.22421007 -0.08693321 -0.715165 -0.27174988 0.12101581 -0.053989127 -0.03790039 0.6186704
0.08205691 -1.1136109 -0.5375813 0.7045704 0.19253376 -1.3360823 -0.9485949 -0.2659696
-0.018436588 -0.3069698 0.010036773 -0.9304885 0.023553427 0.08076887 0.90210253 -0.21622196
0.7344492 -0.21583863 0.085950084 -0.13937677 -0.72990614 0.7152892 0.15101969 -0.15932806
-0.41551414 -0.060976308 -0.27004778 0.1804558 0.1039375 -0.17613566 -0.48689502 -0.52266127
0.09051466 -0.87612724 -0.10084971 0.17940749 -0.093581624 0.9590678 -1.254704 0.27112052
-0.019574666 -0.51416343 -0.14134757 -0.43896672 -0.4310435 -0.013473258 -0.7613081 -0.22124463
0.34709343 0.30175918 0.07883133 0.65299994 -0.3414955 0.22811645 -0.046847016 -0.100983106
-0.24957666 -0.059031345 0.44353527 -0.6106371 -0.080470756 -0.10526894 -0.3852492 1.1888359
0.07779519 0.65389574 0.32488808 -0.7777742 0.047319222 -0.88517034 -0.40136307 -0.18755147
-0.037004504 -0.4081102 -0.29542628 0.43837425 0.04348994 0.03993675 0.4833626 -0.3087174
-0.56975096 0.012739626 0.09009403 1.0937696 0.85792965 -0.79001063 -0.02724833 -0.045900173
0.058950618 -0.05699594 0.5430282 -0.1704736 -0.25781956 -0.12367395 -0.10432567 -0.2225107
0.098284036 -1.4046063 -0.26600295 -0.6381679 -0.39803004 0.8606018 -0.42495623 -0.5133698
00000000: 177c 12bc 00b9 f53e efec 84bd af3e 91bf
00000010: f4f8 e63e b647 47bd 9cd3 8d3e af96 2fbe
00000020: 94d2 7fbf 06f2 333d 062b a83d ee32 da3d
00000030: 6653 57bf b3a3 febe 0717 7e3c 8607 adbc
00000040: f4fb 30be 9ec1 89bd 042b d6be b5ff 21bf
00000050: 28e4 233d e6d5 793e dc4c f8be 6141 063f
00000060: f245 a83d f000 0ebf 4a86 fa3e af84 d33e
00000070: 21ca 91be 689e eebe 6bab 873f 2ae1 d1bd
00000080: 7388 6cbd b4ad 383f 1e00 c6bd 2a50 1bbe
00000090: 6590 45bf 778b e13b 931f 60bd f9c7 2c3e
000000a0: 4505 22bf be4e 8b3b 87ec aa3d 6283 acbf
000000b0: 0eb3 05bf 5ff9 8ebf de7c 293f ff22 5bbe
000000c0: 9513 9a3e e131 9bbd 842b cf3e 13d0 a43e
000000d0: 6c49 153d 59d0 d13e aabf 1dbc f9a2 d13e
000000e0: da5c ac3d e123 b6be 88c8 c4be b4c1 e2be
000000f0: 273e d93c b727 b6bd c2be 88bf bbba 4d3f
00000100: b1e5 88bc 4d14 74bf 432d 533d 7f97 703e
00000110: 76a2 b7bd f178 d2bd 155a 4e3f effc 163a
00000120: 528f a3bf f6ec b5bc c2b1 bb3d a8b1 9abf
00000130: eb36 b43e 147d 2d3f c6b4 99ba 9257 363c
00000140: ce24 053e c1c7 70bd 3f6c 01bf c90f c5be
00000150: e8cb 9dbe d931 00bf ff3b 50be 4f27 f13e
00000160: 6daf b73d a0d1 483f 5986 cfbe 730d ccbd
00000170: b70b 80bc bf2d e7bc e917 f2bd 6031 3d3e
00000180: 1bc8 e1bc afc2 493e 5596 a13e b2ef c3be
00000190: accb 38bd 49de edbd fd7c e83d 30fb aabe
000001a0: 0d22 be3d 8255 6dbe 0251 9d3d 54ad 0f3f
000001b0: 9253 3d3e 030b 70bf 3ba9 96bc 696c aa3d
000001c0: a9c3 8a3d da1e 93bd ab95 af3e 441b 21bf
000001d0: afb9 cfbd 937a ec3d 8f83 07bf 11d2 80bf
000001e0: c335 a13d 9dc0 853f 5ad1 353e 7b46 3f3f
000001f0: bcaa 71be b5a8 4bbf eda8 9abf e85d bfbe
00000200: 8953 dfbc d210 1f3f 832b 713e a75d cb3e
00000210: 10bc 9b3e 0c94 18bc 70d6 8dbf 3874 e83a
00000220: b75e e3bd 8220 47bd c921 9b3d a754 6dbf
00000230: 2bba b33e 3d92 d93e 4183 bd3d 13eb 32bd
00000240: 5397 653e 0a0a b2bd 0e15 37bf cd22 8bbe
00000250: 23d7 f73d b423 5dbd 703d 1bbd 2f61 1e3f
00000260: 740d a83d cd8a 8ebf ee9e 09bf ba5e 343f
00000270: 9227 453e bf04 abbf 1ed7 72bf 2b2d 88be
00000280: 5408 97bc 252b 9dbe 4771 243c 7f34 6ebf
00000290: 1ef3 c03c 266a a53d 31f0 663f 4a69 5dbe
000002a0: dd04 3c3f cd04 5dbe 9906 b03d c9b8 0ebe
000002b0: 21db 3abf 311d 373f e8a4 1a3e e526 23be
000002c0: 45be d4be 4bc2 79bd b443 8abe 68c9 383e
000002d0: 2fdd d43d e85c 34be 4e4a f9be 21cd 05bf
000002e0: c05f b93d e049 60bf 4b8a cebd 99b6 373e
000002f0: b9a7 bfbd 7885 753f 249a a0bf 4fd0 8a3e
00000300: 0d5b a0bc 37a0 03bf 6bbd 10be 3fc0 e0be
00000310: bcb1 dcbe f1be 5cbc 16e5 42bf f48d 62be
00000320: 3bb6 b13e 2e80 9a3e 5272 a13d 012b 273f
00000330: 80d8 aebe 5c97 693e a8e2 3fbd 3bd0 cebd
00000340: 0691 7fbe daca 71bd 0e17 e33e b752 1cbf
00000350: dacd a4bd 3e97 d7bd 623f c5be c62b 983f
00000360: 1653 9f3d b665 273f bb57 a63e 361c 47bf
00000370: cdd1 413d 869a 62bf 767f cdbe 7e0d 40be
00000380: 0992 17bd d2f3 d0be 1d42 97be 9772 e03e
00000390: 8222 323d b894 233d 4d7b f73e 3510 9ebe
000003a0: 33db 11bf ddb9 503c 3883 b83d a400 8c3f
000003b0: 47a1 5b3f 233e 4abf e437 dfbc d201 3cbd
000003c0: 3476 713d 9374 69bd e503 0b3f a290 2ebe
000003d0: ed00 84be c548 fdbd b2a8 d5bd d8d9 63be
000003e0: 2449 c93d 24ca b3bf 8a31 88be f95e 23bf
000003f0: 98ca cbbe 6650 5c3f dd93 d9be 346c 03bf

ln1a.weight f4 [32]
0.0020974197 0.12623836 0.3178436 0.104128115 0.1631466 0.2988326 0.15523513 0.27078006
0.15173677 0.23789209 2.3990264 0.021707311 0.09636742 0.12158411 0.002431387 -0.013925294
0.24368289 0.9551839 0.14169495 0.11110411 0.06271972 0.15324357 0.05954852 0.12490119
0.6073597 0.13256598 0.065098025 0.09815868 0.14540552 -0.011446356 0.10903076 0.20714149
00000000: dd74 093b a144 013e 65bc a23e 1f41 d53d
00000010: e70f 273e 9600 993e f5f5 1e3e afa3 8a3e
00000020: e260 1b3e fc99 733e a689 1940 88d3 b13c
00000030: 485c c53d 1701 f93d e857 1f3b eb26 64bc
00000040: 0288 793e ef86 743f 7b18 113e 8d8a e33d
00000050: 3273 803d e2eb 1c3e 26e9 733d 32cc ff3d
00000060: ed7b 1b3f 60bf 073e 1d52 853d 6b07 c93d
00000070: 2fe5 143e 7f89 3bbc 854b df3d e61c 543e

ln1a.bias f4 [32]
1.8958849 -0.004269286 -0.01839761 0.025710836 -0.007705643 -0.02856598 -0.008049855 -0.004870038
0.045692407 -0.025828427 -0.38044113 -0.4263902 -0.014265529 0.008452773 0.007857985 0.54972184
-0.056119293 -0.003206624 -0.0012751889 0.04509693 -0.0010073292 -0.011895097 0.003210034 -0.0043249335
1.0911638 0.017688263 0.0042419047 0.0009362918 -0.010862757 -0.0024848876 0.03668935 -0.03164744
00000000: 5bac f23f 5ee5 8bbb 96b6 96bc 889f d23c
00000010: 9e7f fcbb 3403 eabc 8ae3 03bc d794 9fbb
00000020: f627 3b3d 2396 d3bc 2ec9 c2be d14f dabe
00000030: f7b9 69bc 807d 0a3c c7be 003c 92ba 0c3f
00000040: 58dd 65bd 3926 52bb 3d24 a7ba 8fb7 383d
00000050: 5c08 84ba a7e3 42bc 6f5f 523b 2cb8 8dbb
00000060: 41ab 8b3f fae6 903c adff 8a3b 7b71 753a
00000070: b5f9 31bc 7fd9 22bb 9247 163d bfa0 01bd

ln1b.weight f4 [32]
0.8587368 0.51427937 0.9090491 0.7851322 0.55398446 1.4143443 0.21757093 1.0263616
0.22310978 0.8603449 0.29639304 0.24711289 0.75453955 0.5093805 0.43095794 0.2682557
1.0166377 1.0000119 0.22039607 0.82991743 0.4211133 0.56947964 0.2204686 0.18392684
0.51549906 0.1897123 0.73674893 0.38471285 0.67127186 0.18519805 0.2753336 0.5196977
00000000: 2dd6 5b3f d0a7 033f 71b7 683f 6dfe 483f
00000010: edd1 0d3f 3c09 b53f eaca 5e3e d15f 833f
00000020: e476 643e 903f 5c3f d4c0 973e 290b 7d3e
00000030: 8129 413f c366 023f 85a6 dc3e d058 893e
00000040: 2f21 823f 6400 803f 82af 613e 7875 543f
00000050: 2a9c d73e 6bc9 113f 85c2 613e 5157 3c3e
00000060: bff7 033f f143 423e 949b 3c3f 15f9 c43e
00000070: 79d8 2b3f 8fa4 3d3e 87f8 8c3e e90a 053f

ln1b.bias f4 [32]
0.8504541 0.09847636 0.4847088 -0.3832263 -0.24608132 -0.96055514 -0.015005921 -0.7934526
-0.024358217 0.4527817 -0.019258307 -0.033430077 0.23430622 0.23670886 0.2229473 0.11255358
0.6424816 0.95752424 -0.013473658 0.7508087 0.13556138 0.09709312 0.029776514 -0.025287483
-0.54911304 0.012096353 0.35921127 -0.10297834 0.08225243 0.002876997 0.014039824 0.4057015
00000000: 5cb7 593f f9ad c93d c02b f83e 3d36 c4be
00000010: befc 7bbe f1e6 75bf 65db 75bc b61f 4bbf
00000020: e28a c7bc 01d3 e73e 99c3 9dbc faed 08bd
00000030: f8ed 6f3e cf63 723e 4c4c 643e 7e82 e63d
00000040: ad79 243f 4f20 753f 9ec0 5cbc 0035 403f
00000050: 9ad0 0a3e c2d8 c63d e0ed f33c b227 cfbc
00000060: ac92 0cbf c82f 463c 8aea b73e 4fe6 d2bd
00000070: f673 a83d 008c 3c3b 4a07 663c 1bb8 cf3e

ln1c.weight f4 [32]
1.0 1.0 1.0 1.0 1.0 1.0 1.0 1.0
1.0 1.0 1.0 1.0 1.0 1.0 1.0 1.0
1.0 1.0 1.0 1.0 1.0 1.0 1.0 1.0
1.0 1.0 1.0 1.0 1.0 1.0 1.0 1.0
00000000: 0000 803f 0000 803f 0000 803f 0000 803f
00000010: 0000 803f 0000 803f 0000 803f 0000 803f
00000020: 0000 803f 0000 803f 0000 803f 0000 803f
00000030: 0000 803f 0000 803f 0000 803f 0000 803f
00000040: 0000 803f 0000 803f 0000 803f 0000 803f
00000050: 0000 803f 0000 803f 0000 803f 0000 803f
00000060: 0000 803f 0000 803f 0000 803f 0000 803f
00000070: 0000 803f 0000 803f 0000 803f 0000 803f

ln1c.bias f4 [32]
0.0 0.0 0.0 0.0 0.0 0.0 0.0 0.0
0.0 0.0 0.0 0.0 0.0 0.0 0.0 0.0
0.0 0.0 0.0 0.0 0.0 0.0 0.0 0.0
0.0 0.0 0.0 0.0 0.0 0.0 0.0 0.0
00000000: 0000 0000 0000 0000 0000 0000 0000 0000
00000010: 0000 0000 0000 0000 0000 0000 0000 0000
00000020: 0000 0000 0000 0000 0000 0000 0000 0000
00000030: 0000 0000 0000 0000 0000 0000 0000 0000
00000040: 0000 0000 0000 0000 0000 0000 0000 0000
00000050: 0000 0000 0000 0000 0000 0000 0000 0000
00000060: 0000 0000 0000 0000 0000 0000 0000 0000
00000070: 0000 0000 0000 0000 0000 0000 0000 0000

rwkv1.x_r f4 [1, 1, 32]
-4.683992 0.69780475 0.58069867 0.5550344 0.68641347 0.9391757 -0.09241418 0.6936123
-0.047978483 0.8788826 0.32549492 1.8826377 0.33485872 0.56640345 0.56913745 -2.5880847
-0.5458336 -0.37893835 -0.22680058 0.8943257 -0.8065997 -1.0482426 -0.8759731 -0.27516687
-0.28691104 -0.1965726 -0.52188915 -0.6848615 -0.95709205 0.52651656 -0.26863068 -0.5000107
00000000: 43e3 95c0 55a3 323f aba8 143f bc16 0e3f
00000010: cbb8 2f3f d26d 703f a543 bdbd 9390 313f
00000020: 1685 44bd 73fe 603f 45a7 a63e 46fa f03f
00000030: 9a72 ab3e d1ff 103f feb2 113f 2ea3 25c0
00000040: c0bb 0bbf 3504 c2be 693e 68be 87f2 643f
00000050: 517d 4ebf d02c 86bf c63f 60bf ace2 8cbe
00000060: 01e6 92be 544a 49be 879a 05bf 1553 2fbf
00000070: fc03 75bf cac9 063f f689 89be b400 00bf

rwkv1.x_w f4 [1, 1, 32]
9.222208 0.9741648 1.058174 1.5363582 0.31262478 -0.2185948 0.6505424 0.2665642
0.6397751 0.98654616 0.34770885 1.7948129 1.124544 0.078206904 0.40009126 4.3889256
0.4013545 0.91198593 1.0384445 -0.039285045 0.7514234 0.7445677 -0.01959957 0.06880701
-0.55948645 0.42371342 0.18720527 0.1856979 -0.051110107 0.3649021 0.042529266 -0.11651149
00000000: 2a8e 1341 dd62 793f 3f72 873f 63a7 c43f
00000010: 5b10 a03e 51d7 5fbe f289 263f 1a7b 883e
00000020: 4dc8 233f 4a8e 7c3f e506 b23e 6ebc e53f
00000030: 0ff1 8f3f f12a a03d c3d8 cc3e 1472 8c40
00000040: 567e cd3e e977 693f c0eb 843f 5be9 20bd
00000050: 495d 403f fd9b 3e3f 478f a0bc b1ea 8c3d
00000060: 813a 0fbf f7f0 d83e bdb2 3f3e 9727 3e3e
00000070: d558 51bd 73d4 ba3e 2b33 2e3d 939d eebd

rwkv1.x_k f4 [1, 1, 32]
2.7606366 1.0138892 1.1439644 1.0727564 1.2123772 1.7018399 1.061333 1.2117422
1.0351038 1.2780635 0.8250366 0.5135312 1.0174427 1.0148942 1.0529042 1.0476748
0.46717477 0.07663132 0.5455127 0.703827 0.25244874 0.21727292 0.297576 0.47119123
-1.0684851 0.63368446 0.23226143 0.20730205 0.04581633 0.686861 0.582144 0.4057822
00000000: 45ae 3040 1fc7 813f 6d6d 923f 1550 893f
00000010: 2d2f 9b3f e4d5 d93f c2d9 873f 5e1a 9b3f
00000020: 487e 843f 9697 a33f 9935 533f c876 033f
00000030: 903b 823f 0ee8 813f 91c5 863f 351a 863f
00000040: 8831 ef3e e2f0 9c3d b8a6 0b3f 022e 343f
00000050: f640 813e cb7c 5e3e e25b 983e fa3f f13e
00000060: 1fc4 88bf 2539 223f f1d5 6d3e fd46 543e
00000070: e7a9 3b3d 1fd6 2f3f 6407 153f afc2 cf3e

rwkv1.x_v f4 [1, 1, 32]
4.0800295 0.5564386 0.56634223 0.5427497 0.5724721 0.6258656 0.5263126 0.6315307
0.5280835 0.5831878 0.40618494 0.5692549 0.5546572 0.5481946 0.5154677 1.1279557
0.47243544 -0.45044646 0.507358 0.5396475 -0.15021876 0.30029696 0.30310583 0.5152405
-2.126967 0.5160935 0.51161987 0.4023775 0.44378394 0.6051986 0.5105714 0.49066445
00000000: 9a8f 8240 c372 0e3f cefb 103f a5f1 0a3f
00000010: 888d 123f ba38 203f 6cbc 063f ffab 213f
00000020: 7b30 073f cc4b 153f 79f7 cf3e b0ba 113f
00000030: 04fe 0d3f 7b56 0c3f b1f5 033f da60 903f
00000040: 0fe3 f13e eba0 e6be 37e2 013f 5726 0a3f
00000050: f2d2 19be 86c0 993e b030 9b3e cde6 033f
00000060: 3a20 08c0 b41e 043f 85f9 023f 6c04 ce3e
00000070: a637 e33e 4cee 1a3f cfb4 023f 5f38 fb3e

rwkv1.x_a f4 [1, 1, 32]
2.7068853 0.9118568 0.92295605 0.8652593 0.9791179 0.251467 0.7738833 1.0709869
0.63581234 0.5666667 0.26412925 0.37388048 0.5488381 0.7478385 0.6043902 -0.13724688
0.8784329 0.14606568 0.74331987 0.94353116 -0.013342446 0.20989832 0.55465096 0.9026162
1.4959903 0.7268865 0.26084152 0.5031084 0.39347497 0.62567216 0.5535761 0.5272577
00000000: 9c3d 2d40 726f 693f d946 6c3f a281 5d3f
00000010: 78a7 7a3f 48c0 803e 371d 463f 1916 893f
00000020: 99c4 223f 1211 113f f33b 873e 436d bf3e
00000030: a780 0c3f 5872 3f3f 51b9 1a3f 728a 0cbe
00000040: fbe0 603f 3e92 153e 364a 3e3f 428b 713f
00000050: 469a 5abc 96ef 563e 9bfd 0d3f db11 673f
00000060: 9c7c bf3f 3c15 3a3f 058d 853e b6cb 003f
00000070: 8d75 c93e 0d2c 203f 2ab7 0d3f 5cfa 063f

rwkv1.x_g f4 [1, 1, 32]
2.4577901 0.1992115 0.16383843 0.53118056 0.06247372 -0.13396847 0.24510403 -0.585077
0.46950316 0.8776155 0.7555844 0.2570997 0.67062044 0.5671061 0.40511122 1.9473614
-0.5870013 -0.12640542 -0.24673578 0.41231728 -1.472479 -1.1390504 1.269683 0.012572583
-1.1830283 0.9765178 -1.0084587 -0.64592505 -0.27919155 0.28815353 0.13726108 -0.3877938
00000000: 6f4c 1d40 19fe 4b3e 43c5 273e 73fb 073f
00000010: 72e4 7f3d 082f 09be 8dfc 7a3e 9bc7 15bf
00000020: b862 f03e 69ab 603f fb6d 413f 92a2 833e
00000030: c8ad 2b3f de2d 113f bd6a cf3e 2343 f93f
00000040: b845 16bf 6c70 01be 4ea8 7cbe 401b d33e
00000050: 317a bcbf 67cc 91bf f984 a23f 3cfd 4d3c
00000060: 796d 97bf 12fd 793f 2d15 81bf 585b 25bf
00000070: 32f2 8ebe dc88 933e 2b8e 0c3e e98c c6be

rwkv1.w1 f4 [32, 8]
-0.48085615 -0.57444376 0.45644495 -0.94085974 0.61022013 -0.8014505 0.20855476 -0.8432603
-0.031059004 0.8286065 -0.83329403 -0.09890123 -0.46320704 0.2721821 0.16177034 -0.19326435
-0.04267976 -0.7555346 0.65063405 -0.046390053 0.15158841 0.391847 -0.62331635 0.3557201
-0.23627698 -0.24946715 0.6367819 -0.7358634 0.03238389 -0.24959804 -0.012614357 -0.33197474
0.39754575 -0.40144107 -0.66171956 -0.12816207 0.14490767 0.34189117 -0.44381016 -0.09785645
0.26899135 0.34927008 0.3740905 1.5886059 -0.70634776 1.2169956 0.37958005 0.0075308965
0.3528543 0.2949093 -0.47629753 0.22081229 0.032160718 0.22149341 -0.7073598 0.4482171
0.3313043 0.5134318 -0.47425255 0.11722423 -0.5862167 0.29689246 -0.35666174 0.6990376
-0.31862235 0.1472276 0.13840216 -0.5286101 0.020463197 -0.2233154 -0.040741365 0.01859887
1.1697943 1.1092347 -0.71158487 -0.39380932 0.036420688 0.01815092 -1.3054659 -0.42894697
-1.6957477 -0.53725046 0.43815288 -0.40059155 0.81997424 -0.6110294 0.40063354 -1.2733796
0.3995373 0.65658206 -0.4423209 0.27191806 0.118672796 0.03512724 -0.55741566 0.35509196
0.56110275 0.33757508 -0.07425247 0.9781518 -0.8021853 0.77849513 -0.20334019 -0.31797567
-0.87747383 -0.6128455 -0.41050532 -0.18482022 -0.09425529 -0.2550907 -0.78054816 0.17893875
-0.89596033 -0.10103224 0.53582865 -0.18133405 -0.19782956 -0.38121244 0.5056518 -0.34378937
-0.18466981 -0.38897476 0.49999613 -0.7053793 0.27184284 -0.48276114 0.76317155 -0.39875078
-1.3740714 -0.035926875 -0.48792577 -0.51240003 -0.37090936 -0.5106356 0.7049602 -0.65551716
-0.36859298 -1.2096927 0.7648316 0.4566739 -1.0812942 1.0787563 1.0656909 1.3509086
0.29089087 -0.9992555 -0.08528188 -0.3131094 -0.20553511 -0.020183612 -0.81593215 -0.17164117
0.2369594 0.9781052 -1.3639965 1.7433945 -0.7581331 1.2077665 -1.011286 1.0409076
0.37252814 0.1665259 0.30937192 0.10537678 -0.10204006 0.44704077 0.30628476 1.5725704
0.8342953 0.55569285 -0.3577446 -0.7183572 0.41461828 -0.33074442 -0.1836556 0.30891874
0.4272017 1.1013335 -0.72645736 0.20877148 -0.6180502 -0.14849123 -0.85151815 2.1281853
0.39788905 -0.68372333 0.7609314 -0.38238022 0.31903535 -0.1179793 1.0317895 -0.081939854
-0.142429 -0.7856619 0.7230002 -1.0331546 0.1686976 -0.33498293 0.6705182 -0.29731125
1.0957413 0.795989 -0.25297087 0.79556805 -0.3206917 0.7847481 -0.27718922 -0.3720613
0.18933174 -0.6800014 0.5570532 -1.1502553 1.6627827 -1.1668606 0.7805008 -0.9817587
-0.20098269 -0.04535864 -0.22856551 -0.016517859 -0.17181991 0.070958585 0.23409067 -0.25453854
0.20586962 1.5841428 -1.4229097 0.18470146 -0.38460875 -0.28149164 -0.74833465 1.7409312
-0.66849643 0.029507069 -0.061759852 -0.26856062 0.030002654 -0.4958495 0.13543454 -0.46124172
0.37586966 -0.49361512 0.36215138 0.62178016 -0.33658022 0.4016802 -0.26415935 0.90852
-0.66100544 0.0063136695 0.21100183 -0.94246525 0.6214495 -0.43630964 -0.35307965 0.6977312
00000000: c732 f6be bf0e 13bf 27b3 e93e 2fdc 70bf
00000010: 6337 1c3f dc2b 4dbf 618f 553e e8df 57bf
00000020: 746f febc 8e1f 543f c252 55bf ba8c cabd
00000030: 7929 edbe 745b 8b3e 20a7 253e 17e7 45be
00000040: f9d0 2ebd b76a 41bf f48f 263f 7f03 3ebd
00000050: fe39 1b3e 2ca0 c83e a991 1fbf f220 b63e
00000060: 98f2 71be 5174 7fbe 2304 233f 8b61 3cbf
00000070: f8a4 043d a196 7fbe 73ac 4ebc 98f8 a9be
00000080: 1e8b cb3e af89 cdbe 7466 29bf eb3c 03be
00000090: ad62 143e 5c0c af3e 163b e3be f668 c8bd
000000a0: 3cb9 893e 87d3 b23e ca88 bf3e 7057 cb3f
000000b0: 35d3 34bf 83c6 9b3f 5158 c23e bdc5 f63b
000000c0: 52a9 b43e 5afe 963e 45dd f3be 9e1c 623e
000000d0: f5ba 033d 2bcf 623e 8815 35bf b67c e53e
000000e0: b8a0 a93e 4470 033f 3bd1 f2be 4213 f03d
000000f0: 4c12 16bf 4a02 983e 5e9c b6be 21f4 323f
00000100: 7822 a3be d5c2 163e 4cb9 0d3e fe52 07bf
00000110: 6fa2 a73c cbac 64be 6be0 26bd a85c 983c
00000120: d2bb 953f 67fb 8d3f 6d2a 36bf 60a1 c9be
00000130: dc2d 153d 3db1 943c 8219 a7bf f09e dbbe
00000140: 430e d9bf 3f89 09bf 9355 e03e 561a cdbe
00000150: d5e9 513f 6c6c 1cbf d71f cd3e 1afe a2bf
00000160: 2790 cc3e c315 283f e377 e2be d838 8b3e
00000170: b90a f33d 95e1 0f3d cbb2 0ebf 9dce b53e
00000180: 6ea4 0f3f a4d6 ac3e ae11 98bd 2868 7a3f
00000190: 045c 4dbf 754b 473f 6938 50be b5cd a2be
000001a0: 20a2 60bf 71e3 1cbf c12d d2be 8341 3dbe
000001b0: eb08 c1bd 409b 82be 01d2 47bf b83b 373e
000001c0: a85d 65bf fee9 cebd 112c 093f a2af 39be
000001d0: d593 4abe 472e c3be 6572 013f 2905 b0be
000001e0: 151a 3dbe b327 c7be 7eff ff3e bd93 34bf
000001f0: fc2e 8b3e 782c f7be 365f 433f 1029 ccbe
00000200: 92e1 afbf 0f28 13bd 68d1 f9be a62c 03bf
00000210: d5e7 bdbe 04b9 02bf 4678 343f f9cf 27bf
00000220: 38b8 bcbe 36d7 9abf 01cc 433f 29d1 e93e
00000230: d967 8abf b014 8a3f 8f68 883f 93ea ac3f
00000240: a6ef 943e 35cf 7fbf 44a8 aebd e04f a0be
00000250: cc77 52be 1a58 a5bc eee0 50bf b4c2 2fbe
00000260: 7ca5 723e 1a65 7a3f 7097 aebf 8d27 df3f
00000270: 0315 42bf 1898 9a3f d271 81bf 763c 853f
00000280: 02bc be3e c485 2a3e ff65 9e3e c8cf d73d
00000290: 61fa d0bd 87e2 e43e 5bd1 9c3e fd49 c93f
000002a0: 6094 553f e341 0e3f 4d2a b7be 42e6 37bf
000002b0: d948 d43e 5557 a9be 3710 3cbe 992a 9e3e
000002c0: 2eba da3e 7ff8 8c3f 1cf9 39bf 31c8 553e
000002d0: 8a38 1ebf 160e 18be 18fd 59bf 3034 0840
000002e0: 1db8 cb3e 7e08 2fbf 66cc 423f 57c7 c3be
000002f0: 9a58 a33e 229f f1bd ae11 843f 15d0 a7bd
00000300: e8d8 11be 2321 49bf 8b16 393f 693e 84bf
00000310: 10bf 2c3e e282 abbe 15a7 2b3f 2e39 98be
00000320: 4041 8c3f efc5 4b3f 6685 81be 59aa 4b3f
00000330: b431 a4be 40e5 483f bfeb 8dbe d27e bebe
00000340: 2ee0 413e 9214 2ebf 0a9b 0e3f 913b 93bf
00000350: 10d6 d43f b05b 95bf e7ce 473f 8a54 7bbf
00000360: 68ce 4dbe fbc9 39bd 140d 6abe 7650 87bc
00000370: 8ff1 2fbe bc52 913d 77b5 6f3e e052 82be
00000380: 7ccf 523e 31c5 ca3f e821 b6bf 6122 3d3e
00000390: 70eb c4be ac1f 90be dc92 3fbf d5d6 de3f
000003a0: 9522 2bbf cfb8 f13c e6f7 7cbd c780 89be
000003b0: 20c8 f53c fcdf fdbe 5aaf 0a3e e027 ecbe
000003c0: fd71 c03e 1fbb fcbe e86b b93e fc2c 1f3f
000003d0: 3e54 acbe 07a9 cd3e e53f 87be c494 683f
000003e0: a737 29bf e6e2 ce3b dd10 583e 6745 71bf
000003f0: 5017 1f3f fa63 dfbe dbc6 b4be 839e 323f

rwkv1.w2 f4 [8, 32]
-1.5679324 -2.10392 -1.582571 -1.8994923 -0.59986824 -0.8626286 -1.0791285 -2.600441
-1.2622938 -3.094371 -1.6247545 0.46564734 -5.069305 -0.71422637 -4.3613853 2.733074
-2.9630108 -3.150979 -3.3627303 2.3736062 2.264642 1.7002497 0.39465564 0.14450774
1.6935476 0.36328167 1.4004494 0.7918561 2.0056121 0.35140255 2.0576558 0.07045504
5.221754 3.5557628 5.175637 3.9100084 5.910903 1.9166666 5.2902274 4.2606206
5.659172 4.689981 4.4189186 -0.43148437 6.929967 2.0054142 -0.56400913 -0.2324463
5.8680344 5.6948805 5.9091954 -1.4597427 0.04167979 -1.0866865 1.8317151 -0.09206078
-0.9135716 1.8708273 -0.75981265 -0.3680383 -0.712498 0.31740525 -0.44300216 -0.54601175
-0.96620154 -1.3200133 -1.2004621 -1.2239604 -0.11125651 -1.3560475 -1.1415018 -1.5062146
-0.6613528 -1.3187585 -1.5064067 0.44867417 -1.4494143 -1.7338395 0.15833068 0.17336987
-1.5395017 -1.3784748 -1.148384 1.1501267 -0.53213996 0.8271465 -1.9805427 0.0079277
0.74909097 -1.9282404 0.6281856 0.34913403 0.7303597 -0.3393667 0.52188903 0.34481168
-1.7479823 -0.8931009 -1.8825667 -1.4580984 -2.4927156 -0.38246349 -1.8443279 -1.1533793
-1.918703 -1.210122 -2.6016028 -0.21175985 -1.2322305 0.56009424 -0.23613195 0.6941263
-1.5288333 -1.5502335 -1.5596645 -0.3112738 1.0973505 -0.047814343 1.6311016 0.019772232
-0.19564025 2.1787105 -0.17434582 -0.27968973 -0.37661883 0.29068595 -0.23593143 -0.40171838
2.7962043 1.3884137 2.3337638 1.7243876 3.3006494 1.8979086 2.395223 1.7554039
3.4947565 1.8869455 1.7598681 0.15937054 2.5362394 -0.55434823 0.21083808 -1.4767457
2.5806246 2.1476343 2.5327854 -0.08576319 -1.6860805 -0.15131356 -0.80262667 -0.07168297
0.06448984 -0.84685653 -0.0063211583 0.10677723 0.21025102 -0.3196501 0.120249815 0.26260686
-2.6497335 -0.7929273 -2.0495744 -1.0740237 -2.5372763 -0.46604258 -1.9404652 -1.6325175
-2.1980064 -1.4476558 -1.3827006 -0.29726487 -1.4914004 0.5450713 -0.109291255 0.4562921
-1.8930023 -1.4651123 -1.7521247 -0.36882308 1.6663615 -0.061319288 1.0962347 0.04040508
-0.25333375 1.8976562 -0.17781341 -0.23395912 -0.410637 0.36662826 -0.28561926 -0.36026853
-6.234859 -4.316985 -5.811768 -4.937314 -8.01229 -2.7021382 -6.19109 -5.8277154
-7.396451 -5.8670993 -4.6156206 0.8020518 -7.942088 -1.9220272 0.34423825 0.1575669
-5.662749 -5.0568705 -6.459927 1.8816552 0.29184034 1.380433 -1.7947539 0.087738976
1.0946903 -1.7950929 0.83211595 0.38641736 0.8265069 -0.27547354 0.51187783 0.8926895
-2.4764423 -2.3103523 -2.750513 -2.2688823 -3.6678617 -0.79955506 -3.7394686 -2.797016
-3.373293 -2.7756412 -1.727997 0.33957452 -4.0852585 -8.355054 -9.986313 1.8131052
-3.5699184 -3.2848852 -3.7108135 2.723309 2.235442 2.0649207 0.42315656 0.10835136
1.8926574 0.41888362 1.4158211 0.74823433 2.5480897 0.37849054 2.4248068 0.038631395
00000000: 02b2 c8bf a0a6 06c0 b091 cabf 9022 f3bf
00000010: f790 19bf 3ad5 5cbf e220 8abf a06d 26c0
00000020: d892 a1bf 2d0a 46c0 f5f7 cfbf 5469 ee3e
00000030: bf37 a2c0 8ad7 36bf 7890 8bc0 afea 2e40
00000040: f8a1 3dc0 a4a9 49c0 f936 57c0 2ae9 1740
00000050: e5ef 1040 c8a1 d93f 4e10 ca3e d6f9 133e
00000060: 2bc6 d83f 0e00 ba3e ed41 b33f 15b7 4a3f
00000070: f35b 0040 09eb b33e a2b0 0340 bb4a 903d
00000080: 9c18 a740 9e91 6340 d19e a540 943d 7a40
00000090: 1e26 bd40 5555 f53f 8b49 a940 0157 8840
000000a0: f017 b540 5314 9640 c867 8d40 85eb dcbe
000000b0: 4ac2 dd40 b558 0040 e762 10bf 6706 6ebe
000000c0: f0c6 bb40 763c b640 2118 bd40 d9d8 babf
000000d0: 6db8 2a3d 8b18 8bbf a475 ea3f 5d8a bcbd
000000e0: d4df 69bf 4577 ef3f 1583 42bf 846f bcbe
000000f0: 4566 36bf f182 a23e 2ed1 e2be 6dc7 0bbf
00000100: fc58 77bf 32f6 a8bf bea8 99bf bcaa 9cbf
00000110: 74da e3bd f792 adbf bb1c 92bf a4cb c0bf
00000120: 6b4e 29bf 14cd a8bf efd1 c0bf 9fb8 e53e
00000130: 6886 b9bf 74ee ddbf 7021 223e df87 313e
00000140: 640e c5bf dd71 b0bf 3ffe 92bf 5a37 933f
00000150: 533a 08bf dfbf 533f 6c82 fdbf 2fe3 013c
00000160: 6dc4 3f3f 95d0 f6bf c5d0 203f b2c1 b23e
00000170: daf8 3a3f 79c1 adbe 859a 053f 288b b03e
00000180: e2bd dfbf 43a2 64bf f2f7 f0bf f8a2 babf
00000190: a788 1fc0 41d2 c3be f012 ecbf efa1 93bf
000001a0: 0f98 f5bf 47e5 9abf a980 26c0 93d7 58be
000001b0: bbb9 9dbf 5662 0f3f 93cc 71be 43b2 313f
000001c0: cfb0 c3bf 0d6e c6bf 16a3 c7bf 485f 9fbe
000001d0: fb75 8c3f f9d8 43bd f0c7 d03f 60f9 a13c
000001e0: eb55 48be fe6f 0b40 b687 32be 7e33 8fbe
000001f0: 2fd4 c0be cad4 943e 0298 71be 08ae cdbe
00000200: 03f5 3240 8ab7 b13f 635c 1540 bcb8 dc3f
00000210: d73d 5340 abee f23f 554b 1940 13b1 e03f
00000220: 17aa 5f40 6e87 f13f 5c43 e13f 0832 233e
00000230: bf51 2240 c4e9 0dbf f0e5 573e 0106 bdbf
00000240: f428 2540 d772 0940 2819 2240 9da4 afbd
00000250: 7cd1 d7bf f1f1 1abe f178 4dbf 85ce 92bd
00000260: 4013 843d 97cb 58bf b821 cfbb 05ae da3d
00000270: 0b4c 573e 2ea9 a3be 8945 f63d 6874 863e
00000280: 3c95 29c0 49fd 4abf 3a2c 03c0 9c79 89bf
00000290: bc62 22c0 229d eebe 2a61 f8bf 55f6 d0bf
000002a0: 23ac 0cc0 c94c b9bf 55fc b0bf 1a33 98be
000002b0: 35e6 bebf cb89 0b3f 18d4 dfbd 1e9f e93e
000002c0: e64d f2bf cd88 bbbf 9f45 e0bf 61d6 bcbe
000002d0: 554b d53f ef29 7bbd 6b51 8c3f cc7f 253d
000002e0: f6b4 81be 66e6 f23f b814 36be fb92 6fbe
000002f0: 033f d2be b3b6 bb3e b03c 92be 1e75 b8be
00000300: f783 c7c0 be24 8ac0 01fa b9c0 7afe 9dc0
00000310: 5732 00c1 d5ef 2cc0 691d c6c0 a57c bac0
00000320: baaf ecc0 47bf bbc0 2ab3 93c0 4453 4d3f
00000330: 9625 fec0 fd04 f6bf ff3f b03e 3859 213e
00000340: 3d35 b5c0 e2d1 a1c0 b9b7 cec0 14da f03f
00000350: 196c 953e 07b2 b03f 7fba e5bf 7eb0 b33d
00000360: d01e 8c3f 9bc5 e5bf 8d05 553f 7fd8 c53e
00000370: f595 533f de0a 8dbe 6d0a 033f 4d87 643f
00000380: 087e 1ec0 d0dc 13c0 6808 30c0 5e35 11c0
00000390: 3fbe 6ac0 a4af 4cbf 7453 6fc0 4f02 33c0
000003a0: 08e4 57c0 1ba4 31c0 012f ddbf b6dc ad3e
000003b0: 70ba 82c0 4dae 05c1 f0c7 1fc1 d513 e83f
000003c0: 8b79 64c0 8f3b 52c0 f87d 6dc0 b24a 2e40
000003d0: 7b11 0f40 a927 0440 faa7 d83e 51e7 dd3d
000003e0: 9942 f23f ea77 d63e a039 b53f 498c 3f3f
000003f0: e713 2340 83c9 c13e 0930 1b40 f43b 1e3d

rwkv1.w0 f4 [1, 1, 32]
-13.875152 -15.570902 -14.824769 -15.398376 -14.244401 -14.13296 -13.725767 -14.658804
-15.323632 -14.367457 -13.585174 -2.5186207 -15.146311 -2.4846144 -0.94541603 0.20828097
-10.635973 -10.038538 -9.497622 0.535947 -1.1580161 0.7865659 -2.9317987 -0.918938
0.9431438 -2.896469 1.08528 0.5825457 1.6806481 1.1433612 2.712995 4.9318237
00000000: 9f00 5ec1 6a22 79c1 4132 6dc1 c05f 76c1
00000010: 11e9 63c1 9b20 62c1 be9c 5bc1 768a 6ac1
00000020: 992d 75c1 1be1 65c1 df5c 59c1 1531 21c0
00000030: 4a57 72c1 ec03 1fc0 c906 72bf 9b47 553e
00000040: f22c 2ac1 da9d 20c1 42f6 17c1 d333 093f
00000050: df39 94bf 625c 493f 97a2 3bc0 853f 6bbf
00000060: df71 713f c05f 39c0 74ea 8a3f b721 153f
00000070: 7a1f d73f a959 923f b6a1 2d40 80d1 9d40

rwkv1.a1 f4 [32, 8]
-0.26671308 0.1850309 0.23597047 0.6795383 0.290997 0.08742816 -0.12487054 -0.7021766
0.88680595 0.7148843 0.07265502 -0.13437252 -0.31355554 -0.67496604 -0.69159216 -0.13751334
1.2002368 1.0760661 -0.078425474 -0.45292598 -0.014480682 1.3824497 0.4442561 -0.82735515
-1.1148852 -1.0955669 -1.190659 -0.27828255 0.23440012 -0.10241528 -0.32214123 -0.40548462
-0.8182123 -0.5214233 0.00025270192 -1.2598569 -0.2276442 -0.49827302 1.2802743 -1.0773758
-1.3498325 1.0523052 1.1245993 0.63554823 -0.3863468 -0.9596761 -0.24218164 -0.28366673
-0.7586701 0.4186547 -1.0517198 0.6470808 -1.715994 -0.067937605 -0.37969542 -0.40012452
0.28552875 -0.343161 -0.79644114 1.5854398 -0.275982 0.72709966 -0.20114584 0.57218456
0.35542503 0.63850427 -0.09067279 0.39545363 -0.53411007 -0.028994689 0.55443627 -0.1965961
0.2023784 -1.2617087 -0.9890451 -0.76301706 -0.29935342 -0.87423 -0.5425695 -0.38783407
-0.081979394 1.3207657 -0.40471345 -0.20855169 0.12805682 -0.25416088 0.37492293 0.71283585
-0.8893936 0.6061446 0.19239923 0.18693258 0.4482469 0.22761104 0.4677139 -0.24034634
-0.85111845 0.30630717 -0.27430812 -0.1388363 1.1237291 0.5162146 0.6226884 0.23186761
0.95386535 -1.0500244 0.29670376 0.69567156 -1.2792039 -1.3102597 0.65520585 0.26463923
-0.33725137 -0.110483795 0.22725533 -0.09497546 0.23200168 -0.2993934 -0.016108746 0.13028948
0.15138042 -0.86015767 0.32027978 -1.3305051 0.13103531 -0.36142704 0.09620141 -0.101139404
-0.5141887 0.045310833 -1.0179302 -0.13737382 1.283443 0.53187126 0.079970084 0.3705572
-0.16694094 -0.36350682 0.4865029 -0.7667541 0.075670786 -0.6020784 0.24518242 -0.37994257
-0.34022653 0.27364826 0.68764 -0.36365974 0.6291185 0.24278674 -0.54806656 0.22663468
-1.0986537 0.5795875 1.3512139 0.15508133 -0.5824404 1.1200736 -0.4898586 0.17169423
-0.23601684 0.17244038 -0.2495158 0.31463024 0.2781226 0.1861048 0.18952629 -0.9840797
0.94762444 -0.62980145 -0.3294146 0.087886095 0.26846555 0.81230575 -1.2075903 0.7151669
-0.45565295 -0.042149417 0.18144754 1.5891949 0.27366668 0.4197542 1.3151014 0.75260955
0.26333818 0.11165396 -0.2206095 0.013683213 0.3942501 -1.5926703 -0.8802103 0.31553757
0.22263344 0.34634343 -0.233839 -0.12497765 0.20345722 -0.9360522 0.048759032 0.18374063
0.8054671 0.06719117 -0.9341321 0.71813 -0.14037867 0.48454627 0.15828936 0.014624493
-0.39427313 -0.37292042 0.37823316 -0.21598725 0.46656498 0.61925936 0.68466026 -0.5126357
0.5478701 0.5780456 -0.17149185 0.049504675 0.045506433 0.54626393 -0.04793463 -0.6232794
0.6897336 -1.1599159 -0.69556475 -0.27527958 -0.090440616 -0.1102422 -0.42324644 0.69338584
-0.17073506 -0.009019629 -0.050941426 0.054900255 0.07822243 0.0777764 -0.22327678 -0.053325735
-0.2876663 -0.19162576 -0.2865258 0.39628366 0.45613933 0.13650428 0.9579323 0.3455592
0.09545034 -0.0022004389 0.4081157 0.2617104 -0.12071442 -0.06123988 0.27380806 0.4728396
00000000: 9e8e 88be be78 3d3e 3ea2 713e 39f6 2d3f
00000010: 8ffd 943e 890d b33d 20bc ffbd d8c1 33bf
00000020: b705 633f a802 373f 28cc 943d f398 09be
00000030: 5a8a a0be 93ca 2cbf 2f0c 31bf 4cd0 0cbe
00000040: 5ca1 993f 89bc 893f 899d a0bd eae5 e7be
00000050: 6240 6dbc 1df4 b03f 8975 e33e 8ccd 53bf
00000060: 8fb4 8ebf 893b 8cbf 8467 98bf 0d7b 8ebe
00000070: 9606 703e 1abf d1bd b2ef a4be ae9b cfbe
00000080: 5c76 51bf ff7b 05bf 147d 8439 fe42 a1bf
00000090: 901b 69be a41d ffbe 07e0 a33f 73e7 89bf
000000a0: 50c7 acbf f0b1 863f dff2 8f3f 4ab3 223f
000000b0: 3fcf c5be 55ad 75bf 77fe 77be c43c 91be
000000c0: 3438 42bf e959 d63e c19e 86bf 16a7 253f
000000d0: b1a5 dbbf df22 8bbd 7067 c2be 1fdd ccbe
000000e0: d330 923e ccb2 afbe 91e3 4bbf b1ef ca3f
000000f0: 834d 8dbe 3423 3a3f 2df9 4dbe b07a 123f
00000100: 45fa b53e 0475 233f a8b2 b9bd e678 ca3e
00000110: 70bb 08bf 4586 edbc 89ef 0d3f 7d50 49be
00000120: 493c 4f3e ac7f a1bf 0f32 7dbf 1655 43bf
00000130: da44 99be 8acd 5fbf d6e5 0abf 3092 c6be
00000140: d0e4 a7bd da0e a93f 9a36 cfbe 938e 55be
00000150: 5421 033e 6021 82be e6f5 bf3e 697c 363f
00000160: 4daf 63bf 4b2c 1b3f 4e04 453e 416b 3f3e
00000170: 9e80 e53e de12 693e 3278 ef3e 5a1d 76be
00000180: e6e2 59bf 4bd4 9c3e 1d72 8cbe 1a2b 0ebe
00000190: 5bd6 8f3f a426 043f 8268 1f3f b46e 6d3e
000001a0: 8530 743f 3367 86bf 8ee9 973e 8817 323f
000001b0: f4bc a3bf 97b6 a7bf 92bb 273f cb7e 873e
000001c0: 36ac acbe 5445 e2bd 9fb5 683e 7e82 c2bd
000001d0: d991 6d3e 174a 99be 7df6 83bc 9b6a 053e
000001e0: 7803 1b3e 4b33 5cbf b6fb a33e fe4d aabf
000001f0: 1f2e 063e f70c b9be 3f05 c53d 2d22 cfbd
00000200: dfa1 03bf da97 393d 894b 82bf b9ab 0cbe
00000210: dc47 a43f b728 083f 5bc7 a33d acb9 bd3e
00000220: 91f2 2abe 911d babe e816 f93e ff49 44bf
00000230: 49f9 9a3d cf21 1abf 1a11 7b3e d587 c2be
00000240: 2c32 aebe a01b 8c3e 2d09 303f 9c31 babe
00000250: e90d 213f 169d 783e 174e 0cbf ec12 683e
00000260: afa0 8cbf d95f 143f 94f4 ac3f a4cd 1e3e
00000270: d01a 15bf 925e 8f3f bfce fabe 9dd0 2f3e
00000280: 66ae 71be 3694 303e 1281 7fbe 3717 a13e
00000290: 1666 8e3e 4292 3e3e 2e13 423e a6ec 7bbf
000002a0: 8497 723f ab3a 21bf 08a9 a8be a0fd b33d
000002b0: 5174 893e 45f3 4f3f 5292 9abf 2e15 373f
000002c0: 584b e9be dea4 2cbd 62cd 393e bd6a cb3f
000002d0: 0a1e 8c3e 06ea d63e 3e55 a83f 05ab 403f
000002e0: 43d4 863e d5aa e43d 75e7 61be 8e2f 603c
000002f0: 26db c93e 9fdc cbbf 7655 61bf 248e a13e
00000300: 05fa 633e ed53 b13e 7e73 6fbe 48f4 ffbd
00000310: 1757 503e 1ea1 6fbf 8db7 473d 8126 3c3e
00000320: 1833 4e3f 869b 893d 4823 6fbf 5ed7 373f
00000330: 6dbf 0fbe 7316 f83e 9b16 223e 929b 6f3c
00000340: 2bde c9be 6def bebe c7a7 c13e c32b 5dbe
00000350: 9be1 ee3e c887 1e3f e545 2f3f 183c 03bf
00000360: 3741 0c3f ccfa 133f 8f9b 2fbe 6ac5 4a3d
00000370: f464 3a3d f4d7 0b3f 1a57 44bd 3d8f 1fbf
00000380: 6292 303f 2078 94bf 8810 32bf 72f1 8cbe
00000390: ee38 b9bd aac6 e1bd c2b3 d8be bc81 313f
000003a0: 2cd5 2ebe 11c7 13bc f5a7 50bd 17df 603d
000003b0: 1533 a03d 3c49 9f3d aba2 64be 166c 5abd
000003c0: ff48 93be 8b39 44be 82b3 92be b1e5 ca3e
000003d0: 188b e93e c7c7 0b3e 0d3b 753f 23ed b03e
000003e0: 787b c33d 3d35 10bb 8bf4 d03e e8fe 853e
000003f0: 1f39 f7bd abd6 7abd 9230 8c3e 0818 f23e

rwkv1.a2 f4 [8, 32]
0.40989158 -0.37386826 -0.1485751 0.100726634 0.23370916 0.4626485 0.009069578 -0.10092487
0.29863277 -0.31269827 -1.2537713 2.0177872 -0.110839374 1.6384269 0.91557115 0.18531823
-0.68596625 1.1473696 -0.48027486 -0.026216965 -0.28698647 0.38784552 0.19480848 0.045883466
-0.4693539 3.6762488 1.9790759 0.52945656 0.510765 -0.09161532 0.20893556 -0.5002792
0.36591703 0.78774685 0.14745319 0.27228132 0.6393141 0.81819725 1.2396277 0.7363936
0.42340696 0.06912873 0.46006402 1.1148514 0.47521117 0.6206362 -0.12537569 0.1563628
0.85408443 0.87936556 1.1678463 1.8627976 -0.15464692 3.601947 0.003958597 0.31292406
1.7648556 -0.5100729 0.2501595 -0.51295227 1.9039401 -1.7168634 1.6960511 -0.42051315
-0.031404607 0.09291778 0.7918183 -1.126628 0.061509345 -0.098818526 0.08048483 0.49498832
-0.11241621 -1.0848981 -0.04876965 0.02024086 -0.053591326 2.2342584 1.2849557 0.5471577
0.33240032 0.0023018809 0.26636612 0.13786158 1.946125 -0.4340446 0.6741925 -0.21449228
0.37604228 0.85337013 0.09976788 -0.09721215 0.14584763 0.13051175 1.273599 0.11169147
0.12084091 0.01900157 0.44259408 0.8452949 0.6194414 -0.6852435 1.5512608 0.10931073
-0.24717546 0.55680573 -0.32858762 -1.0661074 0.73832905 4.02579 6.2050505 0.057826128
0.48730525 0.6564299 0.81290776 1.4437279 0.8817243 1.9665303 1.0422399 -0.69214016
1.7115844 -2.8863316 -0.07680753 -1.6142282 0.8130477 -0.97490287 0.41891113 1.0441626
0.63384324 0.67927927 0.6213291 0.11122865 0.34851366 0.16104652 0.9100156 -0.87706244
0.3507712 0.05253101 0.37311208 1.6945004 0.33237615 3.032386 2.411783 0.362502
0.36961228 1.2437571 -0.11603367 1.4015486 1.3694679 1.6074686 0.70224917 -0.30962983
1.6820698 2.8640795 0.8641879 -0.66366893 1.1546726 -1.1324277 1.205204 0.6168308
-0.8404925 0.021922348 -0.11501142 -0.5804592 -0.49894458 0.2182059 -0.21613792 -0.30136028
-0.5066146 -0.51123214 -0.4235152 -2.661125 0.019000946 -3.030014 -1.5094514 -0.593122
-0.32148832 -0.67266184 -0.61973184 -1.7034273 -1.3329015 -0.967808 -0.6111557 0.08223379
-0.986582 -5.3819475 -1.5700647 0.6268038 -1.7546612 1.3063498 -1.0631816 -0.36045164
0.04855833 0.2974085 1.3660116 0.20104867 -0.807469 0.19629617 -0.5731869 0.36085656
0.15229209 0.43358552 0.09506667 -0.29999226 -0.26079845 0.43397656 -0.71736515 -0.19701767
0.4232895 -0.8386506 0.9922859 0.85709745 -1.553501 0.3795323 -0.31777513 0.31738466
-0.21750861 0.32163414 0.3717865 0.034792196 0.3904878 -0.5373943 0.695858 -0.42789257
-0.08052797 -0.6235241 0.46090665 0.006757614 0.7041285 -0.74003994 -0.65864676 -0.2395589
-0.28230724 -0.032873694 -0.2960684 1.0829288 0.69423234 -2.6047013 -1.858299 -0.6147939
0.37258634 0.14551352 0.16622895 -0.9516679 -2.5520318 -1.1041676 -1.4673398 0.90104675
-0.8323685 -0.20801437 -0.8004895 0.41799408 -0.98726714 0.34501228 -0.82418567 -1.2477815
00000000: 4fdd d13e a96b bfbe 1224 18be c449 ce3d
00000010: 7451 6f3e 44e0 ec3e 9198 143c b3b1 cebd
00000020: 65e6 983e fd19 a0be 947b a0bf 6d23 0140
00000030: c1ff e2bd f9b7 d13f df62 6a3f 10c4 3d3e
00000040: 7c9b 2fbf 02dd 923f 96e6 f5be f6c4 d6bc
00000050: e4ef 92be b093 c63e e07b 473e 4df0 3b3d
00000060: 284f f0be a947 6b40 5c52 fd3f 778a 073f
00000070: 7fc1 023f d0a0 bbbd 34f3 553e 4c12 00bf
00000080: 7a59 bb3e c7a9 493f f8fd 163e 7568 8b3e
00000090: 17aa 233f 6075 513f 1fac 9e3f 4a84 3c3f
000000a0: ccc8 d83e 5d93 8d3d 838d eb3e 73b3 8e3f
000000b0: e14e f33e 04e2 1e3f 7c62 00be 921d 203e
000000c0: 47a5 5a3f 1a1e 613f fd7b 953f 2770 ee3f
000000d0: c35b 1ebe 4d86 6640 1eb7 813b 9537 a03e
000000e0: cae6 e13f 2394 02bf e814 803e d750 03bf
000000f0: 4fb4 f33f 2ec2 dbbf 3418 d93f 804d d7be
00000100: 1ea2 00bd ad4b be3d 9bb4 4a3f 5935 90bf
00000110: 39f1 7b3d 5e61 cabd 3bd5 a43d 1c6f fd3e
00000120: 783a e6bd f1dd 8abf afc2 47bd 29d0 a53c
00000130: 9482 5bbd 17fe 0e40 6e79 a43f 8712 0c3f
00000140: 6030 aa3e 27db 163b 2461 883e 962b 0d3e
00000150: a01a f93f 183b debe e197 2c3f dda3 5bbe
00000160: 9d88 c03e 7776 5a3f 1a53 cc3d 2a17 c7bd
00000170: 1559 153e dfa4 053e 4b05 a33f 7fbe e43d
00000180: 707b f73d 2ea9 9b3c b19b e23e 3f65 583f
00000190: b693 1e3f 1e6c 2fbf b78f c63f 4ede df3d
000001a0: 901b 7dbe d28a 0e3f a33c a8be 3576 88bf
000001b0: 2203 3d3f 46d3 8040 c68f c640 17db 6c3d
000001c0: 1380 f93e ca0b 283f b91a 503f 13cc b83f
000001d0: afb8 613f 44b7 fb3f 1e68 853f 1930 31bf
000001e0: 3315 db3f a8b9 38c0 444d 9dbd 089f cebf
000001f0: e523 503f 3c93 79bf 857b d63e 1fa7 853f
00000200: 8d43 223f 3fe5 2d3f 6d0f 1f3f d9cb e33d
00000210: 6270 b23e 61e9 243e c8f6 683f 2a87 60bf
00000220: 4898 b33e c22a 573d 8c08 bf3e 64e5 d83f
00000230: 352d aa3e 9d12 4240 a75a 1a40 dd99 b93e
00000240: d23d bd3e 6f33 9f3f 10a3 edbd f265 b33f
00000250: b94a af3f 88c1 cd3f 9ac6 333f cd87 9ebe
00000260: 104e d73f 144d 3740 6b3b 5d3f 35e6 29bf
00000270: 50cc 933f 64f3 90bf 2044 9a3f a0e8 1d3f
00000280: 842a 57bf 7f96 b33c 1b8b ebbd f998 14bf
00000290: aa75 ffbe 5e71 5f3e 4253 5dbe e54b 9abe
000002a0: 7fb1 01bf 1ce0 02bf fcd6 d8be df4f 2ac0
000002b0: dfa7 9b3c c0eb 41c0 b435 c1bf d8d6 17bf
000002c0: 1e9a a4be 9133 2cbf bfa6 1ebf e809 dabf
000002d0: 849c aabf 44c2 77bf b374 1cbf 306a a83d
000002e0: a390 7cbf ea38 acc0 e1f7 c8bf 3776 203f
000002f0: bd98 e0bf 7836 a73f 5616 88bf 1e8d b8be
00000300: 19e5 463d ed45 983e 78d9 ae3f b4df 4d3e
00000310: 4ab6 4ebf dd01 493e 60bc 12bf 31c2 b83e
00000320: 75f2 1b3e ecfe dd3e 50b2 c23d 9698 99be
00000330: 6087 85be 2d32 de3e 3ea5 37bf 00bf 49be
00000340: 67b9 d83e ceb1 56bf 7306 7e3f bd6a 5b3f
00000350: 1fd9 c6bf 0f52 c23e 6cb3 a2be 3e80 a23e
00000360: 94ba 5ebe 3bad a43e cd5a be3e 4382 0e3d
00000370: 04ee c73e ac92 09bf c023 323f bc14 dbbe
00000380: d9eb a4bd 479f 1fbf f5fb eb3e fa6e dd3b
00000390: c441 343f 4273 3dbf 139d 28bf ee4e 75be
000003a0: 938a 90be 91a6 06bd 4796 97be 699d 8a3f
000003b0: 36b9 313f 6db3 26c0 bedc edbf 2263 1dbf
000003c0: a3c3 be3e 7f01 153e ec37 2a3e 82a0 73bf
000003d0: 7d54 23c0 5d55 8dbf cad1 bbbf 00ab 663f
000003e0: 1a16 55bf b801 55be e1ec 4cbf 5203 d63e
000003f0: 8abd 7cbf 73a5 b03e d5fd 52bf 4eb7 9fbf

rwkv1.a0 f4 [1, 1, 32]
-1.1505495 -1.3655133 -0.2879023 -0.2141153 -0.19198522 -0.44807684 0.234811 -0.106790476
-0.5440615 0.15243006 -0.6365583 3.2894108 -0.32414418 -1.7122188 -0.82147646 2.481163
-1.0209031 -0.86274 -0.82899207 -0.026123047 1.9189621 0.653099 1.2318813 0.71641725
0.8486696 1.0129787 1.5734733 -3.0504107 -0.01577833 -0.43485814 -0.5208427 2.1941962
00000000: 3545 93bf 24c9 aebf ee67 93be 0b41 5bbe
00000010: c697 44be 546a e5be 4b72 703e f7b4 dabd
00000020: 9d47 0bbf a016 1c3e 7cf5 22bf b585 5240
00000030: 3af6 a5be fc29 dbbf 484c 52bf 60cb 1e40
00000040: f4ac 82bf 87dc 5cbf d338 54bf 0000 d6bc
00000050: 8da0 f53f 7f31 273f 49ae 9d3f 1f67 373f
00000060: 6942 593f 49a9 813f 9367 c93f ee39 43c0
00000070: 8e41 81bc baa5 debe f255 05bf b66d 0c40

rwkv1.v1 f4 [32, 8]
0.0 0.0 0.0 0.0 0.0 0.0 0.0 0.0
0.0 0.0 0.0 0.0 0.0 0.0 0.0 0.0
0.0 0.0 0.0 0.0 0.0 0.0 0.0 0.0
0.0 0.0 0.0 0.0 0.0 0.0 0.0 0.0
0.0 0.0 0.0 0.0 0.0 0.0 0.0 0.0
0.0 0.0 0.0 0.0 0.0 0.0 0.0 0.0
0.0 0.0 0.0 0.0 0.0 0.0 0.0 0.0
0.0 0.0 0.0 0.0 0.0 0.0 0.0 0.0
0.0 0.0 0.0 0.0 0.0 0.0 0.0 0.0
0.0 0.0 0.0 0.0 0.0 0.0 0.0 0.0
0.0 0.0 0.0 0.0 0.0 0.0 0.0 0.0
0.0 0.0 0.0 0.0 0.0 0.0 0.0 0.0
0.0 0.0 0.0 0.0 0.0 0.0 0.0 0.0
0.0 0.0 0.0 0.0 0.0 0.0 0.0 0.0
0.0 0.0 0.0 0.0 0.0 0.0 0.0 0.0
0.0 0.0 0.0 0.0 0.0 0.0 0.0 0.0
0.0 0.0 0.0 0.0 0.0 0.0 0.0 0.0
0.0 0.0 0.0 0.0 0.0 0.0 0.0 0.0
0.0 0.0 0.0 0.0 0.0 0.0 0.0 0.0
0.0 0.0 0.0 0.0 0.0 0.0 0.0 0.0
0.0 0.0 0.0 0.0 0.0 0.0 0.0 0.0
0.0 0.0 0.0 0.0 0.0 0.0 0.0 0.0
0.0 0.0 0.0 0.0 0.0 0.0 0.0 0.0
0.0 0.0 0.0 0.0 0.0 0.0 0.0 0.0
0.0 0.0 0.0 0.0 0.0 0.0 0.0 0.0
0.0 0.0 0.0 0.0 0.0 0.0 0.0 0.0
0.0 0.0 0.0 0.0 0.0 0.0 0.0 0.0
0.0 0.0 0.0 0.0 0.0 0.0 0.0 0.0
0.0 0.0 0.0 0.0 0.0 0.0 0.0 0.0
0.0 0.0 0.0 0.0 0.0 0.0 0.0 0.0
0.0 0.0 0.0 0.0 0.0 0.0 0.0 0.0
0.0 0.0 0.0 0.0 0.0 0.0 0.0 0.0
00000000: 0000 0000 0000 0000 0000 0000 0000 0000
00000010: 0000 0000 0000 0000 0000 0000 0000 0000
00000020: 0000 0000 0000 0000 0000 0000 0000 0000
00000030: 0000 0000 0000 0000 0000 0000 0000 0000
00000040: 0000 0000 0000 0000 0000 0000 0000 0000
00000050: 0000 0000 0000 0000 0000 0000 0000 0000
00000060: 0000 0000 0000 0000 0000 0000 0000 0000
00000070: 0000 0000 0000 0000 0000 0000 0000 0000
00000080: 0000 0000 0000 0000 0000 0000 0000 0000
00000090: 0000 0000 0000 0000 0000 0000 0000 0000
000000a0: 0000 0000 0000 0000 0000 0000 0000 0000
000000b0: 0000 0000 0000 0000 0000 0000 0000 0000
000000c0: 0000 0000 0000 0000 0000 0000 0000 0000
000000d0: 0000 0000 0000 0000 0000 0000 0000 0000
000000e0: 0000 0000 0000 0000 0000 0000 0000 0000
000000f0: 0000 0000 0000 0000 0000 0000 0000 0000
00000100: 0000 0000 0000 0000 0000 0000 0000 0000
00000110: 0000 0000 0000 0000 0000 0000 0000 0000
00000120: 0000 0000 0000 0000 0000 0000 0000 0000
00000130: 0000 0000 0000 0000 0000 0000 0000 0000
00000140: 0000 0000 0000 0000 0000 0000 0000 0000
00000150: 0000 0000 0000 0000 0000 0000 0000 0000
00000160: 0000 0000 0000 0000 0000 0000 0000 0000
00000170: 0000 0000 0000 0000 0000 0000 0000 0000
00000180: 0000 0000 0000 0000 0000 0000 0000 0000
00000190: 0000 0000 0000 0000 0000 0000 0000 0000
000001a0: 0000 0000 0000 0000 0000 0000 0000 0000
000001b0: 0000 0000 0000 0000 0000 0000 0000 0000
000001c0: 0000 0000 0000 0000 0000 0000 0000 0000
000001d0: 0000 0000 0000 0000 0000 0000 0000 0000
000001e0: 0000 0000 0000 0000 0000 0000 0000 0000
000001f0: 0000 0000 0000 0000 0000 0000 0000 0000
00000200: 0000 0000 0000 0000 0000 0000 0000 0000
00000210: 0000 0000 0000 0000 0000 0000 0000 0000
00000220: 0000 0000 0000 0000 0000 0000 0000 0000
00000230: 0000 0000 0000 0000 0000 0000 0000 0000
00000240: 0000 0000 0000 0000 0000 0000 0000 0000
00000250: 0000 0000 0000 0000 0000 0000 0000 0000
00000260: 0000 0000 0000 0000 0000 0000 0000 0000
00000270: 0000 0000 0000 0000 0000 0000 0000 0000
00000280: 0000 0000 0000 0000 0000 0000 0000 0000
00000290: 0000 0000 0000 0000 0000 0000 0000 0000
000002a0: 0000 0000 0000 0000 0000 0000 0000 0000
000002b0: 0000 0000 0000 0000 0000 0000 0000 0000
000002c0: 0000 0000 0000 0000 0000 0000 0000 0000
000002d0: 0000 0000 0000 0000 0000 0000 0000 0000
000002e0: 0000 0000 0000 0000 0000 0000 0000 0000
000002f0: 0000 0000 0000 0000 0000 0000 0000 0000
00000300: 0000 0000 0000 0000 0000 0000 0000 0000
00000310: 0000 0000 0000 0000 0000 0000 0000 0000
00000320: 0000 0000 0000 0000 0000 0000 0000 0000
00000330: 0000 0000 0000 0000 0000 0000 0000 0000
00000340: 0000 0000 0000 0000 0000 0000 0000 0000
00000350: 0000 0000 0000 0000 0000 0000 0000 0000
00000360: 0000 0000 0000 0000 0000 0000 0000 0000
00000370: 0000 0000 0000 0000 0000 0000 0000 0000
00000380: 0000 0000 0000 0000 0000 0000 0000 0000
00000390: 0000 0000 0000 0000 0000 0000 0000 0000
000003a0: 0000 0000 0000 0000 0000 0000 0000 0000
000003b0: 0000 0000 0000 0000 0000 0000 0000 0000
000003c0: 0000 0000 0000 0000 0000 0000 0000 0000
000003d0: 0000 0000 0000 0000 0000 0000 0000 0000
000003e0: 0000 0000 0000 0000 0000 0000 0000 0000
000003f0: 0000 0000 0000 0000 0000 0000 0000 0000
