RWKV-v8/260123_reverse_L2.pth (torch, 183085 bytes, 99 tensors)

e.weight f4 [12, 32]
000000 60 f3 8e 3b 78 22 55 bc 0f c3 ad 3c 81 a2 2c bd
       0.0043625087 -0.013008706 0.021211175 -0.042147163
000010 18 68 94 ba 8f 98 da bc 5b e3 b0 ba 44 ed a2 bc
       -0.0011322526 -0.026684074 -0.0013495492 -0.019888528
000020 bc d6 32 3b e4 cf 55 bc e2 8c 2b 3c f5 05 9d 3a
       0.0027288636 -0.013050053 0.010470601 0.0011979925
000030 2f 88 13 bc 6e b6 87 3c 19 e3 b5 bb 86 22 a7 3b
       -0.009004637 0.016566481 -0.005550754 0.005100551
000040 3d 14 83 bb 45 96 4f 3b aa 1a a5 bc 6f 3a 61 3b
       -0.0040002153 0.003167526 -0.020154316 0.0034367105
000050 85 81 a2 3b d4 ef 4d 3c 69 56 0a bb 92 87 cf 39
       0.0049592876 0.0125693865 -0.0021108633 0.00039583124
000060 b5 74 ff 3b 28 64 4a 3c 5b ef cd 3b ac 51 54 3c
       0.007795895 0.012352981 0.006284637 0.012958925
000070 52 19 c0 bb 60 cb 94 3a 35 0a d1 3a 27 75 5e 3c
       -0.0058623934 0.0011352114 0.0015948477 0.013577736
000080 6f 33 07 bc 8b bf 9e bc 3e 39 a3 3a 50 1f cb 3c
       -0.008252009 -0.019378444 0.0012452973 0.024795204
000090 33 c1 f2 ba b1 12 fa bb 01 ce 38 bb 7b f2 9d 3c
       -0.0018520713 -0.0076316227 -0.002819896 0.019280663
0000a0 26 dd ac bc 5a cd 14 bb fe 32 38 bc a5 93 42 bb
       -0.021101546 -0.0022705407 -0.011242626 -0.0029690054
0000b0 c7 42 cc bc a9 b2 0d 3d bf 07 72 bc e8 40 ed bb
       -0.024934186 0.03459421 -0.014772355 -0.0072404034
0000c0 40 b9 43 bc b3 67 0e ba 85 9f 20 bc 87 ee 8d 3b
       -0.0119460225 -0.00054323225 -0.009803657 0.004331413
0000d0 7e 66 5c 3b c2 11 38 3c bd de 83 ba 4b b5 0f bb
       0.0033630426 0.011234703 -0.0010060888 -0.0021928127
0000e0 01 01 8c 3a db 04 1a 3b fd df b3 bb ed 60 47 3c
       0.0010681452 0.002350143 -0.005489348 0.012169105
0000f0 18 d4 77 bb 72 25 92 3b 50 ac 7a 3b d4 ed 81 3c
       -0.0037815627 0.0044600302 0.003824968 0.015860476
000100 df 0a 86 3c 5e c8 62 3c d0 da 13 3d 21 33 8b 3c
       0.016362606 0.013841717 0.036097348 0.016992154
000110 14 00 6b bb 39 a1 40 bc 20 16 bf bb cf 6a a3 3c
       -0.00358582 -0.0117571885 -0.005831495 0.019948391
000120 80 46 d5 bb 50 b5 3e bc 20 ab 37 bb 29 09 27 3b
       -0.0065086484 -0.011639908 -0.0028025582 0.0025487638
000130 a1 de 87 3a 42 6a ae bc cd 32 1a bd d4 b1 5c bb
       0.0010366031 -0.021290902 -0.037646104 -0.003367533
000140 ab 39 57 bc 29 7f 46 3b 5c fa e9 bc e6 5e a2 3b
       -0.013136308 0.0030288196 -0.028561763 0.0049551604
000150 5a dd 6b 3b be 9a 14 3c 05 29 99 ba 7f cb 79 3b
       0.003599009 0.009070097 -0.0011685198 0.0038115678
000160 ab fe 96 3b f2 bf 88 3a aa d6 10 bc 46 5e 62 3c
       0.0046079955 0.0010433181 -0.008840242 0.013816422
000170 e7 32 13 bc 02 da 47 3a 49 24 94 3b c7 be 05 3c
       -0.008984304 0.0007623733 0.004520927 0.008163161
000180 02 45 e6 bc 03 8e 75 bb 68 97 ea 3c df 8d 28 3c
       -0.028109077 -0.0037468679 0.02863665 0.010287731
000190 a2 98 1e bb b6 df e9 3b 4d 5d 0e 3c d6 37 85 bc
       -0.0024199863 0.007137264 0.008689237 -0.016261976
0001a0 16 80 25 3c 3c c8 c1 3b a0 03 82 bc 11 57 b0 ba
       0.010101339 0.0059137624 -0.01587087 -0.0013453682
0001b0 4f 58 e7 3c 57 aa 92 3c c8 78 22 bc 63 2c 72 bb
       0.028240351 0.01790349 -0.009916492 -0.0036952726
0001c0 26 f5 9b bc da e8 9e bb 1b b8 d1 bc c3 41 b0 3b
       -0.019037794 -0.0048495354 -0.025600484 0.005378933
0001d0 54 62 d8 3b e8 7f 34 3c 12 ec 24 ba 43 d6 20 3b
       0.0066035185 0.011016823 -0.0006291281 0.0024541772
0001e0 2d ba 60 3b 76 5a c8 3b 7c 40 e6 bb 82 5e 66 3c
       0.0034290657 0.0061142994 -0.00702673 0.014060618
0001f0 ee ec b8 bb 14 bd 8a 3b 30 8e a2 3b 7f f5 e7 3b
       -0.0056434786 0.0042339657 0.0049607977 0.007078826
000200 8d 42 23 3c 68 7f 0f bc 81 c7 26 bc da dc 31 bc
       0.009964597 -0.008758403 -0.010179401 -0.010855878
000210 e1 08 b4 ba 71 a4 d8 3b 6c 3d 32 3c 82 92 54 bb
       -0.0013735556 0.0066114 0.010878902 -0.0032435958
000220 2b 75 ab 3c d2 a6 8e bb d6 5b 0a bd 86 4e f1 39
       0.020929893 -0.0043533826 -0.033778988 0.00046025607
000230 a5 33 0f 3b e5 a2 d7 39 8e f1 14 bd d0 1e 04 3b
       0.002185085 0.00041129361 -0.036363177 0.0020159967
000240 f7 61 a8 bc ec 4c 93 3c 78 8c 8c 3c f1 84 b2 3b
       -0.020554526 0.017981015 0.017156824 0.0054479768
000250 85 f6 a6 3b 4b 80 23 3c fe 12 bc bb 14 07 47 bb
       0.0050953054 0.009979318 -0.0057395687 -0.003036921
000260 f2 18 cc 3b dc e5 ac 3a e5 82 3a bb a1 a5 60 3c
       0.0062285597 0.0013191062 -0.0028459367 0.013711364
000270 46 74 5a bc db 1f b1 b9 c3 2c 88 3a 7f 44 40 3c
       -0.013333386 -0.00033783805 0.0010389317 0.011735081
000280 ec 77 89 bc 63 7f cb 3c f2 42 fc ba 7b a8 98 ba
       -0.016780816 0.024841016 -0.0019246025 -0.0011646891
000290 67 a7 04 bb 7a 65 1a bc 7a 57 eb bb 63 c0 7a bc
       -0.002024138 -0.009423608 -0.007182059 -0.015304658
0002a0 b4 99 e4 bb 82 b8 1d 3d a0 6c 3d 3c f1 8f a7 ba
       -0.0069763307 0.03850604 0.011561543 -0.0012783987
0002b0 62 a9 99 bc 2e 9d 09 bc f3 c4 11 bb 59 9b c1 3c
       -0.018757526 -0.008399291 -0.0022242635 0.023633646
0002c0 20 67 17 ba 87 ee c6 39 5d b3 0c ba c2 13 69 3a
       -0.00057755597 0.0003794322 -0.00053673034 0.0008891189
0002d0 f4 0f f5 b9 30 1d 4b 3b 05 01 54 bc 37 24 ac bb
       -0.00046741928 0.003099274 -0.012939696 -0.0052533406
0002e0 94 ac 54 3b 2d 7b 2e bc 90 6b 74 bc da b9 2f 3c
       0.0032451497 -0.010649485 -0.014918223 0.010725463
0002f0 48 f4 85 ba 54 e6 fc 39 fc b0 07 3c 1e fa ef 3a
       -0.0010219896 0.00048236793 0.008281942 0.0018308794
000300 4d 1a 61 3c 14 5f d3 bc 0d 60 8f 3c bc d9 29 bc
       0.013739181 -0.025802173 0.017501855 -0.010366853
000310 64 b7 db bb 63 6a a0 bb 8c fb 86 3b de 74 d7 3c
       -0.0067052115 -0.004895495 0.004119342 0.026300844
000320 1c 56 21 3c fc bd f4 3c 80 2b c3 bc c0 73 49 bb
       0.00984719 0.029875748 -0.023824453 -0.0030739158
000330 2c a4 3a bb cc fa 2f bb 5b e7 3e 3c 1a 18 8d bb
       -0.0028479202 -0.0026852367 0.011651839 -0.0043058516
000340 34 de 4a bc eb e4 fd bb 37 ac e5 bc 87 bb 6a 3b
       -0.012382079 -0.0077482364 -0.02803622 0.0035817341
000350 25 7d 1b 3a 43 44 10 3c 28 9d 9a 3a ec f0 59 bb
       0.0005931429 0.008805337 0.0011796104 -0.0033255173
000360 ad 90 67 b8 b6 64 a9 3b 3f 8c 21 bc 97 14 5d 3c
       -5.520943e-05 0.0051694764 -0.009860097 0.0134936785
000370 f6 b1 3e bc 56 7b a5 38 ae e9 87 3b fa 59 08 3c
       -0.011639109 7.890786e-05 0.00414773 0.008322233
000380 a8 cf d2 bc 12 d4 dd 3c 25 62 70 3b 8e 82 a6 bc
       -0.025733784 0.027078662 0.0036679592 -0.020325925
000390 9c 61 bc bb 03 62 17 bc bd 83 2f b9 6f 78 1a 3d
       -0.0057489406 -0.009239676 -0.00016738377 0.03771251
0003a0 6c 42 75 3a 4a 7e a7 bc c8 c5 fc bc 0b 91 b4 bb
       0.0009355906 -0.020445962 -0.030856028 -0.0055104545
0003b0 ad 56 f1 39 25 ff 0c 3c 89 e9 1e 3c 0a dd 54 3a
       0.0004603168 0.008605753 0.009699234 0.00081200956
0003c0 03 a4 4e bc 77 d0 c5 b9 bd ce a3 bc 27 77 72 3b
       -0.012612346 -0.00037730086 -0.019996041 0.003699729
0003d0 94 e5 fa ba 87 63 06 3c 03 82 ac ba c9 9c 29 3b
       -0.0019141906 0.00820244 -0.0013161305 0.0025880805
0003e0 21 b9 7d 3b 20 db 50 3a ba 60 8a bb f4 60 58 3c
       0.0038715082 0.00079672225 -0.0042229565 0.013206709
0003f0 a7 50 05 bc 41 e5 87 3b 0c 64 78 3b ab 03 2a 3c
       -0.008136905 0.0041472022 0.003790143 0.010376851

ln1a.weight f4 [32]
000000 b5 5a 3e 3f 49 67 74 3f 9b 92 98 3f 91 3c 98 3f
       0.7435716 0.954701 1.191974 1.1893483
000010 42 db 8e 3f de 36 5f 3f e2 08 7f 3f 1a be a4 3f
       1.1160662 0.87193096 0.9962293 1.2870514
000020 8c 55 69 3f 83 c3 81 3f 8e e7 ba 3f 7f 65 6f 3f
       0.9114616 1.013779 1.4601915 0.93514246
000030 da 4f 8f 3f ae be b0 3f 09 d8 be 3f 22 06 e3 3f
       1.1196244 1.3808191 1.4909679 1.7736247
000040 06 35 cd 3f 6e 51 b5 3f ef 6b c5 3f a0 ac b3 3f
       1.6031806 1.4165475 1.5423564 1.4037056
000050 2a 5c b3 3f 39 e2 b3 3f b7 e5 c3 3f 72 d6 c6 3f
       1.4012501 1.4053413 1.5304478 1.5534194
000060 0f 5f dc 3f a6 b6 c4 3f 4f 57 c6 3f 49 09 b7 3f
       1.721651 1.536824 1.5495394 1.4299709
000070 6a 69 c2 3f 4d dc ad 3f d9 61 85 3f ac cb cc 3f
       1.518842 1.3582855 1.0420486 1.5999656

ln1a.bias f4 [32]
000000 88 78 81 3d 3e 71 f9 3d 54 f9 ba 3e f8 56 71 be
       0.06321818 0.12179802 0.36518347 -0.23568332
000010 75 92 6e 3e ef 33 03 3e 5a 0d 27 bf 73 ce 96 3d
       0.23298056 0.1281278 -0.6525475 0.07363596
000020 89 57 ac 3e 62 df 0d 3e fc 6a c0 be 76 ca a2 3d
       0.33660534 0.13854745 -0.37581623 0.079487726
000030 02 80 88 be 89 6b 3f 3e 17 fa d2 be 8c a4 25 3e
       -0.26660162 0.18693365 -0.41206428 0.16176051
000040 71 42 a2 3c 74 59 59 be 02 d1 c0 3d 36 92 eb 3c
       0.019807072 -0.2122553 0.09414865 0.028756242
000050 ee 79 c6 3e f4 1f a1 3c 2f 1e 3b be 2b 71 30 3e
       0.387649 0.019668557 -0.18273233 0.1723067
000060 21 e6 ae 3e e6 bc 78 3e 32 2e 24 bd ef 6d 3d 3f
       0.3415995 0.24290809 -0.040083118 0.7399587
000070 71 a3 d6 3d aa 56 ad bd 7f 8a 50 bc 67 35 3a bd
       0.10480393 -0.084637955 -0.012728333 -0.045461085

ln1b.weight f4 [32]
000000 35 93 c7 3f 3a 28 a0 3f c9 07 c4 3f b1 f6 ba 3f
       1.5591799 1.2512276 1.5314876 1.4606534
000010 e9 a8 e7 3f 32 83 03 40 ec 3d da 3f a7 52 b0 3f
       1.8098422 2.0548825 1.7050147 1.3775223
000020 27 12 c6 3f 10 27 c1 3f 02 5a d3 3f c7 ff bf 3f
       1.547429 1.5090046 1.6511843 1.4999932
000030 27 36 c8 3f 7f 0a cd 3f 12 af b3 3f 29 5f be 3f
       1.5641526 1.6018828 1.4037802 1.487279
000040 8a 60 dd 3f 4b 82 a1 3f bc e1 ce 3f 01 a9 e6 3f
       1.7295086 1.2617887 1.6162639 1.8020326
000050 ac 6d d5 3f 36 60 f5 3f 61 91 a4 3f a5 77 01 40
       1.6674094 1.9169986 1.2856866 2.0229275
000060 03 3d e4 3f 03 2b ec 3f 1c 4d fb 3f f1 ee fa 3f
       1.7831119 1.8450626 1.9632907 1.9604169
000070 7c 71 08 40 97 55 d7 3f ff 8f eb 3f f2 a2 ed 3f
       2.1319265 1.6822995 1.8403319 1.8565352

ln1b.bias f4 [32]
000000 5e b6 3d 3d f5 7e b5 bd 83 dd 1f be 16 53 bf 3e
       0.046316497 -0.08862106 -0.15611844 0.37368077
000010 93 4c 32 3e ad ed 05 3e c1 53 74 3e 5d 5b 76 bd
       0.17412023 0.13078947 0.23860075 -0.060145725
000020 12 00 b9 bd 79 80 85 bd 02 ba b4 3e b1 a1 34 be
       -0.090332165 -0.06518645 0.35298163 -0.17639805
000030 f7 65 20 3e 99 18 27 be 83 58 ed 3e 5a d5 a6 be
       0.15663897 -0.16317977 0.46356592 -0.3258465
000040 61 7c f3 3d f8 62 1a 3f cb 80 1d 3e 99 4e ea 3d
       0.11888958 0.60307264 0.15381162 0.114407726
000050 79 d4 30 be ed 93 10 3e dc ef 0a bf 8b 5e 38 be
       -0.17268552 0.14118929 -0.54272246 -0.18004815
000060 55 51 1b be de e3 38 bd 0a 1a da 3d b5 37 dc be
       -0.15167744 -0.045139186 0.10649498 -0.4301125
000070 fe 12 c6 3b b6 2e 22 bc b4 05 3c 3d e5 9a f5 be
       0.0060447445 -0.009898832 0.045903876 -0.47969738

ln1c.weight f4 [32]
000000 03 47 4d b9 a4 09 1b 3a e3 4f 85 3a 59 55 4c 38
       -0.00019576777 0.00059142173 0.0010170903 4.8716876e-05
000010 f9 c7 37 bb cc 6d b1 3a 1f 5c 07 3a 5d b8 a9 39
       -0.0028042777 0.001353675 0.00051635684 0.00032371553
000020 c8 d0 47 39 5a 5e 12 38 32 a1 17 39 90 2e 8e bb
       0.00019055896 3.4896984e-05 0.00014460532 -0.004339047
000030 b8 ae 4f 3a 61 28 d7 b9 59 85 c4 39 45 fd 58 ba
       0.00079224585 -0.0004103808 0.00037483385 -0.0008277486
000040 87 14 cd 39 3b 03 0d b8 1f b3 ff 3a bf 41 2e 3a
       0.0003911594 -3.362003e-05 0.0019508338 0.000664737
000050 a9 03 1d 3a ee 62 6f 3a 58 20 b9 3b 43 4d be ba
       0.000598962 0.0009131868 0.0056496076 -0.0014518875
000060 66 c3 62 bb 3d 16 df 39 75 a9 43 3b 3d a2 3f 3e
       -0.003460133 0.00042550443 0.0029855643 0.18714233
000070 39 6a f7 ba 04 43 c7 3d 9a 5b 2d 3b 50 f9 b3 38
       -0.0018876261 0.09729579 0.0026452304 8.581823e-05

ln1c.bias f4 [32]
000000 23 84 3a ba f9 f9 e9 39 3e 4d d9 3a 81 03 78 3a
       -0.0007115027 0.00044627467 0.0016578806 0.00094609713
000010 7a 49 e0 b8 49 d5 32 3a ec 8d d9 ba a4 77 6b ba
       -0.000106948384 0.0006821943 -0.0016598082 -0.00089823664
000020 f0 ea ae 39 70 3e a7 b9 25 5b cc ba da 33 4a 39
       0.00033362908 -0.00031899242 -0.0015591128 0.00019283537
000030 70 ba 63 38 78 0d ce 39 36 e6 44 38 3a dd bb 38
       5.429465e-05 0.00039301417 4.6944442e-05 8.9580615e-05
000040 42 c6 67 ba 93 43 a6 3a 8c 32 3e 39 2e 07 c2 ba
       -0.00088414934 0.0012684934 0.00018138642 -0.0014803165
000050 ec 7a ea 38 23 7e 89 ba 86 ba ab b9 f1 77 5b 3a
       0.000111808855 -0.0010489862 -0.00032754632 0.00083720597
000060 4e 58 0b 3b f8 29 8e ba 12 67 f8 b9 e8 2b 30 be
       0.002126235 -0.0010846248 -0.0004737904 -0.17204249
000070 30 e4 ce 39 f6 c7 88 bc f6 87 6c bb 4d 42 d8 ba
       0.00039461395 -0.016696911 -0.0036091781 -0.0016499251

rwkv1.x_r f4 [1, 1, 32]
000000 d9 77 e3 3e c3 46 a6 3e 07 8f cb 3e 7c 46 52 3e
       0.44427374 0.32475862 0.3975756 0.205347
000010 34 25 e8 3c 62 7e 00 3f 98 f9 51 3f 40 3c 72 3d
       0.028338052 0.50192845 0.82021475 0.05913949
000020 ec 0d d6 3e bd 41 8a 3e 3a ef 6d 3e 3a ab 1b bf
       0.41807497 0.2700328 0.23235789 -0.60808146
000030 e6 aa c0 3d fc f9 b6 3e 5c ef 56 3e cf 27 74 be
       0.09407596 0.35737598 0.20989746 -0.23843311
000040 59 f9 26 be 4e e2 31 3c 37 7d 5c bd 45 e0 3b 3f
       -0.16306056 0.010857178 -0.05383035 0.73389083
000050 ee ab 9a be 16 42 ad be 64 a7 22 3f 81 c1 b5 be
       -0.30209297 -0.33839482 0.6353667 -0.35499194
000060 69 80 d1 be d8 d7 bf bd 0d 25 70 be 6b 24 e8 3f
       -0.40918282 -0.09367341 -0.23451634 1.8136114
000070 9c 8e 85 be f8 cb 09 bf da 35 f2 be 1a 82 a1 be
       -0.26085365 -0.53826857 -0.4730671 -0.31544572

rwkv1.x_w f4 [1, 1, 32]
000000 0a 46 5b 3f 71 09 47 3f bf 37 10 3f 96 ac 19 3f
       0.85653746 0.7774878 0.5633506 0.6002897
000010 11 1a 22 3f 64 05 16 3f 69 00 a5 3e 42 e0 4b 3e
       0.63321024 0.58601975 0.32226875 0.19909766
000020 bb b7 27 3f b0 82 36 3f c4 7a fb 3e 24 0a 2b 3f
       0.65514725 0.71293163 0.491171 0.6681235
000030 d3 db 22 3f 50 b9 e6 3e 17 67 e3 3e b2 c6 ba 3e
       0.63616675 0.45063257 0.4441459 0.36479717
000040 08 60 21 3f 54 ab 0f 3f cb ec 88 3e 2b 2c a8 3e
       0.6303716 0.561208 0.2674316 0.32846197
000050 9f f1 99 3e d2 3a d0 3e 2c 5f aa 3d 49 e2 cf 3e
       0.30067155 0.40669876 0.08318934 0.4060233
000060 22 e3 ca bd 9e cc 58 3e 84 23 25 3f b1 3f fd bd
       -0.099066034 0.21171805 0.6450732 -0.12365664
000070 95 78 db 3e 36 8f be 3c 86 50 47 3c 16 00 26 be
       0.42865434 0.023261648 0.012165194 -0.1621097

rwkv1.x_k f4 [1, 1, 32]
000000 d9 d9 95 3e 73 c4 93 3e 5b bd 69 3e d6 d4 11 3e
       0.29267767 0.28860816 0.2282614 0.14241347
000010 a6 47 38 3f 87 f9 4c 3f 4c 0b 14 3f 27 5d 83 3d
       0.71984327 0.8006825 0.5782974 0.06414252
000020 80 7a c5 3e be ae 9a 3e 90 a9 c4 3d ac 65 13 be
       0.38570023 0.30211443 0.09602654 -0.14394253
000030 54 51 e6 3d 3c 9a 48 3e 65 70 5a 3d 3d 02 5e be
       0.11245981 0.19590086 0.053329844 -0.21680541
000040 d5 83 b2 bd c6 55 52 3d b3 98 79 bd ec d9 f7 3d
       -0.08716551 0.05135133 -0.06093664 0.12102112
000050 a7 76 7a bd 55 56 a8 3d af 24 ff bb 58 ce 6f be
       -0.061148312 0.082195915 -0.0077863554 -0.23418558
000060 85 e3 a1 be 04 2b 7b be 27 cf ca be f4 c7 84 bf
       -0.31618896 -0.24528128 -0.3961117 -1.0373521
000070 40 eb 5f be e3 02 25 bf 98 7b f4 bd 95 36 2b be
       -0.21867085 -0.6445753 -0.11937636 -0.1672004

rwkv1.x_v f4 [1, 1, 32]
000000 62 41 bf 3b f5 a3 ed 3b cf d9 d4 3b fd 94 a2 3b
       0.0058366517 0.007252211 0.0064956914 0.0049616084
000010 a3 0f f5 3c 32 ad 8a 3b 9c 52 19 ba f6 dd 8e 3b
       0.029914683 0.0042320723 -0.00058487966 0.004359956
000020 35 74 e6 3b 2c 56 c1 3b 73 95 38 3b 91 25 87 3d
       0.007032896 0.005900165 0.002816525 0.06598962
000030 02 6e 95 3b 69 dd b0 3b b6 10 73 3a c1 aa 11 bb
       0.004560233 0.005397488 0.00092722045 -0.0022227021
000040 7c a1 92 3b 6a 5e ab 3b d5 df f2 3a 0f e7 01 3d
       0.004474817 0.005229761 0.0018529842 0.031714495
000050 85 55 8b bd c8 d1 60 bd c0 0c f4 3c f3 5e ad bc
       -0.06803421 -0.054887563 0.029791236 -0.02116344
000060 e7 ef 81 bd 67 5b 52 bc 7d 70 07 bc 76 ef 2e bf
       -0.06344586 -0.012839175 -0.008266565 -0.6833414
000070 35 81 c2 bc c3 25 8f bd 07 2f 31 3e 96 2c a6 bb
       -0.023743251 -0.06989624 0.17303096 -0.005071233

rwkv1.x_a f4 [1, 1, 32]
000000 8a 7c 87 3f ac 3d 39 3f c3 6b 1c 3f 59 31 4c 3f
       1.0584881 0.7235973 0.6110193 0.797628
000010 b5 04 96 3f d1 e0 8e 3f d5 53 42 3f 25 a8 03 3f
       1.1720186 1.1162359 0.7590917 0.51428443
000020 ac 64 fe 3e 42 68 4e 3f 88 3e 11 3f a1 0e 89 be
       0.49686182 0.80627835 0.5673604 -0.26768973
000030 06 05 f6 3e e2 2f ba 3e d5 4c 2f 3f 87 b4 6f be
       0.48050708 0.36364657 0.6847661 -0.2340871
000040 4c 64 da 3c 3c b4 80 3f 8b 78 67 be 3f 1a 67 3f
       0.026659153 1.0055003 -0.22604577 0.90274423
000050 7a 86 8d 3e a2 aa 06 3f 3a 43 a9 3f 61 12 f4 bd
       0.2764166 0.52604115 1.3223641 -0.11917568
000060 62 a2 7e 3f 2d f9 53 be c4 73 3e bd a3 ce 48 3f
       0.99466527 -0.20700522 -0.04649712 0.784403
000070 bc bb 7c be 3f c4 ad be 73 c0 c5 be 3e fb 22 bf
       -0.2468099 -0.33938786 -0.3862339 -0.63664615

rwkv1.x_g f4 [1, 1, 32]
000000 2a d9 c2 3e 7b 27 8d 3e e9 14 db 3c ab c2 34 3d
       0.38056308 0.27569184 0.02674337 0.044130962
000010 1d 35 30 3e 66 38 bf bc d0 ff 79 3e ba 75 64 3d
       0.17207761 -0.023342323 0.24413991 0.055776335
000020 0e 2f 6b 3e 07 9a 46 3d dc 60 1b 3d 2a 0e c8 3e
       0.22967169 0.048486736 0.03793417 0.39073306
000030 5d 08 5b 3d f2 8e 06 bd 09 24 5f 3c 05 7f 98 3e
       0.053474773 -0.032851167 0.013619431 0.29784408
000040 e1 16 20 3e 5f 17 e8 3d 2e 4f 3b 3d f6 d3 65 bd
       0.15633728 0.11332583 0.04572981 -0.056110345
000050 f6 1d 12 be 30 b5 dc 3e 0a c0 60 bd f7 5e c2 bc
       -0.14269242 0.43106985 -0.054870643 -0.023726923
000060 83 ae 95 be 5a 5f b6 bc fc f4 17 bd bb 5b 27 bd
       -0.29234704 -0.022262264 -0.03709887 -0.040858965
000070 35 5c e1 3d 6d 0b da 3c 5b 6b d6 bd fb 1e cc 3d
       0.11003915 0.026616776 -0.10469695 0.099668466

rwkv1.w1 f4 [32, 8]
000000 20 27 1d 3f 14 f1 12 3e 63 b3 3b 3e 69 91 80 be
       0.61387825 0.14349777 0.1833015 -0.2511094
000010 4b 3a 91 be 5d 91 a0 be 1f 09 58 be f8 49 08 be
       -0.28364787 -0.31360903 -0.2109723 -0.13309467
000020 b0 34 33 3f 62 fe 41 bd 8d 6d ab 3e cb ee ca be
       0.7000227 -0.04736174 0.33482018 -0.3963531
000030 24 75 f2 be 47 6d 02 bf 62 b2 c9 be 56 4d c8 be
       -0.47354996 -0.50947994 -0.39393908 -0.39121503
000040 59 30 3f 3d 02 83 03 3e 94 02 af 3b 70 d0 86 be
       0.046676967 0.12842944 0.0053408835 -0.263309
000050 7f 4b 80 be 48 c9 a6 bd 33 ac b6 be 72 ef b8 be
       -0.250576 -0.0814386 -0.35678253 -0.36120182
000060 a8 89 09 bb d2 cd f5 bd d6 e5 36 be 45 ad 40 3e
       -0.002098659 -0.12002148 -0.17861113 0.18816097
000070 9b 66 5c 3e cc 0a 0a 3d 50 a0 4b 3e b0 45 4c 3e
       0.21523516 0.033701703 0.19885373 0.19948459
000080 ff 6b dc be ff b5 88 3d 3c ba 20 be d9 4b d6 bb
       -0.43051144 0.06675338 -0.15696043 -0.0065398035
000090 4f 7e 43 bd 89 41 55 3d 24 6b d8 bc ff d8 5b bd
       -0.04772788 0.052064452 -0.026418276 -0.05367374
0000a0 b1 4b 8d 3b c7 97 ca 3e 7e e2 1e be bf 7c 1e 3d
       0.0043120016 0.39568922 -0.15516087 0.038693186
0000b0 a6 46 90 3d bd 44 de 3d 76 e7 90 bb 3f a9 04 be
       0.07044725 0.108529545 -0.0044221235 -0.12955187
0000c0 2d ce 21 3f 50 00 ed bc 52 58 54 3e 9a bd 8c bd
       0.63205224 -0.028930813 0.20736817 -0.06872101
0000d0 02 49 86 bd 89 e8 87 be c0 ab a4 bc 61 48 12 3d
       -0.06556894 -0.26544598 -0.020101428 0.035713557
0000e0 01 9e 1a be 40 e7 15 3d 5f 95 ef bc 06 3a f9 b8
       -0.15099336 0.03659749 -0.02924603 -0.00011884053
0000f0 2c 5a 5f bd d7 e8 07 bd 2a 89 66 bb 8c 90 d3 3c
       -0.054529354 -0.033181038 -0.003517697 0.025825761
000100 b5 b8 5e bf d6 4c 51 3e 75 cb d7 bd b9 5f 98 3d
       -0.8700059 0.20439467 -0.10536853 0.07440133
000110 a0 dc ae 3d dd c3 ea 3d 7d c1 10 3d f5 43 70 bc
       0.08538175 0.11463139 0.035340775 -0.01466464
000120 a6 e4 1e 3f 6d 4a a8 3d 4a cc 9e 3e 01 6b b3 be
       0.6206764 0.082173206 0.31015235 -0.35042575
000130 3f 16 ab be 81 44 a2 be 55 e3 ae be 42 17 83 be
       -0.3341541 -0.3169289 -0.34157816 -0.25603682
000140 0f 9c cf bd 76 4a 94 be 4c 09 46 be 1f c5 9c 3e
       -0.10137188 -0.2896306 -0.19339484 0.3061914
000150 24 28 9a 3e 7a 74 67 3e c7 55 a8 3e 60 86 b0 3e
       0.3010875 0.22603026 0.32877943 0.3447752
000160 25 aa 20 3f f8 d7 ca bd 49 71 60 be 02 20 95 bd
       0.6275962 -0.09904474 -0.21918215 -0.07281496
000170 d9 1d 3d bd 74 f7 bf 3c 70 74 3f bc 10 89 08 bd
       -0.046171043 0.023433425 -0.011685476 -0.033333838
000180 29 c9 ea bd 0a 27 07 be d2 7d 7c be 17 d3 76 3e
       -0.114641495 -0.13198486 -0.24657372 0.24103962
000190 37 d5 86 3e 82 99 22 3e 1c da 92 3e 3a 3e 8f 3e
       0.26334545 0.15878871 0.2868203 0.27977163
0001a0 45 4a 96 3e 30 3f c7 3d bd 3f a4 3e db 23 c1 be
       0.29353538 0.09728849 0.32079878 -0.37722668
0001b0 1b 24 e6 be b9 a3 55 be b1 02 d6 be e6 47 b9 be
       -0.4494942 -0.20863236 -0.41798928 -0.36187667
0001c0 e1 d5 f7 bd 15 5c 23 be 1c cc 89 be 58 82 b6 3e
       -0.12101341 -0.15953095 -0.26913536 0.3564632
0001d0 99 9e d0 3e ce 38 5d 3e 1a b3 bd 3e 13 b4 b1 3e
       0.40746 0.216037 0.37050706 0.34707698
0001e0 4c a2 18 3d 58 ae a2 3d 2c c5 04 3f 7c da 26 be
       0.037264153 0.0794341 0.5186336 -0.16294283
0001f0 17 04 36 be ed 95 5d be a0 2a 27 be 53 04 32 be
       -0.17774998 -0.21639223 -0.16324854 -0.17384462
000200 e7 e3 9e bf 7f 67 54 3d 13 91 91 be a0 ee bc 3d
       -1.24133 0.051856514 -0.28430995 0.092252016
000210 b3 f7 d9 3d 8b 32 7a 3e c3 30 bd 3d 94 54 34 3d
       0.10642948 0.24433343 0.09237816 0.044025972
000220 4c e3 b4 3d 05 bf 32 be 8f 87 f2 be c3 89 15 3f
       0.08832416 -0.1745568 -0.47369048 0.5841333
000230 43 55 16 3f 00 7a d8 3e 41 89 24 3f 33 d0 19 3f
       0.5872385 0.4228058 0.6427193 0.6008331
000240 cc b5 28 bf be e6 d1 bc 21 05 34 bf df 73 9c 3e
       -0.659024 -0.025622722 -0.70320326 0.30557153
000250 d6 78 bf 3e b0 05 01 3f 68 7f 9f 3e 91 1c 91 3e
       0.37396878 0.50399303 0.3115189 0.28342107
000260 b8 b6 b2 be 2b 24 8a be 8e 0e de 3b 75 ce 85 3e
       -0.34905028 -0.2698072 0.0067766374 0.26134077
000270 6c b2 a4 3e b5 b3 20 3d b8 a3 a4 3e 6a 99 ab 3e
       0.32167375 0.039233882 0.32156157 0.33515483
000280 ef 3e 85 bf 9c 78 39 3e dc 5b dc be 16 14 8a 3d
       -1.0409831 0.18112415 -0.43038833 0.06742112
000290 21 4f b7 3d 5a 3d a2 3e 51 e7 25 3d 1a bc 24 3c
       0.089506395 0.31687433 0.040503804 0.0100546125
0002a0 44 f6 09 3f 3f 02 74 bd 33 45 3d 3e f5 6f 00 be
       0.53891397 -0.059572455 0.18483429 -0.12542708
0002b0 2d 4e 27 be 24 fa a9 be 60 ce 13 be 3d 58 a7 bd
       -0.16338415 -0.33198655 -0.14434195 -0.08171127
0002c0 ef ca a9 be 36 f5 c6 be 30 c8 ad be ba aa 0f 3f
       -0.3316264 -0.38858956 -0.33941793 0.56119883
0002d0 84 10 0f 3f 21 f1 97 3e 57 64 19 3f ef 24 13 3f
       0.55884576 0.29676154 0.5991873 0.5747823
0002e0 4c d7 1b bf 62 03 d2 be d0 87 3b be 0c 2b 89 3e
       -0.6087539 -0.41018206 -0.18313527 0.26790655
0002f0 bf cd 5a 3e 75 4d 39 3e 60 fc 82 3e 4c e1 c4 3e
       0.21367548 0.18095954 0.25583172 0.38453138
000300 b2 ab 59 3e 98 20 22 3f 19 45 c3 3e f2 72 22 bf
       0.21256903 0.63330984 0.38138655 -0.6345664
000310 69 ab 17 bf bb e6 cf be be 42 0f bf 43 52 2b bf
       -0.59245926 -0.4060572 -0.55961215 -0.66922396
000320 6c 81 13 bf a1 2f dc bd 7f af 8c be fa 8b d2 3d
       -0.5761936 -0.10751272 -0.27477643 0.10280605
000330 d8 6c a6 3d 91 2a 86 3e 93 e3 4f 3d 3c 81 a2 3d
       0.08126229 0.2620435 0.05075414 0.07934806
000340 4e 4f 3a 3f 81 2f ee bd 1b b4 6b bc 3e 2e 43 3e
       0.7277726 -0.116301544 -0.014386202 0.19060609
000350 1f f6 2c 3e 32 dc ce 3d 8f 55 49 3e d3 89 91 3e
       0.16890763 0.10100593 0.19661544 0.28425464
000360 17 27 18 3e 0c 83 53 3e 19 57 bc 3e 2b 0e e5 be
       0.14858662 0.20655459 0.367852 -0.44737372
000370 f5 a7 f2 be 9c 3f b8 be c5 97 e4 be ae 13 db be
       -0.47393766 -0.3598603 -0.4464704 -0.42788452
000380 25 b3 3e bf 41 6b 5e 3e fe cc 1b be 36 d0 51 ba
       -0.744921 0.21720602 -0.15214917 -0.0008003743
000390 f4 2a c6 bb a0 f9 2b 3e e0 92 6f bb 5b 00 be 3c
       -0.006047601 0.16794443 -0.003655605 0.023193529
0003a0 6f 4f 8b be 4c 07 8c be e3 08 7f 3b c0 80 fe 3d
       -0.2720904 -0.27349317 0.003891521 0.12426901
0003b0 d5 d5 dd 3d 6f 7a 80 bc b0 01 08 3e 62 ab e5 3d
       0.10831801 -0.01568338 0.13281894 0.11214329
0003c0 f2 d8 9d 3e d6 96 f5 3d 58 a6 00 3f 7a 39 ae be
       0.3082958 0.1199166 0.5025382 -0.34028226
0003d0 a2 36 b5 be fd 49 ef be df 9d ad be 6c 42 b0 be
       -0.35393244 -0.46736136 -0.3390951 -0.34425676
0003e0 82 ab 85 3e 91 94 13 3e 04 22 17 3f be 9c ce be
       0.26107413 0.14412142 0.5903628 -0.4035396
0003f0 e6 c8 00 bf 09 36 14 bf 6f 11 f0 be 0a b0 bb be
       -0.50306547 -0.5789495 -0.468883 -0.36657745

rwkv1.w2 f4 [8, 32]
000000 dc ce 0c 3f 1a 5a bf 3e 89 80 64 bf 13 8a 5a bf
       0.5500314 0.3737343 -0.8925863 -0.85366935
000010 7d ad 99 3d 21 2f 8a 3e 71 39 87 be d4 ce fd 3d
       0.075037934 0.26989082 -0.26411012 0.12392965
000020 42 d7 5c bf 26 50 5f bd 50 2c 28 c0 dd 26 a5 bd
       -0.8626596 -0.054519795 -2.6277046 -0.08064053
000030 8b 59 8a be f2 f0 cf 3c f9 48 00 3e d7 c5 1e 3f
       -0.2702144 0.025383446 0.12527837 0.6202063
000040 62 00 08 bf 3b b1 57 bf c7 60 b4 bf e9 d5 c5 bf
       -0.53125584 -0.8425481 -1.4092034 -1.5455905
000050 69 f2 d3 bf 27 72 03 be 67 ce ce bf 60 3c c2 bf
       -1.6558353 -0.12836514 -1.6156739 -1.5174675
000060 e1 0a 8e be c9 fc d2 bf e0 9a a5 3f 1e 76 db bd
       -0.27742675 -1.6483394 1.2937889 -0.107158884
000070 de 3d ea bf 6e 76 75 3d 54 57 0d 3e ca df 00 3d
       -1.830013 0.059927396 0.13802844 0.031463422
000080 cb bb 1f 3f ce 4b 17 3f 88 f6 72 bf 58 37 6e bf
       0.62395924 0.59100044 -0.94907427 -0.930532
000090 04 58 15 3e 42 fc 12 3d 5d 26 82 3a 10 a3 90 3d
       0.14584357 0.035885103 0.0009929646 0.07062352
0000a0 6f df 1f bf 5a 2f 87 3e dd 82 22 be c8 a0 23 3e
       -0.6245031 0.26403314 -0.15870233 0.15979302
0000b0 5a 26 cb bd 57 15 9a be 15 67 43 3e 8e 71 30 3f
       -0.09919424 -0.30094406 0.19082291 0.6892327
0000c0 5b b8 b9 3e b5 41 d6 3e 85 1a fb 3e 0f af b8 3e
       0.36273465 0.41847005 0.4904367 0.3607106
0000d0 31 8d 73 3e 73 83 ca 3d 41 db f7 3d 8d 80 23 3d
       0.23784329 0.09888353 0.12102366 0.039917517
0000e0 7a ef 7a be 2c de 02 3d 87 7a 6d 3e 75 d4 88 be
       -0.24505416 0.03195016 0.23191272 -0.26724592
0000f0 a4 65 0a be 44 16 d2 bc b5 93 2d be 28 80 92 3e
       -0.13515335 -0.025645383 -0.16950877 0.286134
000100 80 ae 00 3f fa a9 ff 3e 32 d2 66 bf f3 d2 5b bf
       0.50266266 0.4993437 -0.9016448 -0.8586876
000110 8f 13 9a 3d fd e1 29 3e d2 a0 63 be f9 85 53 3e
       0.07523262 0.16590114 -0.22229317 0.20656575
000120 fe 7b 47 bf b7 37 5a 3e 8a 06 2d c0 03 65 10 3d
       -0.7792357 0.21310316 -2.703524 0.035252582
000130 71 ce 3d be dd 46 a2 bb 5f 22 9d 3d 63 31 2b 3f
       -0.18535782 -0.004952295 0.076725714 0.66872233
000140 09 7f fe 3d a4 40 fe bd c4 46 b5 be 09 e6 f0 be
       0.12426574 -0.12414673 -0.35405552 -0.47050503
000150 b3 ec 0f bf 1c 58 3f 3d 25 91 26 bf 8a c1 24 bf
       -0.5622055 0.046714887 -0.6506522 -0.6435782
000160 0b eb ab be 83 38 23 bf 8c 65 8c 3e ab 4f 39 be
       -0.3357776 -0.63758105 0.27421224 -0.18096797
000170 5e 5f 1d bf 85 f9 1c 3d e8 d7 5c bb c5 46 2c 3e
       -0.61473644 0.038323898 -0.0033698026 0.16823871
000180 58 31 f6 be fd 44 fe be da 88 66 3f 2e 62 5f 3f
       -0.4808452 -0.4966201 0.9005257 0.87259185
000190 a9 b8 0d be 09 83 5f bd 88 8e c3 bd 31 12 39 be
       -0.13839974 -0.054568324 -0.0954867 -0.18073346
0001a0 ba 03 1c 3f f0 19 91 be 1a 31 96 3d 75 1a f0 bd
       0.60943186 -0.283401 0.07333584 -0.11723796
0001b0 54 ab ad 3d e5 8e 55 3e ff 9d 91 bd f5 48 4a bf
       0.08479944 0.20855291 -0.071102135 -0.79017574
0001c0 00 73 ab be 78 1d a3 be ec e9 95 be 01 b7 5c be
       -0.33486176 -0.3185842 -0.2928003 -0.21554185
0001d0 38 43 f8 bd 05 a5 b2 bd 66 9c 9a bd 2d 53 9e 3d
       -0.12122196 -0.08722881 -0.07549362 0.07730708
0001e0 e8 ab 89 3e ec 37 40 3d bf b7 34 be 21 27 6a 3e
       0.26888967 0.04692833 -0.17648219 0.22866489
0001f0 7c 36 98 3e 48 62 b9 3b 51 f1 8e 3d a4 a0 ba be
       0.29729068 0.005657468 0.06979621 -0.36450684
000200 7d 65 03 bf 31 cb 03 bf a3 09 66 3f 50 41 62 3f
       -0.51326734 -0.5148192 0.89858454 0.8838091
000210 ca 78 a1 bd ec c2 1a bd 3d 42 94 bd 76 3e 51 be
       -0.07884367 -0.03778355 -0.072391964 -0.20433983
000220 5a f3 23 3f ca e9 95 be 2e 37 14 3e 98 af da bd
       0.640432 -0.2927993 0.14474174 -0.10678023
000230 ab a5 84 3d 89 61 44 3e fc 89 cd bd ef a9 4d bf
       0.06476911 0.19177832 -0.10036084 -0.80337423
000240 01 a3 af be 9b 66 a0 be c7 eb 88 be ed 91 34 be
       -0.3430405 -0.31328282 -0.26742384 -0.17633791
000250 4b fb b9 bd d6 37 14 be 6d f8 58 bd 60 a4 fb ba
       -0.090811335 -0.14474425 -0.052971292 -0.0019198768
000260 4d 6f ae 3e 6b f0 d8 3d 93 82 28 be 91 50 35 3e
       0.3406929 0.10592731 -0.1645606 0.17706515
000270 e0 33 8b 3e d0 68 1e bc 40 27 8a 3d cd 56 c2 be
       0.27188015 -0.009668544 0.067457676 -0.3795685
000280 29 d5 0f bf 9b ff 00 bf ac d6 5d 3f e3 cd 67 3f
       -0.5618463 -0.50390023 0.8665569 0.90548533
000290 a3 86 df bd 4d b8 2e be 6e 62 3e 3e 20 70 17 be
       -0.10914352 -0.17062493 0.18592235 -0.14788866
0002a0 fd 4e 4e 3f 84 00 8c be cc 80 74 3f d1 df ce bc
       0.80589277 -0.27344143 0.9550903 -0.025253208
0002b0 e5 63 fb 3d f0 a9 a1 3d 1a 51 0b be d4 34 1c bf
       0.12274913 0.07893741 -0.13605157 -0.6101811
0002c0 3a 2c 13 be f6 9c a1 3c db 3b 00 3e 77 bf 74 3e
       -0.1437234 0.019728165 0.12522833 0.23901163
0002d0 ce a2 a2 3e 0f 2d 42 bd 1d f8 d4 3e d2 1e e3 3e
       0.31764835 -0.047406252 0.41595545 0.44359452
0002e0 74 27 a0 3e a9 64 c7 3e 37 d8 59 be c2 2a 4e 3e
       0.312801 0.38943985 -0.21273886 0.20133498
0002f0 56 14 f0 3e b5 fc b4 ba 3c b1 8c 3d 34 9f 66 be
       0.46890515 -0.0013808223 0.06869742 -0.22521669
000300 10 7f fe be 28 f9 07 bf ea fd 6b 3f f3 f5 5d 3f
       -0.49706316 -0.5311456 0.9218432 0.86703414
000310 c2 28 1f be 79 33 27 bd 17 2d 99 bd 68 6c 06 be
       -0.15542892 -0.040820573 -0.07479303 -0.13127291
000320 c7 5d 18 3f 75 d7 99 be ac f8 0b 3e 38 b7 f0 bd
       0.5951809 -0.30047193 0.1366908 -0.11753696
000330 ad d5 ba 3d b6 d4 47 3e bb 4e e0 bd 0a 8d 4f bf
       0.09122787 0.19514737 -0.10952517 -0.81074584
000340 77 53 be be 38 32 ae be 1e 27 91 be a2 c2 60 be
       -0.37173054 -0.3402269 -0.28350157 -0.21949247
000350 f6 0a 17 be 3b 53 b2 bd 0f a7 fc bc 70 84 94 bc
       -0.14750275 -0.08707281 -0.030841378 -0.018129557
000360 bc a9 af 3e ca 80 80 3d 6f 3a 37 be f4 e6 66 3e
       0.34309185 0.062745646 -0.17893384 0.22549039
000370 4e 66 86 3e 72 3e e8 bb 0d a4 dd 3d 10 de b6 be
       0.26249927 -0.007087522 0.10822306 -0.35716295
000380 6b 31 09 bf 2c 40 f8 be 96 54 65 3f 4f 7d 67 3f
       -0.5359103 -0.4848646 0.8958219 0.9042558
000390 b5 fa 00 be 22 13 98 bd ca 69 1f bd 2f dd 20 be
       -0.12595637 -0.07425524 -0.038919248 -0.15709375
0003a0 e4 32 14 3f 84 db 8a be 39 29 0a 3e 64 28 e8 bd
       0.5789015 -0.27120602 0.13492288 -0.11335829
0003b0 83 0e dc 3d f6 a3 6a 3e bd 17 cc bd bf a4 41 bf
       0.107449554 0.22914109 -0.09965465 -0.7564201
0003c0 97 c0 bb be 1c 7d a9 be b6 b6 ae be 35 75 71 be
       -0.36670372 -0.33103263 -0.34123772 -0.23579867
0003d0 74 ab 03 be ba 01 c9 bd 58 14 62 bd db a7 22 bc
       -0.12858373 -0.098147824 -0.055195183 -0.009927715
0003e0 f6 1d 9c 3e 44 4b 45 3d 5a 89 46 be d7 2d 71 3e
       0.30491608 0.048167482 -0.19388333 0.23552643
0003f0 8c e0 84 3e 30 b2 af 3c 08 34 ee 3d af 4f be be
       0.25952566 0.021447271 0.11631018 -0.3717017

rwkv1.w0 f4 [1, 1, 32]
000000 e0 0e f0 c0 bc 57 d6 c0 a1 d7 c9 c0 cc 93 b2 c0
       -7.501816 -6.69821 -6.307572 -5.5805416
000010 f4 c7 a4 c0 58 ec 99 c0 23 c2 87 c0 1c 95 7f c0
       -5.1494083 -4.8101006 -4.2424483 -3.993476
000020 ef 83 57 c0 a6 f7 59 c0 38 c2 c6 bf 41 13 28 c0
       -3.3674276 -3.4057403 -1.5528021 -2.6261752
000030 14 d6 10 c0 67 11 02 c0 2b b6 65 bf 3e 15 0b 3f
       -2.2630663 -2.0323122 -0.8973109 0.5432929
000040 d5 71 91 c0 dc 7e 70 c0 f2 00 41 c0 29 91 12 c0
       -4.5451455 -3.757743 -3.0156827 -2.2901099
000050 3e 19 d4 bf 74 03 cb bf 33 99 86 bf 94 02 4e bf
       -1.6570203 -1.5860429 -1.0515503 -0.80472684
000060 95 66 8c bf 62 1b fe be 30 e3 4c 3d 85 9d c0 3d
       -1.0968806 -0.49630266 0.05002135 0.094050445
000070 0e cc 19 3f df c3 bf 3f 2a e4 08 40 d9 19 b0 40
       0.6007699 1.498165 2.138926 5.503155

rwkv1.a1 f4 [32, 8]
000000 6e 77 c2 3d e8 49 a4 3e ab f5 a0 bd 6f 92 da 3d
       0.09495436 0.32087636 -0.078593574 0.10672461
000010 0a 5e 15 be f8 4c 37 3e 07 5d 3a 3d 1c f1 8e be
       -0.14586654 0.17900455 0.045498874 -0.27918327
000020 4e 4d 73 3c 44 b9 32 bd 40 d0 45 3e 68 30 67 3e
       0.014849974 -0.043633714 0.19317722 0.2257706
000030 a1 4d 90 3d 46 a8 bb 3e 42 47 26 3d de d2 12 be
       0.070460565 0.3665182 0.0405953 -0.14338252
000040 99 b0 05 be 45 0e 8a 3d 0a d8 47 be f3 a6 61 bd
       -0.13055648 0.06741003 -0.19516006 -0.055090856
000050 25 ab f8 3d 3e 10 1f 3c 4e c7 20 bd 0f 4d 6e 3e
       0.12142018 0.009708462 -0.03925257 0.23271583
000060 07 af 29 3e 02 8c 5a bc ed 2f 8b 3d a3 79 17 3e
       0.16570674 -0.0133390445 0.067962505 0.14792494
000070 52 90 d2 bd f6 2e 05 be 1b 77 d0 3d cf 84 96 bd
       -0.10281433 -0.13006195 0.101789676 -0.0734955
000080 f7 8c 56 3e 33 7e cd bc 1f 72 62 bf 5e b1 8e be
       0.20952211 -0.02508459 -0.88455385 -0.27869695
000090 bd 97 26 3e 67 97 00 be f6 98 14 bf ab a5 0d 3f
       0.16268821 -0.12557755 -0.580459 0.55330914
0000a0 33 c3 b7 bd bd f6 e9 3e 60 27 34 be 86 54 bf 3d
       -0.08972778 0.4569606 -0.17593145 0.093422934
0000b0 25 a2 9a be bf 92 04 3e b2 b9 9a be b1 0a 84 be
       -0.3020183 0.12946604 -0.302198 -0.25789407
0000c0 64 dd 04 3e 8c 25 95 3e 7e 4f 18 3e 7a 47 ef 3d
       0.12975079 0.29130208 0.14874074 0.11683555
0000d0 55 c5 5c be 9e 7b 66 3e 6f 11 ea 3e 15 56 ac be
       -0.21559651 0.22508094 0.45716426 -0.33659425
0000e0 d2 72 a9 bd 37 42 8b bd f7 a3 4f bd cd d0 11 be
       -0.08273853 -0.06799739 -0.05069348 -0.14239807
0000f0 32 dc f8 3d d3 c6 06 be ba 46 25 be da 43 90 3e
       0.12151374 -0.13161783 -0.16140261 0.28176767
000100 66 22 aa 3d b8 b5 ed be a6 06 b1 3e 20 13 37 be
       0.08307342 -0.46427703 0.34575385 -0.1787839
000110 08 73 6b 3e ae 64 a6 3b 74 4c 0b bf c2 d9 4d 3d
       0.229931 0.00507792 -0.54413533 0.0502565
000120 c7 33 8c bd ed 9f 01 be 2a 00 5f 3e 70 74 5b 3c
       -0.06845813 -0.12658663 0.21777406 0.01339446
000130 d3 ac 65 3e f7 ed 08 3e bb 93 a5 bd 50 ab 26 3e
       0.22429208 0.13372026 -0.08084818 0.16276288
000140 9f 24 15 3e f6 d3 16 bc 41 d3 a7 3d cf 2b 8c 3e
       0.14564751 -0.009205809 0.0819459 0.27377173
000150 0f 87 57 be 52 71 67 bd 9e 88 3c 3d 54 dc 60 be
       -0.21047615 -0.056504555 0.046028726 -0.21959049
000160 c8 d3 4d be 9d 95 d3 3c 3e dd 0c 3e 3e af dd 3e
       -0.2010032 0.025828177 0.13756272 0.43297762
000170 26 1e c0 3e 2b 81 94 be f8 47 73 3e 2c 28 17 bf
       0.37523 -0.29004797 0.23757923 -0.5904567
000180 52 4e 62 3e 5d 49 cf bd e0 1a ff bd 7a c2 e0 bc
       0.2210019 -0.10121415 -0.12456298 -0.027436484
000190 72 53 3c bd 96 b6 9c be c7 4d 2a 3e 24 0f ba 3d
       -0.045978017 -0.30608052 0.16631232 0.09084919
0001a0 e9 62 35 bd aa cf 47 3d 01 96 fa 3b f6 60 4c ba
       -0.04428378 0.04878203 0.0076472764 -0.0007796431
0001b0 fc 08 1c 3e a5 98 42 3e 7b 95 a2 bd ff c1 65 bd
       0.15237802 0.19003542 -0.079386674 -0.056093212
0001c0 b4 08 72 3e fa 1f 0a 3e 6a d0 1a be 4f 0a 83 3e
       0.23636132 0.1348876 -0.15118566 0.25593802
0001d0 76 3c 93 be 5d 90 d5 bd 17 02 0d 3e 62 3f 52 be
       -0.28757066 -0.10427926 0.13770328 -0.20531991
0001e0 78 2a ae be ed a8 cc bd b7 09 70 3e 9c f0 76 3e
       -0.34016776 -0.099931575 0.23441206 0.24115223
0001f0 ad 0e 82 3e d3 cd af bd 07 63 32 3d ea 5f 83 be
       0.25401822 -0.0858418 0.04355147 -0.25659114
000200 b2 e1 f6 3d 7f 06 b2 be 2d 27 7a bd 75 73 aa be
       0.12054767 -0.3477058 -0.061072517 -0.33291212
000210 f9 0a 27 bd e6 14 51 be ee f0 ef be cb 7e c3 3e
       -0.04078195 -0.20418128 -0.46863502 0.38182673
000220 11 53 d6 3e 8d d5 3c 3d b1 cc 45 be 3f 47 70 3e
       0.4186025 0.046102095 -0.19316365 0.23464678
000230 33 eb 85 be a9 74 e3 bd 85 0f f9 3d 10 8e 8e be
       -0.26156005 -0.111062355 0.12161163 -0.2784276
000240 5e 1e f5 3c d6 8f 08 bf f8 ce b3 3e c6 8e a6 be
       0.029921707 -0.53344476 0.35118842 -0.32530802
000250 f4 69 05 3f 06 1b 25 bf cd cc 90 b7 3c 81 56 3e
       0.52114797 -0.6449436 -1.7261505e-05 0.20947737
000260 f5 d6 f4 bd 8e ae 60 bd fe 29 49 3f 1a ef bb bd
       -0.11955062 -0.05485397 0.785797 -0.091764644
000270 5b 9e 8f bd fc 98 13 3f 43 fe da 3e 6b e3 b4 be
       -0.07012626 0.5765531 0.4277211 -0.35329756
000280 dc 03 e6 bd 50 22 12 bf 07 22 d3 bd 5b 3d d1 be
       -0.11231205 -0.57083607 -0.103092246 -0.40867123
000290 d6 09 b0 3e 8c fa c8 be cb 04 01 bf cd bb e6 3e
       0.34382504 -0.39253652 -0.5039794 0.45065156
0002a0 2a 19 6b be c6 ff 9e 3e 45 0d 02 3e 99 22 9b 3d
       -0.22958818 0.31054515 0.12700374 0.07574958
0002b0 0f 68 82 be ac 5d 02 3f 70 4b a8 3d 3b 44 e1 bd
       -0.25470015 0.5092418 0.082175136 -0.10999342
0002c0 e7 04 c9 3d d3 d7 bc bc 2a a4 0e 3e d6 b4 c5 3e
       0.09815388 -0.023052132 0.13929811 0.3861453
0002d0 18 0e 44 be 87 e4 7c be 93 ba ec 3e 59 f1 f3 be
       -0.19146001 -0.24696551 0.46236095 -0.4764507
0002e0 17 c6 99 bc e4 20 2d 3e 2c 53 06 be b5 d8 6a be
       -0.018771214 0.16907078 -0.13117665 -0.2293423
0002f0 50 17 86 be c2 74 a7 3e 27 7c 3b 3d b0 01 93 3e
       -0.2618966 0.32706267 0.045772698 0.28712225
000300 27 6b c4 be b2 df 18 3e e3 98 09 3e 13 10 69 be
       -0.38363 0.14929083 0.13437228 -0.22760038
000310 d8 98 51 3e e1 6f 09 be 68 c4 f6 bc 1c 1a 0c 3d
       0.20468462 -0.13421585 -0.03012295 0.034204587
000320 52 87 4f 3e 10 bc e1 bb 13 41 6e 3a e4 8e c1 be
       0.20266464 -0.006888874 0.00090886763 -0.3780433
000330 92 2d 69 3e 0c 93 ef bd ba ab 6a be ab e8 d3 3e
       0.2277129 -0.11697969 -0.22917071 0.4138845
000340 bc 8c 8e 3e 34 91 ca 3e 80 b2 38 bd e2 d5 08 bd
       0.27841747 0.39563906 -0.045092106 -0.0334071
000350 65 4b d5 bd 57 5f 3f 3e e5 f1 00 3e 35 65 9e 3d
       -0.10414771 0.18688713 0.12592275 0.077341475
000360 00 53 89 be 78 fb d2 bd e9 24 1b 3e 0b cf 67 be
       -0.26821136 -0.1030187 0.15150799 -0.22637574
000370 74 8d 51 3e 41 88 90 3d cf 30 09 be a9 c2 14 3e
       0.20464116 0.07057238 -0.13397525 0.14527382
000380 6c 46 78 3e df cc e0 be b3 ed 08 be 54 7b e9 be
       0.24245614 -0.43906304 -0.13371925 -0.45601904
000390 b4 40 6d bd 9a 8e de bd 47 6e 49 bf 7a fc ef 3e
       -0.057923034 -0.10867043 -0.78683895 0.46872312
0003a0 be 93 a4 bc 1d 70 90 3e 41 19 21 be e1 b6 12 3e
       -0.02008998 0.28210536 -0.1573229 0.14327575
0003b0 a5 4d 95 be 68 da 84 3e 23 49 5b 3c ec 7c ee bd
       -0.291608 0.2594788 0.013384136 -0.11644921
0003c0 2f fd f9 bd c0 79 26 3e a7 85 19 be d7 cf da 3e
       -0.12206494 0.16257381 -0.1499239 0.42736694
0003d0 4b e1 ac be 53 98 34 3e 97 ce bb bb 5a 8e d4 be
       -0.33765635 0.17636232 -0.0057314145 -0.41514856
0003e0 25 5e 16 3e 75 05 f8 3e 93 6d b6 be 01 43 11 3f
       0.14684351 0.48441663 -0.35630473 0.56742865
0003f0 3c 74 e6 be d3 b4 e2 3e 46 2f d8 3e 13 e8 cd be
       -0.45010555 0.44278583 0.42223567 -0.4021612

rwkv1.a2 f4 [8, 32]
000000 6d 4b 3a be 90 a4 d3 3e 77 a4 8d be 92 aa 8d be
       -0.18192835 0.4133649 -0.2766454 -0.27669197
000010 6d e6 4c bd af 15 22 be 2a 1d ec 3c 16 b3 1d be
       -0.05002444 -0.15828584 0.0288225 -0.15400347
000020 9e 72 4d 3f 69 7e 8e 3d 96 04 3e bf ab c6 d7 bd
       0.80253017 0.069577046 -0.7422575 -0.1053594
000030 d9 ae 9c bd f5 4c 80 3d 03 fc 88 3e ed ee e6 be
       -0.07650537 0.062646784 0.2675477 -0.4510416
000040 00 25 53 be 2e c0 2e be 40 a9 5c bd 75 7c 32 be
       -0.20619583 -0.17065498 -0.053872347 -0.17430289
000050 30 a6 a7 bd 4d e9 c8 bd 01 0b 18 be 5c df 13 be
       -0.081859946 -0.098101236 -0.14847948 -0.14440674
000060 b2 69 52 be fd 6c 5f bd 87 90 b0 3e bd 9b 57 3e
       -0.20548132 -0.0545473 0.34485266 0.21055503
000070 e8 6e bb bc fd 5f 52 3d d6 69 8b bc 7e 5b 4f be
       -0.022880033 0.051361073 -0.01701824 -0.20249745
000080 77 37 23 bd f1 be c5 3e e3 94 c0 3e fe dd ae bf
       -0.039847817 0.3862224 0.37613592 -1.3661497
000090 80 ff b2 be d1 5c 1c bf 1b 3b 6b bf d5 9b 00 bf
       -0.34960556 -0.61079127 -0.9188706 -0.5023778
0000a0 c4 b5 4d be 15 99 35 3e f0 6c 2b 3f 4b 0f 86 be
       -0.2008887 0.17734177 0.669631 -0.26183543
0000b0 33 69 7a be 02 65 a4 be 54 cc a1 be 8c e7 d2 bd
       -0.24454193 -0.32108313 -0.31601202 -0.1029807
0000c0 6c 2a 35 3e ce 00 19 3e 38 81 59 3e 4a ec e3 3d
       0.17691964 0.14941713 0.212407 0.11129053
0000d0 c7 99 69 3e d1 8b 09 bd f2 d8 90 3d 79 86 b5 3d
       0.22812568 -0.033580605 0.07072629 0.08863539
0000e0 61 0b 4a be 28 dd 92 3d f7 a0 9b be 6c ee 5c be
       -0.19730903 0.071710885 -0.30396244 -0.21575326
0000f0 fd 19 2a 3e 5a f7 df bd bb e3 bf 3d 08 c9 d5 bd
       0.16611476 -0.109358504 0.09369608 -0.10438734
000100 d9 b6 57 3d 04 20 9f 3e 06 73 fe 3d 79 0b d8 3e
       0.05266461 0.31079113 0.12424283 0.42196253
000110 2b 68 0d 3f fb b3 e3 3e ae fb 51 3f b1 b0 5c 3f
       0.5523707 0.44473252 0.8202466 0.8620711
000120 b0 f8 cf 3b 42 10 8c 3e ec 87 80 be 8b 80 95 3e
       0.0063467845 0.27356154 -0.251037 0.29199633
000130 e2 e5 ef 3e d8 a7 bb 3e 1c 61 48 3e 44 0d 45 3c
       0.46855074 0.36651492 0.19568294 0.012027089
000140 89 54 c0 bd 19 00 41 bd d9 8f b6 bd 75 26 a4 bd
       -0.09391124 -0.047119234 -0.089141555 -0.080151476
000150 c3 ce d9 bd 9d 51 56 be 23 6a 5b be b6 fb c1 bd
       -0.1063514 -0.2092957 -0.21427207 -0.09471838
000160 0c fc a5 bd 7c 4e 90 bd 7a 00 76 be ca dd 0a bf
       -0.08104715 -0.0704622 -0.2402362 -0.54244673
000170 98 e2 d0 bd cc a2 9f be 5e 00 8d 3b a4 ef 30 3e
       -0.10199469 -0.31178892 0.0043030223 0.17278916
000180 17 91 4d 3d 4d 98 93 3f d2 a2 cf 3e 5a 99 8a 3d
       0.050187197 1.1530854 0.4055391 0.06767531
000190 8c 7c fe 3b 28 c8 69 bf 7d 3d 5e bf 5f c0 d2 3f
       0.007766312 -0.9132104 -0.86812574 1.6464957
0001a0 55 e4 a6 3b 12 d0 66 3f 42 ae 7d bf 09 0e d7 be
       0.0050931373 0.9016124 -0.9909402 -0.42002895
0001b0 84 36 36 be bf 64 62 bf f7 6d 53 bf 88 39 27 3f
       -0.17794234 -0.88434976 -0.8258967 0.6532216
0001c0 37 63 b2 3d 1f 16 bd 3d c4 52 96 bc 2b c3 0c 3e
       0.0871033 0.09232735 -0.018350013 0.13746326
0001d0 47 8b ec 3b 5b 09 a8 bd 0c bb 45 bc 41 56 0d 3e
       0.0072187516 -0.082049094 -0.012068521 0.13802435
0001e0 22 eb b5 be 03 76 06 3e 2f c5 1c be 03 5d cb bc
       -0.35530955 0.13130955 -0.15309595 -0.024824625
0001f0 b9 f2 08 3d 14 d7 18 3e e0 3e 10 be ef 89 cd bc
       0.033434603 0.14925796 -0.14086485 -0.025090186
000200 78 bd 43 3e 67 a4 b8 bf a8 90 3e 3f f2 55 8e 3e
       0.19115245 -1.4425172 0.7443948 0.27799946
000210 76 d3 03 3f a5 ee 61 3f 07 71 32 3f 5c 26 66 bf
       0.5149454 0.8825477 0.69703716 -0.8990228
000220 e1 c4 92 be 9a 2b 05 3e 17 f0 1a 3f d6 17 42 3d
       -0.28665832 0.13004914 0.605226 0.047386013
000230 a5 8c 0d 3f 1f a6 10 be 49 ad 92 3d a5 39 8c be
       0.5529273 -0.1412587 0.07161958 -0.2738773
000240 d7 42 25 3c 33 c2 96 3c 58 c5 ad 3d e0 24 bd 3c
       0.010086737 0.018403148 0.08484906 0.023088872
000250 c7 37 8f 3d d9 b9 bd 3d 54 b9 5a 3d fa de f4 bc
       0.069930606 0.09263963 0.0533994 -0.02989148
000260 00 63 80 3d 41 d1 00 bd 93 f1 cb bd 5e 0f 23 bb
       0.06268883 -0.03144956 -0.09958186 -0.0024880986
000270 45 f7 d0 3d 8b f4 aa bd 6f ef f3 bc 8f 55 b8 bc
       0.10203413 -0.08347424 -0.029777257 -0.022501735
000280 47 de 5f 3c 15 03 75 3d 49 1a 3f 3c 1b b6 ea bf
       0.013663835 0.059817392 0.011663982 -1.8336824
000290 4a a5 72 bf 03 7d a2 be 5e 95 6a bf cc b9 1d be
       -0.9478346 -0.31736 -0.91634166 -0.15402907
0002a0 1a 15 f7 be 0f a6 22 3e b0 0b e3 3e 01 42 4c bd
       -0.48258287 0.15883659 0.44344854 -0.049867634
0002b0 85 4c 86 bd b0 b1 0b bd d8 4a 8e be c7 c3 ca 3e
       -0.06557564 -0.034105003 -0.27791476 0.3960249
0002c0 36 ae 58 bd 49 ee 3b bd 07 6c f4 bb ca e9 26 bd
       -0.052900515 -0.045881543 -0.007459167 -0.040750302
0002d0 46 25 d5 bc 26 dd af bc 86 1f 10 be 98 81 80 bd
       -0.02601875 -0.021467756 -0.14074525 -0.06274718
0002e0 70 d3 61 bd a1 80 87 bd 7b f7 e8 be e9 18 76 be
       -0.055133283 -0.06616331 -0.45501313 -0.2403294
0002f0 3b a6 c6 bc 56 dd 52 be be ad eb 3c c0 27 05 3e
       -0.024249187 -0.20592245 0.02876937 0.13003445
000300 13 52 dc 3d ff f9 07 3f 94 28 d3 3e 45 78 ff 3e
       0.10757842 0.5311584 0.41241896 0.49896446
000310 c7 8b 3c 3f 18 e5 86 bf aa 72 88 bf b2 51 b5 bc
       0.73650783 -1.0538664 -1.0659993 -0.022133682
000320 c7 ed dc be 14 e5 5d 3e cb 30 08 3f ca 48 9c be
       -0.4315016 0.21669418 0.5319945 -0.30524284
000330 85 f1 aa bd 9d 33 ac 3e 6e fb 05 bf 78 39 4f be
       -0.083468474 0.33633128 -0.52336776 -0.20236766
000340 ee 2c 66 bc 42 06 4b bd 78 66 03 3e ed 87 0b bd
       -0.014048798 -0.049566515 0.12832057 -0.034065176
000350 41 e7 d2 3d 2c 0f 1c bd d2 01 32 be 93 cd a4 bd
       0.102980144 -0.038100407 -0.17383507 -0.08047023
000360 a1 0e 9a be 45 68 ab bd 8e 65 c4 be 57 e4 41 be
       -0.30089286 -0.08369497 -0.3835873 -0.18934761
000370 bb 1f b2 3d a0 06 38 be 0f 89 3c 3c 8a 43 20 be
       0.08697458 -0.17971277 0.011507287 -0.15650764
000380 91 fb cd 3a e2 64 a0 bf e3 44 f8 be 36 a7 32 bd
       0.0015715231 -1.2530787 -0.48490056 -0.043616496
000390 f5 1d ff 3c 28 90 25 3f 9f d5 87 3e 62 b1 2f c0
       0.031142214 0.6467309 0.26530167 -2.7452016
0003a0 ef fc 19 3d dd fc 03 bf 63 1e 18 3f de 5d 30 3e
       0.037594732 -0.51557714 0.59421366 0.17223307
0003b0 0e ad 4e 3e 14 72 40 3f d5 4d 4d 3f 41 4a 7f bf
       0.20183203 0.7517407 0.8019689 -0.9972268
0003c0 ef b6 98 3d 83 7c 23 3c ab e6 d8 3d 81 71 bb 3c
       0.07456767 0.009978416 0.105908714 0.022881271
0003d0 11 c7 14 3e f7 16 dc bd a9 92 99 3e de d1 60 3d
       0.14529063 -0.10746568 0.29994705 0.054887645
0003e0 b3 67 a7 3e d4 6a 02 3b 68 3d e7 3e 27 5f 06 3e
       0.32696304 0.00199001 0.45164037 0.13122235
0003f0 97 7e b3 3d a4 94 5e 3d 22 a6 af 3d 59 19 c6 3b
       0.087643795 0.054340973 0.08576609 0.006045502

rwkv1.a0 f4 [1, 1, 32]
000000 2d b1 66 bf 73 d8 5a bf 19 d3 e4 bd 0b 36 33 bf
       -0.901141 -0.85486525 -0.11173076 -0.7000434
000010 95 c6 03 bf e1 01 43 bf 67 51 a0 be 04 94 87 be
       -0.5147489 -0.7617474 -0.31312105 -0.26480114
000020 e8 18 9e bf dd 18 5a be 99 66 08 3f 80 6f b2 be
       -1.2351351 -0.21298547 0.5328155 -0.34850693
000030 dc da 8d 3d 55 85 e2 bd 0a 5f d9 3c df 2a 43 3f
       0.0692651 -0.11060587 0.026534576 0.7623729
000040 31 4b 0b bf 87 de 01 bf 31 7f dd be 1a d6 ae be
       -0.5441161 -0.50730175 -0.43261102 -0.34147722
000050 eb ab c6 be 56 54 51 3c 69 9f 2e bd ec 2b 5f bf
       -0.38803038 0.012776455 -0.042632494 -0.87176394
000060 10 ad 57 3e a4 5f a1 be 63 f6 96 be 7f 2b 92 be
       0.21062112 -0.3151828 -0.29484853 -0.2854881
000070 aa 9c 5b bc 00 4f 0f 3e 4f 3c 93 3d d1 91 08 3f
       -0.013404051 0.1399498 0.07189237 0.533475
